backend/ml/models/pivot_model.pth (torch, 6789 bytes, 5 tensors)

fc1.weight f4 [32, 9]
000000 d1 1b 3f be 2e 63 38 3e 01 a5 a3 be e4 bf 7f 3e
       -0.18662955 0.18006584 -0.31961825 0.24975544
000010 44 7b 93 3e a1 b0 00 be be e6 44 3e d8 c7 8b 3c
       0.28804982 -0.12567379 0.19228646 0.017063066
000020 1f 1b 01 3e 2e 96 31 be 38 35 7a 3d 50 24 ce bc
       0.12608002 -0.17342445 0.06108591 -0.0251638
000030 50 9f da bc 00 c3 d2 ba 6d 46 80 3e b3 77 0b be
       -0.026687294 -0.0016079843 0.2505373 -0.1361988
000040 c8 15 45 be 18 dd 6f be a7 2c 89 bd d6 14 93 bd
       -0.1924659 -0.23424184 -0.0669797 -0.071817085
000050 53 4c 9c be f5 17 ab 3e 56 12 a2 3e 51 9d 9a 3e
       -0.3052698 0.33416715 0.31654614 0.30198148
000060 c0 71 9b bc a1 ed 91 3e ef c9 86 3e 08 a8 81 3e
       -0.018975139 0.2850161 0.26325938 0.2532351
000070 e1 a0 91 bd a6 0e 70 3e 68 60 09 3e 3c 07 f3 bd
       -0.07110763 0.23443088 0.13415682 -0.11866614
000080 cd 74 66 3e aa 90 92 bd 64 19 60 3e dd 13 14 be
       0.22505493 -0.07156499 0.21884686 -0.14460702
000090 7e c4 a6 be 83 fa 03 be 8e df 59 be 3f be 9a be
       -0.32571787 -0.12888531 -0.21276686 -0.3022327
0000a0 60 f9 5f bd 2e 52 28 be e2 87 a6 be c0 ef 28 3d
       -0.054681182 -0.16437599 -0.32525545 0.04124427
0000b0 a0 68 a5 3d f2 f0 1c 3e 17 a9 55 3e 19 61 8f bd
       0.08076596 0.15326288 0.20865284 -0.07000942
0000c0 4f 0f 28 3e 8f 24 a7 3e 66 e3 62 be 8b 6a b0 3c
       0.1641209 0.3264508 -0.22157058 0.021535179
0000d0 a9 d6 3a be da 7b 81 be 10 2c ac bd 23 40 1f be
       -0.18245949 -0.25289804 -0.08406842 -0.1555181
0000e0 c0 aa b2 bb 41 69 9a 3e 1d 99 84 3e 37 12 86 3e
       -0.005452484 0.30158427 0.25898066 0.26185772
0000f0 7c 43 d0 3d 9e dc 91 be d6 b1 63 3e 43 3d a7 3e
       0.101691216 -0.2848863 0.22235808 0.32663926
000100 d4 85 ce bd c7 de 65 be da 4c 39 3e a6 9f 4c be
       -0.100841194 -0.22448264 0.18095723 -0.19982776
000110 c4 fc 14 3e 11 06 00 3d e3 80 00 3e ca 89 9e bb
       0.14549547 0.031255785 0.12549166 -0.004838203
000120 c1 e1 b2 3d 88 2c 07 3e b7 d1 39 be 6d e2 92 3e
       0.087344654 0.13200581 -0.18146406 0.28688374
000130 1a f5 52 3e 25 5e 0f be 2b a8 c1 bd 2e d4 47 be
       0.20601311 -0.14000757 -0.094559036 -0.19514534
000140 b6 32 95 3e 1c 1f 8f bd d8 09 45 be 18 e9 13 bd
       0.29140252 -0.069883555 -0.19242036 -0.036110967
000150 06 9c 9f be a3 0f 10 be 99 e5 90 3e 4b 64 86 be
       -0.31173724 -0.14068465 0.2830017 -0.26248392
000160 9d 50 8f 3e fe e0 50 3e 92 73 85 be d8 72 1d 3e
       0.2799119 0.20398328 -0.26064736 0.1537584
000170 90 c9 a3 bc a0 18 f8 bd 9a 30 63 3e 40 ef 82 be
       -0.019993573 -0.12114072 0.22186509 -0.25573158
000180 80 10 7b 3c 60 2d 62 bc 87 16 87 be 2d ed 85 3e
       0.015323758 -0.013804764 -0.26384374 0.26157513
000190 10 d7 88 3c f4 d6 cb 3d e0 fa 47 be 6e a4 3e be
       0.016704112 0.099531084 -0.19529295 -0.18617412
0001a0 40 af eb 3b db b0 9a be 34 60 a0 be b6 b8 25 be
       0.0071925223 -0.30213055 -0.31323397 -0.16183743
0001b0 e5 4c a5 3e 17 c1 2a 3e 03 33 ea bd a2 b9 11 3e
       0.32285228 0.1667522 -0.11435511 0.1423097
0001c0 68 5e 08 bc fe 47 90 3e f5 d2 d1 3d 89 a9 a0 3e
       -0.008323289 0.28179926 0.10245315 0.31379345
0001d0 fb 46 88 3e 2e cd 61 be e0 e5 29 bc 60 05 65 bd
       0.26616654 -0.22050926 -0.010369748 -0.05591333
0001e0 ab df a6 be 1e 3b 56 be dc 78 c7 bd 56 a7 4d be
       -0.3259252 -0.20920989 -0.09739849 -0.20083365
0001f0 86 d4 57 be d3 c7 50 be c8 de 87 be e3 93 9a be
       -0.21077165 -0.20388727 -0.26537156 -0.30190954
000200 68 a5 33 bd 73 fe 83 3e 88 b1 9b be d0 cd a5 3c
       -0.043858916 0.25780067 -0.30408883 0.02023974
000210 56 5b 39 3e 22 44 8b be 30 81 a4 bc fc f8 94 3d
       0.18101248 -0.2720042 -0.020081133 0.072740525
000220 f0 d6 56 be 3f 85 83 3e b8 e6 68 be 70 9b a6 be
       -0.2098043 0.25687596 -0.22744262 -0.32540464
000230 f2 e5 3d 3e 02 b3 a5 be 50 cc 05 be a2 b2 63 3e
       0.18544748 -0.32363135 -0.1306622 0.22236112
000240 af 7d 80 be 82 53 53 3e 0a bc 82 be 84 42 8a be
       -0.2509589 0.20637324 -0.25534087 -0.27003872
000250 de 2c 5d be cb c5 85 be c8 78 53 be 83 6f a6 be
       -0.21599147 -0.26127467 -0.20651543 -0.32506952
000260 46 b6 06 be 7a ea 4c 3e d8 22 a7 be 24 9d 9d be
       -0.1315547 0.2001132 -0.3264377 -0.3078395
000270 e6 e8 f2 bd 60 5c 60 bc 00 d4 2b be a0 83 3d be
       -0.11860828 -0.013693899 -0.1678009 -0.18507242
000280 6e 62 45 3e c0 5b 89 be 89 24 11 3d 84 34 86 3d
       0.19275829 -0.26827812 0.035435233 0.06552985
000290 fc 1e 8a 3e 0c ca ba bd c5 d9 2d bc a8 87 94 3d
       0.26976764 -0.09120569 -0.010611002 0.07252437
0002a0 b3 37 c7 3b fe ef f3 3d 69 4a 09 bb e8 c9 99 3e
       0.006079638 0.11911009 -0.0020948893 0.30036855
0002b0 dc 3f a2 3e 13 b9 81 3e a2 35 c8 3b be 27 8e 3d
       0.31689346 0.25336513 0.006109909 0.06941174
0002c0 c1 47 36 bd fb a3 23 3e f5 87 6a 3e 03 fe e5 3d
       -0.044502024 0.15980522 0.22903426 0.112300895
0002d0 8a 58 82 bd ce 99 9e be e6 ae b3 3c d4 48 44 3e
       -0.06364544 -0.3097672 0.021933984 0.19168407
0002e0 b8 66 a7 3e b3 8e a4 be 54 50 29 be 12 a9 b8 bd
       0.32695556 -0.3214012 -0.16534549 -0.090166226
0002f0 47 85 cb 3d 96 4c 5f bc 4c bf 40 3e ba c9 d5 ba
       0.0993753 -0.013629099 0.18822974 -0.001631073
000300 48 50 81 3e 6e ee 9a 3e 00 c3 5a bd e9 9e 34 bd
       0.25256562 0.30260032 -0.053408623 -0.04409686
000310 b5 d8 b9 bd 94 fd a3 3d 56 7c 60 be 60 01 da bd
       -0.09074537 0.080073506 -0.2192243 -0.106447935
000320 e8 57 84 be 80 8f 9c be e8 2d 06 3e 3c c9 e9 3d
       -0.25848317 -0.30578232 0.1310345 0.114153355
000330 90 b9 1c 3e 86 cd 76 3e 1b bd 93 be e9 c7 49 3e
       0.15305161 0.24101838 -0.28855214 0.19705166
000340 ab f3 53 3e 24 d8 89 3d 05 7e 84 be f3 8b de 3d
       0.2069842 0.06730679 -0.25877395 0.10866537
000350 7b c9 3f 3e a5 b0 16 be 31 ad 5d bd 09 e8 3e 3e
       0.18729202 -0.14715822 -0.054120246 0.18643202
000360 c0 d5 28 be 00 a9 88 bc 00 c9 ca 3a e7 ef 95 3e
       -0.16487789 -0.016682148 0.001547128 0.29284593
000370 ac 5f bd 3d c8 6e 5c be 73 e5 73 be f0 75 83 3d
       0.092467636 -0.21526635 -0.23817997 0.06418979
000380 86 03 d9 bd be a8 53 bd fb b5 1f 3e 33 91 84 3c
       -0.10596375 -0.051674597 0.15596764 0.016182518
000390 31 44 99 be a4 f4 92 bd f7 e4 f6 bd 8a 37 20 3e
       -0.29934838 -0.07175568 -0.1205539 0.15646186
0003a0 58 65 61 be d8 67 7b 3e 6b 99 47 be 2d 08 ef bc
       -0.22011316 0.24551332 -0.19492118 -0.029178703
0003b0 65 ce 9f be 4c 79 fe 3b 7b 9a 21 be c1 9e 9f be
       -0.31212154 0.0077659246 -0.15781586 -0.31175807
0003c0 1a 40 7e 3e 03 64 9b 3e fb e3 a6 3e 5b a8 ab 3d
       0.2482914 0.3034974 0.3259581 0.08381721
0003d0 5e c0 7e bd b4 35 81 be cd 28 99 3e 26 d4 b2 bd
       -0.062195174 -0.25236285 0.2991394 -0.0873187
0003e0 9d 1b 93 be d4 85 a3 3e ed 23 a2 be a2 d5 85 3e
       -0.28732005 0.3193804 -0.31668034 0.2613955
0003f0 ac c1 07 3e 7d c3 fa 3d cc 48 97 3e c0 22 7a 3e
       0.13257474 0.12244318 0.29547727 0.24427319

fc1.bias f4 [32]
000000 81 1c 41 3e 80 02 cc bd 31 18 a8 3e a7 30 f6 3c
       0.1885853 -0.09961414 0.32830957 0.030052496
000010 d8 38 0a be 6c f5 77 3e 66 54 97 be d6 51 39 3d
       -0.13498247 0.24214715 -0.29556578 0.04524406
000020 56 10 6c 3d 00 8f ae ba 38 d5 6e be f0 83 40 be
       0.057632767 -0.0013317764 -0.23323524 -0.1880033
000030 4b 21 ab 3e d0 40 b8 3c c6 bc f6 bd 78 ac 33 3d
       0.33423838 0.022491843 -0.120477244 0.04386565
000040 98 c6 31 3d 22 77 81 be 5a fc 81 bd d8 d4 72 bd
       0.043402284 -0.25286204 -0.0634696 -0.059285015
000050 89 36 95 3e 3f ca f6 3d 2c b7 e8 bd d0 91 f5 3d
       0.2914317 0.12050294 -0.11363062 0.11990702
000060 b0 42 9b 3c 0e df 22 bd 92 b2 c0 3c 8e 77 35 3e
       0.018952698 -0.039763503 0.023522649 0.17721388
000070 2a 64 1e 3d fe 16 a6 be 7a c1 e0 3d d7 7d 97 3e
       0.038669743 -0.32439417 0.10974403 0.29588196

fc2.weight f4 [16, 32]
000000 60 79 85 3d 8c d9 23 bd 88 df 37 3e b7 6b d7 bd
       0.06517291 -0.04000239 0.17956364 -0.10518592
000010 96 dc c3 3d 6e b5 d1 3d 6c dc 12 be d2 18 38 3e
       0.09563558 0.10239683 -0.14341897 0.17978218
000020 68 42 7b bd 27 a3 c2 bd ce 10 d0 3d 88 71 15 bd
       -0.061342627 -0.09503775 0.10159455 -0.036485225
000030 d0 e6 24 be bd a1 9a bd 89 ba 0e 3e 35 7f 8a bd
       -0.16103673 -0.075503804 0.13938345 -0.06762544
000040 4d bc 1c 3e 40 be d5 bc 23 bf 38 3e fd 8a 01 be
       0.15306206 -0.026091695 0.18041663 -0.12650676
000050 8f 9a 2c 3d 31 97 25 3e b1 60 08 3e 02 81 4e bd
       0.042139586 0.16170956 0.13318135 -0.050416
000060 f7 10 1b 3e 87 d8 a7 bd 1e 24 b8 3d 39 83 82 bd
       0.1514319 -0.08195596 0.08991264 -0.06372685
000070 a9 48 d7 3d aa 92 2a be f7 11 eb bd 7d e1 10 3e
       0.10511906 -0.1665751 -0.11478036 0.14148517
000080 09 1c 7a 3d f0 67 1f 3c e2 95 02 bd f9 d8 cd bc
       0.061061893 0.0097293705 -0.03188122 -0.025127875
000090 df 68 ad bd d8 55 2d bd 40 d7 8c bc d2 60 e3 3d
       -0.08467268 -0.042318195 -0.017192483 0.111024514
0000a0 98 1f fc bd 00 f7 62 3b 46 3f f1 3d c8 53 0e 3d
       -0.123107135 0.0034632087 0.117796466 0.03474787
0000b0 1c 5c 09 3e 60 b5 24 bd 22 d2 a9 3d 79 8f 9a bd
       0.13414043 -0.040212035 0.08292033 -0.075468965
0000c0 48 c0 b4 3c 83 3d 8a bd da b3 34 be 5e 88 81 bd
       0.022064343 -0.06750014 -0.17646733 -0.06324838
0000d0 1c 22 aa bd 35 a9 25 bd a1 87 33 3e 09 fb 1c bd
       -0.08307287 -0.04044457 0.17532207 -0.038325343
0000e0 e4 ef 05 be db 64 30 3e 20 42 84 3d d5 35 f8 3d
       -0.13079792 0.17225973 0.06457925 0.12119643
0000f0 86 39 15 3e 40 73 d6 bc 2b 28 20 3e e5 b8 aa 3d
       0.14572725 -0.026178002 0.15640323 0.08336047
000100 51 ab 0d be d0 21 5b 3d cb 8c c8 bd 0c ce 04 be
       -0.13834883 0.053499043 -0.09792479 -0.12969226
000110 ba 63 d4 3d ed 1b b6 bd 08 4b f8 3c b2 91 20 bd
       0.10370584 -0.08892045 0.030309215 -0.039201446
000120 6a 2f 70 bd 58 04 50 bd 3b 5c 29 3e 7a 80 d8 3d
       -0.058638968 -0.050785393 0.1653909 0.1057138
000130 d3 d8 16 be f1 07 12 3e f9 99 e3 bd 40 c8 ae 3c
       -0.1473115 0.14260842 -0.11113352 0.021335721
000140 ff 44 13 3e 36 57 dc bd 67 b0 19 be 91 de 12 3e
       0.14381789 -0.10758822 -0.15008698 0.14342715
000150 8e 3e 32 3e e4 71 fd bd 8c 3e 36 3d 1e ce 17 3e
       0.17406675 -0.123752385 0.044493243 0.14824721
000160 2c f9 86 bd 8d 0c 0f 3e b5 37 c6 bd 6c 46 18 bd
       -0.065904945 0.13969631 -0.09678594 -0.037176535
000170 14 5b 31 bd aa 40 c9 3d b4 b4 29 be 6b bf 04 3e
       -0.04329975 0.09826787 -0.16572839 0.12963645
000180 32 d8 bd 3d aa 32 e9 3d 80 9a 1c bd cc 2c cb bc
       0.092697516 0.113866165 -0.03823328 -0.024801634
000190 0e 1c 1f be 69 d6 d4 3d e4 be 0d 3d 98 97 84 bc
       -0.15538046 0.10392458 0.034605876 -0.016185567
0001a0 72 fd a8 3d 28 3e 99 bc c0 f4 68 bb 2c ed 37 bd
       0.08251466 -0.018706396 -0.0035546273 -0.04490392
0001b0 a4 82 10 3e 00 ca 0d bb 20 f3 70 3c 40 51 78 bc
       0.14112335 -0.0021635294 0.014706403 -0.01515609
0001c0 b8 51 fe bc 60 26 46 3d 6c 2d db 3d b2 73 b8 3d
       -0.031044826 0.04837644 0.10702023 0.09006442
0001d0 37 1e d8 3b 36 a6 19 be 85 b9 15 be a5 03 4d bc
       0.0065953988 -0.1500481 -0.14621551 -0.012513076
0001e0 80 45 e9 bc b5 db 58 bd 49 44 11 be c0 7c 26 3d
       -0.028475523 -0.052943904 -0.14186205 0.040646315
0001f0 45 58 b6 bd 18 33 c9 bd 67 19 05 be 1f 50 3c bc
       -0.08903555 -0.098241985 -0.12997971 -0.011493712
000200 86 7f 1d 3e e0 25 74 bc 60 58 ef bd b8 9e f4 3d
       0.15380678 -0.014901608 -0.11686778 0.11944336
000210 50 be 3e bd 92 5b 16 3e ed f6 12 be 53 a5 3a 3d
       -0.046568215 0.14683369 -0.14352007 0.04556782
000220 25 c7 6a bd b8 d9 11 bd 3f 64 ac bd d8 14 06 3d
       -0.057318825 -0.035608023 -0.08417558 0.032734722
000230 87 5d 09 be 54 f9 2f 3d 0e 1d e8 bd 05 e8 c8 bd
       -0.13414584 0.042962387 -0.11333667 -0.09809879
000240 e3 a5 32 be 20 3e 46 bc 35 56 8c bd 8f 03 4b bc
       -0.17446093 -0.012099773 -0.0685238 -0.012390985
000250 3d a2 ee 3d 1e f1 e3 3d 14 ee 2c bd 9a 4f d0 bd
       0.11652038 0.11129974 -0.042219236 -0.10171433
000260 1d d9 07 be 4b 37 ba 3b 98 21 6d bd a5 01 15 3e
       -0.13266416 0.005682861 -0.057893366 0.14551409
000270 8c 95 f1 3d ab c0 2c be 51 2c ad 3d 10 ba 6b 3d
       0.11796102 -0.16870372 0.08455718 0.05755049
000280 db fd b1 3b 1c 13 6c 3d 50 5f 97 3d 60 38 20 3e
       0.0054318733 0.05763541 0.07391226 0.15646505
000290 50 a6 6e bd 7e cf 0c be 62 59 e6 3d 9a c7 e1 bd
       -0.058264077 -0.13751027 0.11247517 -0.11024399
0002a0 42 2d 03 3c 2d dc 00 3e a7 5f 1a 3e 28 9f f1 bd
       0.008006396 0.1258399 0.15075551 -0.11797935
0002b0 8a d6 bc 3b a5 e0 02 3e 00 56 a6 bb 12 ae 26 be
       0.0057628797 0.12781008 -0.00507617 -0.1627734
0002c0 a1 43 10 be a8 7f c8 bc c2 fd 88 3d a9 c8 6a 3d
       -0.14088298 -0.024474934 0.066890255 0.05732027
0002d0 0f d9 f5 3c 4f 7e 99 bd 32 b1 b0 3d b4 9f f3 3d
       0.030010728 -0.074947946 0.08627547 0.11895695
0002e0 10 fd 89 3c 17 cc b5 3c ed 62 37 3d bf de bd bd
       0.016844302 0.022192044 0.044772077 -0.09271001
0002f0 b0 83 d2 3d bb 58 25 3e 8b 4e a0 3c da 79 28 3d
       0.10279024 0.16147129 0.019568702 0.04113183
000300 fd a0 d9 3d 20 1f 26 be c4 87 14 3e 64 5b ae 3d
       0.10626409 -0.16222811 0.14504915 0.08513525
000310 33 40 26 3e 16 a5 e7 bd 0f 25 02 3e e5 5c 14 3e
       0.16235428 -0.113107845 0.12709449 0.14488561
000320 79 96 1b bd 8b 4a 27 3e f4 ba 72 3d b7 b2 1e be
       -0.0379853 0.1633703 0.059260324 -0.15497862
000330 b2 96 77 3d a4 12 07 bd 5b 61 0c 3e 2e 1a fc 3d
       0.06044645 -0.03297676 0.13709013 0.12309681
000340 5a a5 19 be 66 66 a3 3d 22 fb 06 be 47 f0 e6 3d
       -0.15004483 0.07978515 -0.13181737 0.11276298
000350 5d 88 b7 bd dd 50 4b bd 20 64 0d be f9 3f 14 3e
       -0.08961556 -0.049637664 -0.13807726 0.14477529
000360 a0 71 b7 bc dd 2b 99 3d 08 18 36 bc 13 78 09 3e
       -0.022393048 0.074790694 -0.011114128 0.13424711
000370 e0 23 c2 bd 06 55 e9 3d 41 89 e8 3d 09 ed 3e bc
       -0.09479499 0.1139317 0.11354304 -0.011653193
000380 72 d7 10 3e fe f9 81 3d af 5b f0 bc de fa 52 3b
       0.14144686 0.0634651 -0.029340593 0.0032192986
000390 a9 e7 2b 3e 57 e8 ab 3c 9a 65 0d be aa 65 59 3b
       0.1678759 0.020984812 -0.13808289 0.0033172169
0003a0 6d cd 19 3e 1d 10 32 3e 60 a9 8c 3b 4c f7 e4 bd
       0.1501977 0.17388959 0.004292652 -0.11179981
0003b0 11 02 76 3d 1a 78 98 3d c5 83 15 3e a0 ee e5 3c
       0.060060564 0.074447826 0.14601047 0.028067887
0003c0 5a a4 79 bd 46 40 b1 3d 9d b7 51 bd 81 99 a6 3d
       -0.060947753 0.08654837 -0.051200498 0.08134747
0003d0 a7 64 bf bd ea 62 44 bd 44 23 46 bd 5f 38 8c bd
       -0.0934537 -0.047945894 -0.048373476 -0.068466894
0003e0 58 2b 12 3d 3d 00 c1 bc 95 ff 4b bd 31 7c e4 bd
       0.035685867 -0.023559684 -0.04980429 -0.111565
0003f0 d7 9a 28 be 40 db 41 bd 6d f3 2f be ad 5e d4 bd
       -0.16465317 -0.047328234 -0.17182703 -0.103696205

fc2.bias f4 [16]
000000 bc 5a 60 3d 41 c3 b9 3d 8f f6 2a 3e 5b 52 be bd
       0.05477403 0.09070445 0.16695617 -0.09293052
000010 70 88 af 3c 77 a7 77 3d a4 2d 51 3d b0 01 28 3e
       0.021427363 0.06046244 0.051068917 0.16406894
000020 39 99 2c 3d 69 78 e2 3d 22 8d e5 3c bd f5 24 3d
       0.042138312 0.11058123 0.028021399 0.040273417
000030 85 a1 d4 bd 57 92 87 3d 38 a0 74 bc 28 fe d8 bd
       -0.1038237 0.06619709 -0.014930777 -0.105953515

fc3.weight f4 [1, 16]
000000 cf f6 10 be d9 5e 53 be 0b 7a 56 bd 46 58 4b 3e
       -0.1415665 -0.2064165 -0.052362483 0.19857892
000010 c5 4a 47 3e fd 47 64 bd ee e5 0a be fb 80 18 3e
       0.19462116 -0.055732716 -0.13564274 0.14892952
000020 57 74 4c be 33 5e 8e 3d c2 94 1e 3e 35 fc 52 3e
       -0.19966255 0.06951561 0.15486434 0.20604022
000030 ce 7b 57 be 5b 02 81 be 09 18 0e 3e 28 89 6a be
       -0.21043321 -0.2519711 0.13876356 -0.22903883
