backend/ml/models/pivot_model.pth (torch, 6725 bytes, 5 tensors)

fc1.weight f4 [32, 9]
0	0x3e620119	0.22070731
1	0xbe559291	-0.20856692
2	0x3c99b1b1	0.018761488
3	0xbec41bc4	-0.38302433
4	0xbeb87b0a	-0.3603137
5	0x3f8b00e3	1.0859646
6	0x3c672c2c	0.0141096525
7	0xbe665ef3	-0.22497158
8	0x3e4c4768	0.19949114
9	0x3d36dee8	0.044646174
10	0xbdf328a6	-0.118729874
11	0xbe80b562	-0.25138384
12	0xbe81e6bb	-0.25371346
13	0xbc1e1d60	-0.009650558
14	0xbdefdcd6	-0.11712043
15	0xbd1b6fa0	-0.03794825
16	0xbe455d78	-0.19273937
17	0xbe4b9b9e	-0.19883582
18	0x3e1a1ac8	0.15049279
19	0x3e708337	0.23487554
20	0xbe01050d	-0.12599583
21	0x3e8b001b	0.27148518
22	0xbe819e6c	-0.2531618
23	0x3f6ca02b	0.92431897
24	0xbd4039e3	-0.046930205
25	0x3c2ad6a0	0.010427147
26	0x3e0ff514	0.14058334
27	0x3e59a18e	0.21253034
28	0x3e1e4f33	0.154599
29	0xbd0371c5	-0.03209092
30	0x3ea4f3cb	0.3221725
31	0x3bf31b46	0.0074190227
32	0x3f0ebf69	0.5576082
33	0xbe9144dd	-0.2837285
34	0x3d9cf34a	0.07663591
35	0x3e2bef55	0.16790517
36	0x3e5abe56	0.2136167
37	0xbe61b4ab	-0.22041576
38	0x3e5f3ebe	0.21801278
39	0xbe03e3bb	-0.12879841
40	0x3d1e3d18	0.038632482
41	0xbe94abf0	-0.29037428
42	0xbe1a8dee	-0.15093204
43	0xbde1e486	-0.110299155
44	0xbe98ec27	-0.2986767
45	0x3d002581	0.031285767
46	0x3cd3da5b	0.025860956
47	0xbc0daff6	-0.008647909
48	0x3cb05f76	0.021529894
49	0xbe7d0dfa	-0.24712363
50	0x3f6dd733	0.9290649
51	0xbd3f4aa1	-0.04670203
52	0xbef15256	-0.4713313
53	0x3ec63d7b	0.3871878
54	0xbe5bcc4f	-0.21464656
55	0x3e2cc547	0.1687213
56	0x3e651e12	0.22374752
57	0xbecceea7	-0.40025827
58	0x3ddd5c61	0.108086355
59	0x3f534728	0.8253045
60	0x3e047df1	0.12938668
61	0xbec06a12	-0.37580925
62	0x3e088aa6	0.1333414
63	0xbd7ad041	-0.061233763
64	0x3e0e0eca	0.13872829
65	0xbe25d9d4	-0.16196376
66	0xbe48cc8e	-0.19609281
67	0x3ea6c320	0.32570744
68	0xbbd8c49f	-0.006615236
69	0xbe8ba913	-0.2727743
70	0x3e3c93e3	0.1841579
71	0x3e572b04	0.21012503
72	0xbe10b217	-0.14130436
73	0x3d6771e2	0.05650509
74	0xbd551cf5	-0.05202957
75	0x3c199730	0.009374425
76	0x3e3cc727	0.18435346
77	0x3f4cc90d	0.7999428
78	0x3e22ab34	0.15885621
79	0xbede40c7	-0.43408796
80	0xbdb2873a	-0.08717199
81	0xbe590ad1	-0.21195532
82	0xbc7d3fc6	-0.015457099
83	0xbbc463b6	-0.005993332
84	0xbe2e0690	-0.16994691
85	0x3ddaec5f	0.106896155
86	0xbf480c46	-0.7814373
87	0x3dd8bfcc	0.10583457
88	0x3e93088e	0.28717464
89	0x3e844107	0.25830862
90	0x3e6ae79d	0.22939916
91	0xbda2bb92	-0.079459324
92	0xbdbefb86	-0.09325318
93	0x3e9c3116	0.305062
94	0x3dfaa8d5	0.122392334
95	0x3f874897	1.0569028
96	0xbed295f8	-0.41130042
97	0xbeba5725	-0.3639461
98	0xbd823b6d	-0.06358991
99	0x3e81b357	0.25332138
100	0x3d0ef4d5	0.03490146
101	0xbecf7555	-0.40519205
102	0x3eee64f3	0.46561393
103	0xbe6218dc	-0.22079796
104	0x3f6e3bcc	0.9305999
105	0xbe0abf97	-0.13549648
106	0xbd91b75c	-0.07115051
107	0xbd81fd63	-0.06347158
108	0xbe8282cf	-0.25490424
109	0xbe93306d	-0.28747883
110	0xbe5b008f	-0.21386932
111	0xbd3462ff	-0.044039723
112	0xbeb1bda6	-0.34715003
113	0x3cbea15b	0.0232703
114	0x3e440abb	0.19144718
115	0xbeaf704f	-0.34265372
116	0x3df5497c	0.11976907
117	0x3de2fe6c	0.11083683
118	0xbe4c9029	-0.19976868
119	0x3d68b598	0.056813806
120	0xbeb8716c	-0.36024034
121	0x3e5f1e23	0.2178884
122	0xbf508c69	-0.8146425
123	0x3e9c6785	0.3054773
124	0x3eb65fe6	0.3562004
125	0x3df4c4a4	0.11951569
126	0x3e88123b	0.2657641
127	0x3e6728ca	0.22574154
128	0x3dc02d99	0.09383697
129	0xbe1c4b26	-0.15263042
130	0x3e396da1	0.18108226
131	0xbf0ec089	-0.55762535
132	0x3e700469	0.23439182
133	0xbe9e4cbd	-0.30917922
134	0x3b8d8035	0.004318262
135	0x3e2d3352	0.16914108
136	0xbda08174	-0.07837191
137	0x3d05c4ff	0.032658573
138	0xbeb02c09	-0.34408596
139	0x3d36fb92	0.04467351
140	0xbe4c628b	-0.19959466
141	0x3e574d60	0.2102561
142	0x3c600fde	0.013675658
143	0x3d1402ee	0.036135606
144	0x3dce3087	0.100678496
145	0x3dff753a	0.12473531
146	0xbdbab1ca	-0.09115942
147	0xbd829ab2	-0.06377162
148	0xbe9d3d3c	-0.3071078
149	0x3f464d97	0.7746214
150	0x3d8181dc	0.06323597
151	0xbe081a92	-0.13291386
152	0x3e8ad9ed	0.2711939
153	0xbe17a081	-0.14807321
154	0x3dbc0963	0.09181478
155	0xbe4a8fe1	-0.19781448
156	0x3cd2046b	0.025636872
157	0x3d734d7d	0.05940007
158	0x3f5c5991	0.8607417
159	0x3de30e2f	0.1108669
160	0xbeffcf03	-0.49962625
161	0x3dd273d5	0.102759995
162	0x3e7f7935	0.2494858
163	0x3e080e71	0.13286759
164	0xbe96a121	-0.29419807
165	0xbe4ccb7a	-0.19999495
166	0xbd8d4c6a	-0.068993405
167	0x3f18c72f	0.5967893
168	0x3e3bc4f1	0.18336846
169	0xbd21d3c5	-0.0395086
170	0xbe22ee38	-0.15911186
171	0x3e1c0587	0.15236484
172	0x3e1ed2a8	0.15510046
173	0xbea32cea	-0.31870204
174	0x3ebd16f4	0.36931574
175	0x3e34d923	0.17660956
176	0x3f4b9ed2	0.79539216
177	0x3e039df8	0.12853229
178	0xbcb4debf	-0.02207887
179	0xbeaf92ff	-0.34291837
180	0xbdd076a3	-0.10178878
181	0x3e10c7e7	0.14138757
182	0x3dcc2ab8	0.099690855
183	0x3d886d33	0.06661453
184	0x3e169b54	0.1470769
185	0xbf731599	-0.9495483
186	0x3e3129f5	0.17301162
187	0x3e928e88	0.28624368
188	0x3e44c873	0.1921709
189	0xbc2ae6ad	-0.010430974
190	0xbe043442	-0.1291056
191	0xbe09e6a8	-0.13466895
192	0x3ddefe70	0.10888374
193	0x3ea702a2	0.32619196
194	0x3f6acbd0	0.91717243
195	0x3e064127	0.13110791
196	0xbec7aee4	-0.39000618
197	0x3d39806c	0.04528849
198	0xbe9e765e	-0.30949682
199	0xbddaf830	-0.10691869
200	0xbde2091b	-0.11036893
201	0xbe8e52f1	-0.27797654
202	0x3e988a78	0.29793143
203	0x3ec7ff3c	0.39061916
204	0xbeb793d8	-0.35854983
205	0x3d41010a	0.04712013
206	0xb9a391a1	-0.00031198285
207	0xbd8ae560	-0.06782031
208	0x3d42feb8	0.0476062
209	0xbdd84bbc	-0.1056132
210	0x3c9ba6b0	0.019000381
211	0xbe9e44fa	-0.30912
212	0xbe24f843	-0.1611033
213	0xbe231176	-0.1592463
214	0xbd727460	-0.059193015
215	0xbe4bac1b	-0.19889872
216	0xbcc346e3	-0.023837512
217	0xbc19e736	-0.009393504
218	0x3e910bae	0.28329223
219	0xbeb9a24a	-0.3625663
220	0x3ec36a2f	0.3816695
221	0x3ed91898	0.42401576
222	0xbe4893bf	-0.1958761
223	0xbe83c6fa	-0.25737745
224	0xbe2857b3	-0.16439705
225	0x3d062c88	0.032757312
226	0x3e2077fe	0.15670773
227	0x3e2f0a3e	0.17093751
228	0x3e011da2	0.1260896
229	0xbe68f42e	-0.22749397
230	0x3e6bae6a	0.23015752
231	0xbe6be42e	-0.23036262
232	0xbe927852	-0.28607422
233	0xbd9dabd0	-0.07698786
234	0xbe1d7490	-0.15376496
235	0xbdeaa9b6	-0.11458151
236	0xbd3f57df	-0.04671466
237	0xbca2ae37	-0.019858463
238	0xbd641a4d	-0.055689145
239	0x3f612f72	0.8796302
240	0x3e319aea	0.17344251
241	0xbef71bb8	-0.48263335
242	0xbe4f42e5	-0.20240362
243	0xbe245262	-0.16047052
244	0x3e0d1b7c	0.13780016
245	0x3e0a739d	0.13520665
246	0x3e6a4829	0.2287909
247	0x3e2741ac	0.16333646
248	0x3f8d0252	1.1016333
249	0xbe93c430	-0.28860617
250	0xbe1e8d7e	-0.15483662
251	0xbd9b9283	-0.07596304
252	0x3e415841	0.18881322
253	0x3dbadabe	0.09123753
254	0xbe375e0f	-0.17906974
255	0x3d507cc5	0.05090024

fc1.bias f4 [32]
0	0x3e57e914	0.21085006
1	0xbe91ca56	-0.28474683
2	0xbe6276e0	-0.2211566
3	0xbe512ecc	-0.20428008
4	0xbe04db2e	-0.12974235
5	0x3dbe3cf6	0.09288971
6	0x3e070845	0.13186748
7	0x3e67127d	0.22565646
8	0x3e0866a1	0.133204
9	0xbe9465b2	-0.28983837
10	0x3e859eb6	0.2609765
11	0xbd89eb86	-0.06734376
12	0xbe54b2bc	-0.20771307
13	0xbe569762	-0.20956185
14	0xbdd55aa0	-0.10417676
15	0xbe9896e9	-0.29802635
16	0x3e13c25f	0.14429615
17	0x3b720ea4	0.0036934996
18	0x3dea45f9	0.114391275
19	0xbe81e764	-0.2537185
20	0xbd47296b	-0.048623484
21	0xbe461e88	-0.19347584
22	0x3dae117d	0.084994294
23	0xbd3827c8	-0.044959813
24	0x3ea7d32d	0.32778302
25	0xbea93073	-0.33044776
26	0x3dd6f4d8	0.10495919
27	0x3e7d0bb3	0.24711494
28	0x3eafaf0c	0.34313238
29	0xbeb336c4	-0.3500272
30	0x3d520d66	0.05128231
31	0x3b72d424	0.0037052715

fc2.weight f4 [16, 32]
0	0x3ed18b59	0.40926626
1	0xbd5fcbc2	-0.054637678
2	0x3d832daf	0.06405198
3	0x3e1539b6	0.14572796
4	0x3d00739c	0.031360254
5	0x3f053bb8	0.5204425
6	0x3e9fdc35	0.31222692
7	0xbb8923fa	-0.004185197
8	0x3e84f129	0.2596524
9	0xbe7623f3	-0.24037151
10	0x3eb971cc	0.36219633
11	0x3dde82d4	0.10864797
12	0x3e109f39	0.14123239
13	0xbcdcdd29	-0.026960926
14	0x3c5c93c6	0.013462966
15	0x3c5f1cc0	0.013617694
16	0x3d052796	0.032508455
17	0x3dd46d18	0.103723705
18	0xbcdb9a1d	-0.026806885
19	0x3e549f11	0.20763804
20	0x3df42795	0.11921612
21	0x3ebb817a	0.3662222
22	0xbce8b9ea	-0.028408963
23	0xbde9f104	-0.11422923
24	0x3e943c68	0.28952336
25	0xbe1effd7	-0.15527283
26	0x3e825607	0.2545626
27	0x3e9ca68c	0.30595815
28	0x3c7c650e	0.015404953
29	0x3f0d542f	0.5520658
30	0x3d0c19a2	0.034204133
31	0x3f01dce7	0.50727695
32	0x3e4957ed	0.19662447
33	0xbd270858	-0.04077944
34	0x3e238468	0.15968478
35	0x3e3ca117	0.18420826
36	0xbde9f145	-0.11422972
37	0x3ebc2beb	0.36752257
38	0xbd1a847f	-0.037724014
39	0x3d726c7a	0.059185483
40	0x3e16cfbe	0.14727685
41	0xbe61441a	-0.21998635
42	0x3d8d0adb	0.06886836
43	0x3eb0c42b	0.34524664
44	0xbd223511	-0.03960139
45	0xbc94cf57	-0.018165274
46	0xbe71e910	-0.23624063
47	0x3e221775	0.1582926
48	0x3e02a8d2	0.12759712
49	0x3de2e4df	0.1107881
50	0x3e01aca5	0.12663515
51	0x3e6a6d83	0.22893338
52	0xbd9af124	-0.07565525
53	0x3dd75227	0.10513716
54	0xbbc0f02b	-0.0058880053
55	0x3ceb17b8	0.028697833
56	0x3c990e14	0.01868347
57	0xbdcad7f2	-0.099044695
58	0x3e2b7a07	0.16745768
59	0x3d870afe	0.065938935
60	0xbcff7fc2	-0.03118885
61	0x3e9ca67b	0.30595765
62	0x3cd577df	0.026058136
63	0x3e6488ff	0.22317885
64	0x3ecb985e	0.39764684
65	0x3dfadcd6	0.12249152
66	0x3dd5605c	0.1041877
67	0xbc5ea484	-0.013589028
68	0xbdb95a6c	-0.0905045
69	0x3ec4f3b9	0.38467196
70	0x3de06f51	0.10958732
71	0x3d5a04a7	0.053227093
72	0x3e81a4a9	0.25320938
73	0xbe53a4da	-0.20668355
74	0x3ea52f52	0.32262665
75	0x3eb43f1b	0.35204396
76	0x3e75c618	0.24001348
77	0xbda4c77f	-0.08045863
78	0xbdd36735	-0.103224196
79	0x3e207a8a	0.15671745
80	0x3e1910a4	0.14947754
81	0xbda03f0e	-0.07824527
82	0xbdddc763	-0.108290456
83	0x3e5598a9	0.20859016
84	0xbd061082	-0.032730587
85	0x3df2171e	0.118208155
86	0x3c6ebdcb	0.014571617
87	0x3e1ecaeb	0.15507095
88	0x3caf77df	0.021419464
89	0xbd834bb9	-0.06410927
90	0x3e6b6ad3	0.22989969
91	0x3db2aa9d	0.08723948
92	0x3d2377a8	0.039909035
93	0x3e667514	0.225056
94	0xbba6a05d	-0.0050850348
95	0x3ed5bf64	0.41747582
96	0xbea2b00f	-0.31774947
97	0x3b01d880	0.0019812882
98	0xbe028211	-0.12744929
99	0xbe28641a	-0.16444436
100	0xbe00cbaa	-0.12577692
101	0xbda51c0f	-0.080619924
102	0xbee58082	-0.44824606
103	0x3de021f6	0.109439775
104	0xbde5de0c	-0.11223993
105	0x3e85fd05	0.261696
106	0xbe4f0a60	-0.20218801
107	0xbe463944	-0.19357783
108	0xbc848b18	-0.016179606
109	0x3e868a77	0.26277515
110	0x3e5ab04b	0.21356313
111	0xbdbfc98a	-0.093646124
112	0xbc0b9f57	-0.008521876
113	0xbe0ac1a4	-0.1355043
114	0xbd5ebf5c	-0.054381713
115	0xbe983884	-0.29730618
116	0x3de12671	0.1099366
117	0x3d043ba8	0.032283455
118	0x3df020a5	0.117249765
119	0xbddee2e3	-0.10883119
120	0xbe0c6eba	-0.13714114
121	0x3dc56a6a	0.096394375
122	0xbca50d6c	-0.020148002
123	0xbde4abc3	-0.111655734
124	0x3e0f14b2	0.13972738
125	0xbe29d45e	-0.16584918
126	0xbe49c440	-0.1970377
127	0xbe351cbc	-0.17686743
128	0x3ec895b0	0.39176702
129	0x3d41f800	0.04735565
130	0x3e2bc5b3	0.16774635
131	0x3e98b8b3	0.29828414
132	0x3ca69598	0.020335004
133	0x3ec98312	0.3935781
134	0x3e2552ae	0.16144821
135	0xbd22ed71	-0.039777223
136	0x3db667bd	0.08906505
137	0xbe20bc0d	-0.15696736
138	0x3ee4a9bc	0.44660747
139	0x3de87621	0.11350656
140	0x3e3b4dc6	0.18291387
141	0xbe0627c6	-0.1310111
142	0xbdfaf75a	-0.1225421
143	0xbc1c6080	-0.009544492
144	0x3dd5251e	0.1040747
145	0x3e81c1d6	0.25343198
146	0xbd429205	-0.047502536
147	0x3eaba1af	0.33521792
148	0xbd674618	-0.05646333
149	0x3e044025	0.12915094
150	0x3db38eb7	0.08767455
151	0xbdd4766c	-0.1037415
152	0x3e33498c	0.17508525
153	0x3d0d6848	0.03452328
154	0x3dec08ec	0.11525139
155	0x3e9dbd90	0.30808687
156	0x3c15d21a	0.00914433
157	0x3f02d1f9	0.5110164
158	0x3e23db0a	0.16001526
159	0x3e84dd3c	0.25950038
160	0x3d80c96a	0.06288417
161	0x3e084bb7	0.13310133
162	0x3da5a99e	0.080889925
163	0xbe00d3c4	-0.12580782
164	0x3e1b37d3	0.15158014
165	0x3dd9a259	0.106266685
166	0xbe0a2169	-0.13489307
167	0xbe05e48d	-0.13075466
168	0x3cfeb5d3	0.03109256
169	0xbdba4785	-0.090956725
170	0xbdd43c1c	-0.103630275
171	0xbd52b0b4	-0.05143805
172	0x3deb6d22	0.11495425
173	0xbc9dfcbe	-0.019285556
174	0xbd97a424	-0.07404354
175	0x3e205b25	0.15659769
176	0xbd3521c3	-0.04422165
177	0x3acc2cc4	0.0015577306
178	0x3d0aa12f	0.033845123
179	0xbd35884a	-0.04431943
180	0xbddd8e20	-0.10818124
181	0x3bd876ca	0.0066059576
182	0xbe0e13bc	-0.13874716
183	0x3d5d5a3c	0.054041132
184	0xbcc21de2	-0.02369589
185	0x3d9069d4	0.07051435
186	0xbe1d8cd8	-0.15385759
187	0xbcdf91be	-0.027291175
188	0xbc4b3dc2	-0.012404861
189	0xbd5de71d	-0.054175485
190	0xbe0f0198	-0.13965452
191	0xbe23cc48	-0.15995896
192	0x3e0ae1ab	0.13562648
193	0x3e08f979	0.13376416
194	0x3d572f81	0.052535538
195	0x3de65eb0	0.11248529
196	0x3d89e1e6	0.0673254
197	0x3e6f08b9	0.23343171
198	0x3da29a4a	0.079395846
199	0xbd8302bc	-0.06397006
200	0xbd2b2f19	-0.041792963
201	0xbe61d276	-0.2205294
202	0x3eb3c374	0.35110056
203	0x3e98f934	0.29877627
204	0x3e1d6903	0.1537209
205	0xbe97daf7	-0.29659244
206	0xbda1a1d5	-0.07892195
207	0x3d5e6d70	0.054303586
208	0x3d60967e	0.05483102
209	0x3da2f34f	0.07956564
210	0xbe0937e5	-0.13400228
211	0x3e332aa4	0.17496735
212	0xbdb0be3e	-0.08630036
213	0x3e96ff11	0.29491475
214	0xbdea6200	-0.11444473
215	0xbddf7e51	-0.10912765
216	0x3e44461d	0.19167371
217	0x3cfffd28	0.031248644
218	0x3daa9f45	0.083311595
219	0x3e2c42bc	0.16822332
220	0x3dc87c6c	0.097893566
221	0x3ebfe514	0.3747946
222	0x3e651c07	0.22373973
223	0x3e22ccd3	0.15898447
224	0x3cd2024b	0.025635859
225	0xbe02fffe	-0.12792966
226	0xbe17ab23	-0.14811377
227	0xbe482027	-0.19543515
228	0xbd9c5395	-0.076331295
229	0xbd94c5db	-0.072643004
230	0xbd05992a	-0.03261677
231	0xbdc51af8	-0.096242845
232	0xbd79a151	-0.06094486
233	0x3e3c3233	0.18378524
234	0xbc75cf23	-0.0150029985
235	0x3bec7e66	0.0072172163
236	0xbde68826	-0.11256437
237	0xbe26e30f	-0.16297553
238	0x3e074b3a	0.1321229
239	0xbd61b095	-0.055100042
240	0x3dc22fd3	0.09481778
241	0xbcc7cd43	-0.024389869
242	0xbe004b2b	-0.12528674
243	0x3d23e114	0.040009573
244	0x3da80146	0.08203368
245	0x3d4eeddb	0.050519805
246	0xbe06886d	-0.1313798
247	0x3d83c274	0.06433573
248	0xbdc60862	-0.09669568
249	0xbdbb47da	-0.09144564
250	0xbe4596a4	-0.19295746
251	0x3d821133	0.06350937
252	0xbd5e71b2	-0.054307647
253	0x3cc702cf	0.024293331
254	0xbd218a2d	-0.039438415
255	0x3d78ff1e	0.060790174

fc2.bias f4 [16]
0	0xbd312f5b	-0.043258052
1	0xbd4ac8c8	-0.049507886
2	0xbc2b54ac	-0.010457199
3	0x3e19a6d8	0.15005052
4	0x3cdfc823	0.027317112
5	0xbd08027b	-0.03320549
6	0x3dd1eec7	0.10250621
7	0x3c801425	0.015634606
8	0xbcc8a760	-0.024493873
9	0x3d13b435	0.03606053
10	0x3ce6a31a	0.028153945
11	0xbd8b1407	-0.06790929
12	0xbd9482b0	-0.07251489
13	0x3e202abe	0.15641305
14	0x3e01b31e	0.12665984
15	0x3dcf4060	0.101197004

fc3.weight f4 [1, 16]
0	0x3efcd117	0.49378273
1	0x3ee91a25	0.4552776
2	0x3eb16895	0.34650102
3	0xbebad77a	-0.3649252
4	0x3ef15f97	0.47143242
5	0xbe03bbe3	-0.12864642
6	0x3eec0f05	0.4610521
7	0xbe5425bf	-0.20717524
8	0x3e4057b7	0.1878346
9	0x3eac8097	0.33691856
10	0xbe942bac	-0.2893957
11	0x3edd1529	0.43180206
12	0x3efa9485	0.48941436
13	0xbedbe1ed	-0.42945805
14	0xbed7026f	-0.41994044
15	0x3e9e9426	0.30972403
