backend/ml/models/pivot_model.pth (torch, 6725 bytes, 5 tensors)

fc1.weight f4 [32, 9]
000000 99 70 6f bd f3 b6 fe bd 89 77 14 bb c2 4e 7b 3d
       -0.05845699 -0.124372385 -0.0022654256 0.061354406
000010 f4 4d 00 3d f8 88 15 bf fd e5 f3 3e 31 af 71 3e
       0.031324342 -0.5841212 0.47636405 0.23601986
000020 68 36 58 be f2 7f 25 3e e9 d9 fe 3d 4a 1e d8 3d
       -0.21114504 0.16162089 0.12443907 0.10552652
000030 0e 22 d2 3d a8 66 87 be 1e 3d 90 3d d6 e8 e1 3d
       0.10260402 -0.26445508 0.07042907 0.11030738
000040 cb db 48 be 08 03 59 be 4d 3d 97 be 56 ed 7f bc
       -0.19615094 -0.21192563 -0.29538956 -0.01562055
000050 9a fb e0 3d 18 75 0a 3e 15 e5 01 bd f4 b2 08 3f
       0.10985489 0.1352123 -0.03171261 0.5339806
000060 85 c7 c5 be 8d c2 0b bf a6 12 bb 3e 86 22 31 be
       -0.38628784 -0.54593736 0.36537665 -0.17298326
000070 0a f3 6e 3e fe 0e 2f 3e 86 1d 87 be 9b 01 87 be
       0.233349 0.17095563 -0.26389712 -0.26368412
000080 4e 43 18 3e 90 27 aa bc 50 ef cc bc 00 d1 b8 bd
       0.14869425 -0.020770818 -0.025016457 -0.090242386
000090 6c b4 0c bd 50 32 26 3e a2 c5 a1 3e 04 7b ef 3d
       -0.03435175 0.1623013 0.31596094 0.11693385
0000a0 d6 c2 06 be 89 d7 52 bf fe 07 60 bc cb 43 85 3e
       -0.13160262 -0.8236013 -0.0136737805 0.26028284
0000b0 c9 ed 00 3e 80 83 8f bd 98 0c 2d bd 64 42 07 bd
       0.12590708 -0.070075035 -0.04224834 -0.0330223
0000c0 6c 02 48 be cd 6d 16 3e 56 0d 96 bf 17 4e ae 3e
       -0.19532174 0.14690323 -1.172282 0.34043953
0000d0 bd f6 8e 3c 4d 49 89 be 57 4e ab bd 2f 2b 58 3c
       0.017451638 -0.26813737 -0.083645515 0.0131938895
0000e0 45 2e 49 3e 71 ca b7 3d 1f 80 18 bd 4e 81 89 be
       0.19646557 0.089741595 -0.03723156 -0.26856464
0000f0 54 df 66 be d3 dc f4 bc ea 2a b4 3d f8 1a ea 3c
       -0.2254613 -0.029890453 0.08797248 0.028577313
000100 e6 77 4b be 12 1c 98 bd 9f 1c 68 3e 5f 83 6a bc
       -0.19869956 -0.07427229 0.22667168 -0.014313548
000110 8f 26 3e bf 54 ae b4 3e e1 b9 da 3e e0 f9 a9 bc
       -0.74277586 0.35289252 0.4271994 -0.020749032
000120 ce d7 62 be 92 22 91 bc ee 93 78 bd 6e 81 11 bd
       -0.22152635 -0.01771668 -0.06068795 -0.035523824
000130 df 53 7d 3e a3 75 80 bf f7 cc e8 3c 80 b4 59 3d
       0.24739026 -1.00359 0.028418047 0.053150654
000140 cd e5 e4 3d 96 ca 97 be 22 24 a4 3e 0e 73 6f 3d
       0.111766435 -0.29646748 0.32058817 0.058459334
000150 ef 36 6c be 85 73 64 be b3 db 96 3f f4 9f 4c 3e
       -0.2306783 -0.22309692 1.1785797 0.19982892
000160 94 7b 02 bf fb df 01 be a7 75 31 be 46 43 05 be
       -0.50969815 -0.12683098 -0.17330037 -0.13013944
000170 6c 59 79 be 72 cf 33 3e c4 6e 3c bd 64 de 87 3f
       -0.24350518 0.17559603 -0.04600407 1.0614743
000180 a1 f7 c2 be a7 60 cb bd b8 2a 22 be b9 d9 f9 bd
       -0.3807955 -0.09930544 -0.15836608 -0.121997304
000190 3a 10 0d 3e 82 ed c3 3d 21 98 48 3d f2 98 34 3b
       0.13775721 0.095667854 0.048973206 0.0027556983
0001a0 04 a8 79 3f 3b db b0 be 79 26 cb be 4e 28 b6 3e
       0.97521996 -0.3454226 -0.3967779 0.35577625
0001b0 71 b4 ab be 7f 30 24 3e 03 94 11 3e c0 16 6a be
       -0.33536103 0.16034125 0.14216618 -0.22860241
0001c0 9a 77 8c 3e 80 62 98 bf 5f 47 d5 3e 75 8f 99 3e
       0.27435 -1.190506 0.41656014 0.29992262
0001d0 55 cb 23 be 32 a4 d5 bd 44 27 de 3d 79 50 de 3c
       -0.15995534 -0.104317084 0.10847333 0.027137982
0001e0 e5 a9 3a 3e 59 cb 1a 3d a8 dd 2c 3f c1 b9 12 3e
       0.18228872 0.037791584 0.6752572 0.14328672
0001f0 cf b5 2b bf 80 14 d7 3e 1e f9 39 3e 3c cb 34 3e
       -0.6707429 0.42007828 0.18161437 0.17655653
000200 8b a3 c2 3e 56 09 64 be da 59 b7 be 28 2c c8 3e
       0.38015398 -0.22269186 -0.3581074 0.3909619
000210 ae 65 0c be c5 b7 35 3d 63 d4 5a 3c ea fb ae 3e
       -0.13710663 0.04436471 0.013356301 0.3417657
000220 95 4c 8d 3e 5d 7e 0c be 08 2c 59 bd f4 34 36 be
       0.2759749 -0.13720079 -0.053020507 -0.17793638
000230 f3 ff 40 3e bf f7 a9 be 95 c4 6f 3e 97 8e 31 be
       0.18847637 -0.33196828 0.23414834 -0.1733955
000240 a0 b2 ea 3d 30 21 ce be 51 73 04 3e 5f 2c fb 3d
       0.11459851 -0.40259695 0.12934615 0.122643225
000250 cf a6 59 3e 8f 68 54 bf 08 fb 0b bb e1 fe 8c 3e
       0.21255039 -0.82972044 -0.0021359343 0.27538207
000260 f9 53 c2 3d 27 67 29 3e ff 5e c6 3e 69 d1 86 3e
       0.09488673 0.16543256 0.3874435 0.26331642
000270 06 46 20 3e 63 72 c5 be 66 8c 03 3f 4a 82 e7 3d
       0.15651712 -0.38563833 0.51386106 0.113041475
000280 bd 72 9a be d3 99 87 3e 91 df 10 3c 74 27 54 bc
       -0.30165663 0.26484546 0.008842365 -0.0129488595
000290 66 be b7 3d 9a d1 ab bd 23 74 90 3e 30 7b c8 3d
       0.089718625 -0.08389588 0.28213605 0.09789121
0002a0 c5 df ad be 70 ee 39 3d 29 f4 92 be 20 b4 29 3e
       -0.33959785 0.045393407 -0.28701904 0.16572618
0002b0 28 c8 5e bd 3c ad 93 3d d0 65 e0 bc ae 54 90 be
       -0.054390103 0.07210776 -0.027392298 -0.28189605
0002c0 27 62 8b be ee 67 87 be fe b0 23 3e 2a 8e 85 be
       -0.27223322 -0.2644648 0.15985486 -0.26085025
0002d0 28 87 80 3e cb d2 05 be 55 8c 84 3d da aa 9a bd
       0.25103116 -0.13068692 0.06472079 -0.075521186
0002e0 d4 79 17 3e 2c 57 7a be 99 ed 12 be 0c 5d a2 3e
       0.14792567 -0.24447316 -0.14348449 0.31711614
0002f0 a2 c2 04 3e 80 0f 0b bc 7a bb 3e 3e 90 60 8c 3d
       0.12964872 -0.008487582 0.18626204 0.06854355
000300 d3 bb a6 be 12 20 3b 3e 1e aa 06 3e e0 c4 74 be
       -0.32565174 0.18273953 0.13150832 -0.23903227
000310 38 53 91 be cc f3 a5 be 64 1f f6 bd 09 ae f7 3d
       -0.28383803 -0.32412565 -0.12017706 0.120937414
000320 eb 80 12 3e 0d fa 80 bd f6 eb 00 3f 19 bb 85 bf
       0.14306991 -0.062976934 0.5036005 -1.0447723
000330 fd 79 03 3f a5 22 0a 3e 5d 15 ba 3c 22 d7 7e bd
       0.51358014 0.13489778 0.022715265 -0.062216885
000340 24 b7 8a be 56 97 01 be 8a d1 82 3e fe dd 1d be
       -0.2709285 -0.12655386 0.2555049 -0.15416715
000350 96 d5 15 3f ec ef e9 bd 0d f1 f9 be 3f 9b 5d 3e
       0.5852903 -0.114227146 -0.4881672 0.21641253
000360 90 20 40 be f3 be 81 be 8d e0 51 be e5 c1 15 be
       -0.18762422 -0.25340995 -0.20495816 -0.14624746
000370 3c 9d 94 3e 29 bd 4d 3f 49 1e 87 be f6 ea e1 bd
       0.2902621 0.8036676 -0.26390293 -0.11031143
000380 ac b7 5b 3e 6b 0e 96 3e 80 e5 0d bd 78 d1 56 3d
       0.21456784 0.29307875 -0.034642696 0.05244586
000390 89 4a a9 3e 9e 5c 46 be 13 48 63 be 54 21 9b be
       0.33064678 -0.19371268 -0.22195463 -0.30298865
0003a0 e0 81 24 bd 3e 69 55 be 67 c8 74 be 56 3c dc bc
       -0.04016292 -0.20840928 -0.23904572 -0.02688424
0003b0 fd 35 5e 3e 1b 0c dc 3d 4c 4f 99 3e a8 bf 82 bf
       0.21700282 0.107444964 0.2994331 -1.0214739
0003c0 31 12 d1 3e 0b 05 31 3d 55 8c 39 3d be c9 3c 3e
       0.4083419 0.0432177 0.045299847 0.18436334
0003d0 90 00 a8 bc ea 94 37 3e ae e4 78 be 60 bf 28 3d
       -0.02050808 0.179279 -0.24305984 0.041198134
0003e0 00 31 ed ba 1e f6 53 be 46 97 1f be e4 d1 e7 3d
       -0.0018096268 -0.20699355 -0.1558505 0.1131933
0003f0 5a 1e 82 3e a8 60 1b bd 6d f4 35 3e 3b d4 f0 3d
       0.2541378 -0.037933975 0.17769022 0.1175923

fc1.bias f4 [32]
000000 4b ac 66 bc b5 c1 ce bd 66 fa 16 3e e0 8b 09 be
       -0.014079164 -0.100955404 0.14743957 -0.13432264
000010 9b e3 1b 3e 4b 20 11 3e 20 11 56 be c3 23 6b be
       0.15223543 0.14172475 -0.2090497 -0.22962861
000020 df cc 72 3e 8a 31 d5 3e 1f f6 59 3e b6 f1 46 3e
       0.23710965 0.41639358 0.21285294 0.19428143
000030 2d 25 00 bd a5 ac 98 bd 21 5f 1d be 8b e1 89 3d
       -0.031285454 -0.07454804 -0.1536832 0.06732472
000040 07 5a 85 be c0 34 f5 3d 96 d7 69 3d 0c 8a a1 bd
       -0.26045248 0.11972952 0.057090364 -0.078876585
000050 a4 c3 25 3d f0 da 9a 3d f3 04 92 be 9a 9a 45 3d
       0.04046978 0.0756129 -0.285194 0.048243143
000060 3f 90 1c be 00 1f 1e 3d 66 29 78 3c df 52 a8 be
       -0.152894 0.038603783 0.015146589 -0.32875726
000070 0e fe 05 3d c1 19 9b bc 66 d5 90 3e 4a 96 61 bc
       0.03271299 -0.018933179 0.2828781 -0.013768742

fc2.weight f4 [16, 32]
000000 d3 cc a1 3e c3 e6 df 3d cb b4 38 be d4 14 14 be
       0.3160158 0.10932686 -0.18037717 -0.1446107
000010 ab eb ac bd 01 2b 6d 3e 58 d7 31 bd 46 18 41 3e
       -0.084433876 0.23160936 -0.04341826 0.18856916
000020 d6 af e3 3d f3 24 e0 be 6e 48 13 be 80 13 92 be
       0.111175224 -0.4377819 -0.14383098 -0.28530502
000030 1e 70 85 3e 90 ad 8b be 3c cf c3 be 28 95 83 be
       0.260621 -0.27280855 -0.38244045 -0.25699735
000040 03 c7 1b 3e d4 3f 7a 3d ae 71 0d be 04 39 13 be
       0.15212636 0.061096027 -0.13812897 -0.14377218
000050 d7 1b 2d bd a3 99 0e 3e 05 5c 41 3e 06 da 51 bd
       -0.04226288 0.13925795 0.18882759 -0.051233314
000060 08 8a 0d bc 20 35 3e bd fa 19 1a 3e 5e 89 fb 3d
       -0.008638866 -0.046437383 0.15048972 0.1228206
000070 13 f5 d9 3d 33 00 23 3e 86 36 e5 3c 8f ab a8 3d
       0.10642447 0.15918045 0.0279801 0.08235847
000080 87 f6 6c be a8 bf f1 bc d2 5f 27 3e 08 f4 93 3d
       -0.23140918 -0.029510334 0.16345146 0.0722428
000090 a9 57 67 be eb 89 0b be a3 73 14 be 8c 11 26 bd
       -0.22592033 -0.1362683 -0.14497237 -0.040544078
0000a0 dd 87 10 bc bd b6 cb 3e 1e 33 86 3e d0 74 00 3f
       -0.008821455 0.39787856 0.26210874 0.5017824
0000b0 a7 3e 66 be e7 4e ff 3e 02 79 66 be 23 71 51 3d
       -0.22484837 0.49864885 -0.22507098 0.051133286
0000c0 53 81 b2 be 9b 18 36 bc dd 06 dc bc 00 ed 0a be
       -0.34864292 -0.011114265 -0.026858741 -0.13566971
0000d0 18 04 3d be 51 88 21 be f9 a4 6e be 88 6c 0a 3e
       -0.18458593 -0.15774657 -0.2330512 0.13517964
0000e0 21 72 7f 3e f0 3f 6b bc b0 06 14 bc db 1b 1f 3e
       0.2494588 -0.014358506 -0.009034798 0.1553797
0000f0 89 e3 bb 3d 9f 90 43 be 8a ac 73 3c 09 11 9c 3e
       0.09174258 -0.19098137 0.0148726795 0.30481747
000100 38 db 5e be 79 6c 00 3e cd f8 f4 3e e0 02 cb 3c
       -0.21763313 0.12541379 0.4784607 0.024781644
000110 55 c6 30 3b ba d3 a3 bd 81 3b 0c 3e da 60 93 bd
       0.0026973684 -0.07999368 0.13694574 -0.07196207
000120 ad 15 cf bb b2 44 c0 3e 08 85 14 3e c5 b5 00 3f
       -0.0063197226 0.3755241 0.14503872 0.5027736
000130 4e 08 47 be 20 fa b1 3e 03 ba 80 3e 1f e3 7b bd
       -0.19436762 0.34761143 0.25141916 -0.061495896
000140 79 b3 b3 be 91 7d a8 bc 7d 78 70 bc f6 bc ae 3d
       -0.35097864 -0.020567687 -0.014677164 0.08532135
000150 9a 9c 45 be c4 47 4a 3d 74 bf 81 be c2 e5 92 3e
       -0.1929802 0.049384847 -0.2534138 0.28690916
000160 bb f5 24 3c cc 3d 1d 3d e9 13 9a 3d d5 d2 18 be
       0.010068352 0.038389012 0.07523329 -0.14924176
000170 36 66 5d 3d fb 45 b7 bd c9 0c 5c 3c 81 ff 0c 3e
       0.054052554 -0.089488946 0.013430783 0.13769342
000180 26 65 77 3e df bc e2 3d 1f 1e b1 bd 2c 2c 3a 3d
       0.24159679 0.110711806 -0.08648323 0.04545228
000190 78 68 26 bd 68 7f 2d 3e e2 43 10 3e 70 16 03 3e
       -0.040626973 0.16943133 0.14088395 0.12801528
0001a0 ab bc d5 3d de f0 bc be 10 46 30 be aa 00 b0 bd
       0.10436376 -0.36902517 -0.17214227 -0.08593877
0001b0 9f 64 63 3e de 5b af be 37 f5 bf be c4 c2 82 be
       0.22206353 -0.34249777 -0.37491772 -0.2553922
0001c0 76 0f a1 3e 69 b0 0f 3e 8c 88 05 3e ee de 9e 3d
       0.31457108 0.14032139 0.1304037 0.07757364
0001d0 a6 78 18 3e 4c ca 04 3d a1 e9 15 3e 5c 7f ea bd
       0.14889774 0.032419488 0.14639904 -0.11450073
0001e0 de 1e ec 3d 68 09 5b 3d dd bf 5b 3e e0 27 fc bc
       0.11529325 0.053475767 0.21459909 -0.030780733
0001f0 24 eb 80 bd 6f b9 37 3e e4 b0 a2 3d 0f ba 0c 3e
       -0.062948495 0.17941831 0.079438955 0.1374285
000200 2f e2 49 be 09 c8 45 3b 55 bc e0 3e 2a 36 9b bd
       -0.19715188 0.0030179045 0.43893686 -0.0757869
000210 c7 9b d3 3d 00 66 63 be 19 dc 1a bd 16 12 96 be
       0.103324465 -0.22206879 -0.037807558 -0.29310673
000220 9e ee 87 3d 21 22 d9 3e 44 02 b0 3e 00 43 fb 3e
       0.066373095 0.4240885 0.3437673 0.49074554
000230 ca 74 8a 3a f2 6e c7 3e 75 14 4e 3e 0f a5 b1 bd
       0.001056337 0.38951832 0.20124991 -0.086740606
000240 05 a0 b3 be 96 39 d1 3d f3 c0 09 be c3 52 b3 bd
       -0.35083023 0.10216062 -0.1345251 -0.0875602
000250 01 20 a6 3d 30 ec 4b 3c 01 68 5c bd 12 cc d2 3e
       0.08111573 0.012446448 -0.053810123 0.41171318
000260 3b b1 ee 3c 87 74 30 3e 53 52 8b bd b0 13 77 3c
       0.029137244 0.17231952 -0.068028115 0.015080377
000270 fb e5 6c bd af c0 45 bd bf b1 69 bd ba b0 4b bd
       -0.057836514 -0.04827946 -0.057054278 -0.049729086
000280 af b4 01 be 93 7a 0b 3d 67 1d 2d be 1e f5 92 bd
       -0.12666582 0.034052443 -0.16905747 -0.07175659
000290 18 22 d1 bd a4 6e 32 be 95 7a f3 bd 07 af fd 3d
       -0.10211581 -0.17425019 -0.11888615 0.123868994
0002a0 59 20 21 be d2 bc 4d be 97 65 e8 bd 08 55 05 be
       -0.15734996 -0.2009156 -0.11347502 -0.13020718
0002b0 72 98 77 bb f8 01 b7 3c c3 0e e8 bc a3 74 b9 bd
       -0.0037780073 0.022339806 -0.028327351 -0.0905545
0002c0 fc 51 4b bd 2b 4c 95 3c 4d 98 0b be 00 b5 1d ba
       -0.049638733 0.018224796 -0.13632317 -0.0006016046
0002d0 94 36 f9 bd f0 b4 ca 3c bb a2 9a 3c c7 73 64 3d
       -0.12168613 0.02474448 0.018876424 0.055774476
0002e0 97 76 31 3c 40 42 98 bb ca 07 0d 3d e0 7f 5c bc
       0.010831497 -0.0046465695 0.034431256 -0.013458222
0002f0 05 bd ce 3d 1a ef 5c bd 38 e9 61 bd 23 9a 01 3e
       0.10094646 -0.053938963 -0.055154055 0.12656455
000300 81 00 19 3e 68 05 33 bc 77 9a 41 be f2 48 fa 3d
       0.14941598 -0.010926582 -0.1890658 0.122209445
000310 5c 81 b1 bb 96 07 71 3e 8d c4 06 3e ed 0c 82 3c
       -0.005417032 0.2353805 0.13160916 0.015875304
000320 32 fd 18 3e c6 b9 53 be 13 f1 00 be f2 24 ba be
       0.14940336 -0.20676336 -0.12591963 -0.36356312
000330 f1 c3 fc 3c 12 6f e4 be b3 eb 70 be 6c 54 a0 bc
       0.03085515 -0.4461599 -0.23527412 -0.019571505
000340 9e 67 00 3e b9 14 58 3d 83 33 d4 bd 90 97 7c bc
       0.12539527 0.052754138 -0.103613876 -0.015416995
000350 2f 1b 13 be 48 d4 22 3d 7b 81 8a 3e 68 a7 58 bc
       -0.14365838 0.03975323 0.2705191 -0.0132235065
000360 70 b9 6b bc 60 f9 26 bd a0 b4 19 3d 26 34 cd 3d
       -0.014387473 -0.040765166 0.037525773 0.10019712
000370 c9 bd 31 bd 84 ba 88 3e 82 11 7d bd 3f 31 cb 3d
       -0.043393884 0.267048 -0.061784275 0.09921502
000380 ef 08 ec bd 06 ef bc bd ac de a7 3e 0a 7a f2 bd
       -0.115251414 -0.092252776 0.32787073 -0.11839683
000390 6c 49 c0 bc 76 1d a3 bd b6 73 51 bd 22 5a 32 be
       -0.02347251 -0.079646036 -0.05113574 -0.17417195
0003a0 00 d9 aa bd f2 f9 16 3f 32 ef 95 3d dc 2e bf 3e
       -0.08342171 0.58975136 0.073210135 0.37340438
0003b0 51 cf 74 be c0 ef fb 3e be 33 db 3d 2a 0e 3a bd
       -0.2390721 0.49206352 0.107032284 -0.045423664
0003c0 14 37 0a be 0d 73 15 3e b3 8d 31 be fe 02 31 be
       -0.13497573 0.1459467 -0.1733921 -0.17286298
0003d0 62 db 32 3d aa cf b3 3d 74 fc 31 be 60 d1 34 3e
       0.04366625 0.08779843 -0.1738146 0.17657995
0003e0 62 41 4d 3e 90 d4 48 bc 01 97 33 bd df 9c 1b 3e
       0.20044473 -0.01225771 -0.04384518 0.1519656
0003f0 07 2a e3 bd fe 97 5b be dc 4c 13 3e 73 ad 29 bc
       -0.110920005 -0.21444699 0.14384788 -0.010356295

fc2.bias f4 [16]
000000 cb 92 22 bc 74 18 42 3e e0 7a 3c 3e 5d f1 c8 bd
       -0.0099226935 0.1895464 0.18406248 -0.098116614
000010 08 eb c9 3d fa 9f b4 bc e4 ad 14 3e fe 57 2f 3e
       0.09859282 -0.022048939 0.14519459 0.1712341
000020 fd 8d 2d 3d 58 1c 0d be 3e 19 a6 bd 3d 71 2b be
       0.04237174 -0.13780344 -0.08110283 -0.16742416
000030 55 db 85 3d 89 b4 56 bd a8 b1 0c 3e ef a4 6e bd
       0.06535975 -0.052418265 0.13739645 -0.05826276

fc3.weight f4 [1, 16]
000000 9a 87 a0 be 03 80 05 3f 85 a1 9f 3e 2c 40 7c be
       -0.31353456 0.52148455 0.31177917 -0.24633855
000010 16 2e 15 3f 69 7c 11 3e 0f 60 45 be 4e 2a 10 3f
       0.58273447 0.14207615 -0.19274925 0.5631455
000020 f0 e9 1b 3e f4 a1 20 be 6d 3f 4f 3d ae 28 bf bd
       0.15225959 -0.1568678 0.050597597 -0.09333931
000030 b7 41 74 be 6c 1b da be 9d e9 b1 be e0 00 c4 be
       -0.23853193 -0.42599046 -0.34748545 -0.38281918
