backend/ml/models/pivot_model_crypto.pth (torch, 6809 bytes, 5 tensors)

fc1.weight f4 [32, 9]
0	0x3d92ed69	0.07174189
1	0x3e8f5fd5	0.28002802
2	0xbd92b89f	-0.0716412
3	0xbd13ed48	-0.03611496
4	0xbe2c4065	-0.1682144
5	0xbe7d68fd	-0.24747081
6	0x3dc8b092	0.09799303
7	0xbd4e5b34	-0.050379947
8	0xbd1b6d0a	-0.037945785
9	0x3de3c3ba	0.11121316
10	0x3e8091de	0.25111288
11	0x3e557bf0	0.2084806
12	0xbe98999c	-0.29804695
13	0xbc3ab3b4	-0.011395384
14	0xbea6f7e9	-0.32611015
15	0x3e859bba	0.26095372
16	0xbd360be7	-0.044444945
17	0x3e835627	0.25651667
18	0xbe5bd7ed	-0.21469088
19	0xbea460cf	-0.3210511
20	0x3e4e45c0	0.20143795
21	0xbd35714d	-0.044297505
22	0x3ecd3209	0.40077236
23	0x3da5b767	0.08091622
24	0x3e9faed1	0.31188062
25	0xbdadc653	-0.08485093
26	0x3e82008d	0.25391045
27	0x3ddf0ad5	0.10890738
28	0xbde5e528	-0.11225349
29	0xbddaef1b	-0.10690137
30	0xbe7c40ce	-0.24634096
31	0x3e9dc615	0.30815187
32	0xbe845ae2	-0.25850588
33	0xbdfb8167	-0.12280541
34	0xbe2f2146	-0.17102537
35	0x3df8a900	0.12141609
36	0xbd1649db	-0.036691528
37	0xbdbea799	-0.093093105
38	0x3e90372e	0.281671
39	0xbde91883	-0.11381628
40	0x3ec4d2df	0.38442132
41	0xbe0bbbf6	-0.1364592
42	0x3e8feb5a	0.28109246
43	0x3dbee489	0.09320933
44	0x3d0e6e6c	0.034773275
45	0xbe670218	-0.22559392
46	0xbd3c4db1	-0.04597253
47	0x3e99cbaf	0.3003821
48	0xbe2f687e	-0.17129704
49	0x3da4f48f	0.08054458
50	0x3e7b91f1	0.24567391
51	0xbe23b09c	-0.1598534
52	0x3d63eeff	0.055647846
53	0xbd0c4f84	-0.03425552
54	0xbe9aa02e	-0.30200332
55	0xbe0bec2d	-0.13664313
56	0x3eaadb1b	0.3337029
57	0x3ea4f2a7	0.3221638
58	0xbbc25ff8	-0.0059318505
59	0xbe5be5fb	-0.2147445
60	0x3dcc19ba	0.099658445
61	0x3c158407	0.009125716
62	0x3e61abb5	0.22038157
63	0x3ea17604	0.3153535
64	0x3e54427d	0.20728488
65	0xbd91dbd7	-0.07122009
66	0xbd8b2dc5	-0.06795839
67	0xbe4c04fe	-0.1992378
68	0xbe13bdc4	-0.14427859
69	0xbd9bc9e4	-0.07606867
70	0xbd076aac	-0.033060715
71	0x3cb2f9e5	0.021847675
72	0x3e926a21	0.28596595
73	0x3db3f022	0.08786036
74	0x3df3af4c	0.118986696
75	0x3d9c1c56	0.07622592
76	0x3e8c1f4b	0.27367625
77	0x3e1a5792	0.15072468
78	0xbe23d58f	-0.15999435
79	0x3ead812c	0.33887613
80	0x3e2264a8	0.1585871
81	0x3e24e7c2	0.16104034
82	0xbe98ae8f	-0.29820678
83	0xbe5b4747	-0.21413909
84	0xbea6f955	-0.326121
85	0xbe9b731d	-0.30361262
86	0x3e89bcdb	0.26901898
87	0xbe37c14a	-0.17944828
88	0xbd2346ca	-0.03986243
89	0x3da462e3	0.08026674
90	0xbe70fc4b	-0.23533742
91	0xbdfeefe4	-0.12448099
92	0x3e0eca82	0.13944438
93	0xbdce5147	-0.10074096
94	0xbdf5f6b7	-0.12009948
95	0xbe88231a	-0.2658928
96	0xbe51706f	-0.20453046
97	0x3e87e8ed	0.26544896
98	0xbe854375	-0.26028028
99	0xbe42efd9	-0.19036807
100	0xbe2ea96d	-0.17056818
101	0xbdfbd481	-0.12296391
102	0xbe17c0fe	-0.14819714
103	0x3d068c47	0.032848623
104	0x3e0a89ee	0.13529179
105	0xbc92032c	-0.017823778
106	0xbc984f33	-0.018592453
107	0x3e0d9e10	0.13829827
108	0xbe70f5dd	-0.2353129
109	0xbded214c	-0.115786165
110	0xbec4c0ae	-0.38428253
111	0xbe8959a5	-0.26826206
112	0xbe2df73c	-0.16988844
113	0x3e468d95	0.19389947
114	0xbe477112	-0.19476727
115	0x3e4d6ba6	0.20060596
116	0x3eb2aee9	0.3489907
117	0xbe2f9e0d	-0.17150135
118	0x3e86b6ea	0.26311427
119	0xbd243d77	-0.04009768
120	0xbe432d0b	-0.19060151
121	0xbe1a5b71	-0.15073945
122	0x3e9d910d	0.30774727
123	0x3dcc0ca2	0.09963347
124	0x3dad053d	0.08448265
125	0x3ec46543	0.38358507
126	0x3c5dcb1c	0.013537195
127	0xbeb6bfe1	-0.35693267
128	0xbe14e7a4	-0.14541489
129	0xbbdadce0	-0.0066791624
130	0xbdc00aa2	-0.09377028
131	0x3e26bb98	0.16282499
132	0x3cf68bb2	0.030095909
133	0x3e65000c	0.22363299
134	0x3b24343c	0.0025055548
135	0xbe7ba4cb	-0.24574582
136	0x3e9b6803	0.30352792
137	0xbe3d44a7	-0.1848322
138	0xbe271810	-0.16317773
139	0xbdb03aef	-0.08604991
140	0xbe57268b	-0.21010797
141	0x3e36ce6d	0.17852183
142	0x3e29171a	0.16512719
143	0xbd9e0fa2	-0.077178255
144	0x3e2efcc8	0.17088616
145	0x3e9bafda	0.30407602
146	0xbe53506e	-0.2063615
147	0xbe895e80	-0.2682991
148	0x3e33dba7	0.1756426
149	0x3e1c56c2	0.1526747
150	0xbe13fd8a	-0.14452186
151	0x3e6d625d	0.23182054
152	0x3e3896df	0.18026303
153	0x3e027b38	0.12742317
154	0x3d0d6761	0.034522418
155	0x3e8dcdd7	0.27696106
156	0xbe6800e0	-0.22656584
157	0xbe52d73e	-0.20589921
158	0x3e9409c9	0.28913715
159	0xbd6c6967	-0.057717707
160	0xbe5a193d	-0.2129869
161	0x3db6e0e9	0.08929617
162	0xbe0aaa4e	-0.13541529
163	0x3e58a622	0.21157125
164	0xbd28cfa8	-0.04121366
165	0xbe978ee3	-0.296012
166	0xbe7c63a8	-0.24647391
167	0x3d639160	0.055558562
168	0xbe38a8a6	-0.18033084
169	0xbe99f1e3	-0.30067357
170	0xbe315a80	-0.1731968
171	0xbe93a5a8	-0.28837323
172	0x3c56e0a0	0.013115078
173	0xbd6ed0d8	-0.058304638
174	0xbe03854e	-0.1284382
175	0xbe8743b8	-0.26418853
176	0x3e6e0f16	0.23247942
177	0x3e92e8bb	0.28693184
178	0xbe377f86	-0.1791974
179	0xbe41fa1b	-0.18943064
180	0x3ea8a819	0.32940748
181	0xbea146ba	-0.31499273
182	0x3eaa7761	0.33294204
183	0xbe608f58	-0.21929681
184	0xbe81a24a	-0.2531913
185	0xbe6829c6	-0.22672185
186	0xbe6e5d20	-0.23277712
187	0x3e458142	0.19287589
188	0xbea1180c	-0.3146366
189	0xbbda1c40	-0.0066561997
190	0xbcaa7250	-0.020806462
191	0x3e6475d2	0.2231057
192	0x3bfa6140	0.0076409876
193	0xbe4d8cfe	-0.20073316
194	0x3d05e908	0.03269294
195	0x3d928480	0.071541786
196	0xbdb03966	-0.08604698
197	0xbea08e4a	-0.31358558
198	0x3c87c303	0.016572481
199	0xbdcfe4bc	-0.101510495
200	0x3e457319	0.19282188
201	0x3e9ada07	0.30244467
202	0xbe6efb80	-0.23338127
203	0x3df8b142	0.12143184
204	0xbdc013bf	-0.09378766
205	0x3e53ebe7	0.20695458
206	0x3e643b7a	0.22288314
207	0x3db82c60	0.08992839
208	0xbe87953e	-0.2648105
209	0x3ea1eb75	0.31624952
210	0xbea3aafe	-0.31966394
211	0xbe0d5af3	-0.13804226
212	0x3d6e6848	0.05820492
213	0x3e16f8fa	0.14743415
214	0xbdd058c0	-0.10173178
215	0xbac93900	-0.001535207
216	0x3e5e346b	0.21699683
217	0x3e7b2092	0.24524143
218	0xbe81d2b8	-0.25356078
219	0x3e12c3e3	0.14332537
220	0xbdea2544	-0.11432889
221	0x3da5f19b	0.08102723
222	0x3cc1cda0	0.02365762
223	0x3c4fd4d2	0.012685018
224	0xbd89b838	-0.0672459
225	0xbeb07f23	-0.34471998
226	0xbe952a36	-0.29133767
227	0xbd42db01	-0.04757214
228	0xbc9ee9b2	-0.019398544
229	0x3d27ad28	0.04093662
230	0x3e5b5f5d	0.21423097
231	0x3e0aec62	0.13566735
232	0x3dd78488	0.10523325
233	0x3ec793ab	0.3897985
234	0xbd05367e	-0.03252267
235	0xbb03a6b3	-0.0020088374
236	0x3d836c06	0.06417088
237	0x3eac6b23	0.3367549
238	0x3d9406a0	0.07227826
239	0x3dba1cee	0.09087549
240	0x3e95e94b	0.2927955
241	0xbe603861	-0.21896507
242	0xbd712dd0	-0.05888158
243	0x3e6b0eef	0.22954915
244	0xbe6a58d1	-0.22885443
245	0x3d1a8341	0.03772283
246	0x3e80bd65	0.25144497
247	0xbe4b2f7e	-0.19842336
248	0x3e5a6539	0.21327676
249	0xbe623f08	-0.22094357
250	0xbe8e8845	-0.2783834
251	0x3e92833f	0.28615758
252	0xbe804e54	-0.2505976
253	0x3d9da180	0.07696819
254	0xbea4d125	-0.32190815
255	0xbd6067bd	-0.054786433

fc1.bias f4 [32]
0	0x3cf218be	0.029552814
1	0x3e588aab	0.21146648
2	0x3ec94609	0.39311245
3	0xbe9dfee0	-0.30858517
4	0x3eaff46e	0.34366173
5	0x3e346e8c	0.17620295
6	0xbe108ac7	-0.1411544
7	0xbe73265a	-0.23745099
8	0xbdc7f0a5	-0.09762696
9	0xbe8cd121	-0.27503303
10	0x3e71a46b	0.23597877
11	0x3e62cd93	0.22148733
12	0xbe4f35f3	-0.20235424
13	0x3e8d591c	0.27607048
14	0xbdd4d36c	-0.10391888
15	0x3d00c0ee	0.031433992
16	0x3e70a495	0.23500283
17	0xbdba29e7	-0.090900235
18	0x39a5a000	0.00031590462
19	0xbe8234b2	-0.25430828
20	0xbdce8f8c	-0.10085973
21	0x3d7f49a0	0.062326074
22	0x3dd4e653	0.10395493
23	0xbe87cc0b	-0.2652286
24	0xbeace98d	-0.33771935
25	0xbd4d6bc4	-0.0501516
26	0x3c11c453	0.008896905
27	0x3e188a39	0.14896478
28	0x3e1e58ad	0.15463515
29	0xbe89c2b8	-0.2690637
30	0x3ad5d1c8	0.001631313
31	0xbe0bba57	-0.13645302

fc2.weight f4 [16, 32]
0	0x3d86698d	0.06563101
1	0x3d702ae5	0.058634657
2	0x3dd67a30	0.10472524
3	0xbe056487	-0.1302663
4	0xbdd46caa	-0.103722885
5	0xbe4ba893	-0.19888525
6	0xbdebc3b1	-0.115119345
7	0x3e19e753	0.1502965
8	0xbc9d50cf	-0.019203572
9	0x3e13fb73	0.14451389
10	0x3e10ebf4	0.14152509
11	0x3de16bb1	0.11006869
12	0xbcdc8f6f	-0.026923863
13	0xbdbafaee	-0.09129892
14	0xbe4337f6	-0.19064316
15	0xbe15cee9	-0.14629711
16	0xbe04d7ec	-0.12972993
17	0x3dd6f9cd	0.104968645
18	0xbc5040f0	-0.012710795
19	0x3dc1af92	0.094573155
20	0x3d2e8eb0	0.042616546
21	0xbdee128a	-0.1162463
22	0x3db0946a	0.08622058
23	0x3c45d4d0	0.012074664
24	0xbce56550	-0.028002411
25	0xbe07f4c0	-0.13276958
26	0x3ce08e3d	0.027411574
27	0x3d0a775c	0.033805236
28	0xbe09e80a	-0.13467422
29	0xbdca0eda	-0.09866114
30	0xbde70b57	-0.1128146
31	0xbda77101	-0.08175851
32	0x3e30e758	0.1727575
33	0xbde27e29	-0.110592194
34	0x3e28b0a0	0.16473627
35	0x3e097763	0.13424449
36	0x3cfc1fcd	0.030776883
37	0x3c20e993	0.009821313
38	0x3e44feb6	0.1923779
39	0x3df7c6f0	0.12098491
40	0xbde15764	-0.110029966
41	0xbde0bb74	-0.10973254
42	0xbd1efe75	-0.038816888
43	0xbcef4e2d	-0.029212082
44	0x3d3eaef4	0.046553567
45	0x3d03271c	0.03201972
46	0x3d8cebbc	0.068809
47	0xbe02670b	-0.1273462
48	0xbb615fde	-0.0034389417
49	0xbd01805e	-0.03161656
50	0x3d89d2ba	0.06729646
51	0xbe16b341	-0.14716817
52	0x3dcab376	0.09897511
53	0xbda05833	-0.07829323
54	0x3e3f4960	0.18680334
55	0x3d526914	0.05136974
56	0x3d6ca907	0.057778385
57	0xbdbeaa75	-0.09309856
58	0x3e77409c	0.2414574
59	0x3d7e5418	0.062091917
60	0x3cbd82d2	0.023133669
61	0x3e2d751f	0.1693921
62	0x3ceedd20	0.029158175
63	0xbd98e58a	-0.07465656
64	0x3d4c3bc7	0.049861696
65	0xbdd3413a	-0.10315175
66	0xbd92aeda	-0.071622565
67	0x3e085af6	0.13315949
68	0xbda7aa72	-0.08186807
69	0xbcf7fe16	-0.030272525
70	0x3e0496d0	0.12948155
71	0x3e01c5f4	0.1267317
72	0xbe2b0306	-0.16700372
73	0xbe2ad202	-0.16681674
74	0x3cbd4977	0.02310632
75	0xbdb98ed9	-0.09060449
76	0xbe30fbe4	-0.17283589
77	0x3cc233c2	0.02370632
78	0xbdebd607	-0.11515432
79	0xbe2cba29	-0.1686789
80	0x3deef0f3	0.11667051
81	0xbd92ad76	-0.07161991
82	0x3cae5f20	0.021285594
83	0xbccd1c08	-0.02503778
84	0xbd942cc1	-0.07235099
85	0xbddd81be	-0.10815762
86	0xbcd1c56d	-0.025606835
87	0xbdad0edc	-0.084501
88	0x3dd97160	0.10617328
89	0x3d46b654	0.048513725
90	0xbe1fd5e9	-0.15608944
91	0x3df50433	0.119636916
92	0xbe0e58d3	-0.13901071
93	0x3c9eb745	0.0193745
94	0x3d099b3f	0.03359532
95	0xbdda0367	-0.1064518
96	0xbe07833e	-0.13233659
97	0xbce89988	-0.028393522
98	0x3e07911d	0.1323895
99	0x3dc6a2a4	0.0969899
100	0xbd05e4a5	-0.032688756
101	0xbdc09e95	-0.09405247
102	0x3e57b3b3	0.21064644
103	0x3d9bdfb1	0.07611025
104	0x3e0d7f14	0.13818008
105	0x3ce66a1a	0.028126765
106	0xbcef9dc8	-0.02925004
107	0xbdf5a443	-0.11994221
108	0x3db4267d	0.087964036
109	0x3d81e4d6	0.06342475
110	0xbda01953	-0.0781733
111	0x3dc912d7	0.098180465
112	0x3da0f354	0.07858911
113	0xbddbb03f	-0.10726976
114	0xbcf640c8	-0.030060187
115	0x3e18d329	0.14924301
116	0x3d997d36	0.07494585
117	0x3d9f5aae	0.07780968
118	0x3d40bad9	0.04705319
119	0x3c93fad8	0.018063948
120	0x3d98c850	0.074600816
121	0xbd4f91bd	-0.050676096
122	0x3dd799f1	0.10527409
123	0xbd8fa92a	-0.07014687
124	0xbdb585ca	-0.08863409
125	0xbd20524f	-0.039140996
126	0xbda40205	-0.08008198
127	0x3cc8d543	0.024515754
128	0x3db3fe28	0.08788711
129	0x3e3f34cb	0.18672483
130	0xbdf6ae82	-0.120450035
131	0xbe042481	-0.1290455
132	0xbdf93f53	-0.12170281
133	0xbd595dda	-0.05306802
134	0xbd71ae87	-0.059004333
135	0xbda60bcd	-0.081077196
136	0x3d6772b6	0.05650588
137	0x3d96eb0d	0.07369051
138	0x3e184fe2	0.14874223
139	0x3da32741	0.079664715
140	0x3e53d337	0.20686041
141	0x3e40ebc5	0.18839939
142	0x3e4629e4	0.19351918
143	0x3cf0b593	0.029383456
144	0xbdea5f80	-0.114439964
145	0x3e393711	0.18087412
146	0xbe2f0e5e	-0.17095324
147	0xbd84a013	-0.06475844
148	0xbd58fcac	-0.05297534
149	0x3e334c45	0.17509563
150	0xbdf570c5	-0.119844
151	0x3cc12418	0.023576781
152	0x3d425d29	0.047452126
153	0x3e0c5d13	0.1370738
154	0x3e3bc2c1	0.18336011
155	0xbd1e818a	-0.038697757
156	0x3d93273f	0.0718522
157	0xbde2b50a	-0.11069687
158	0xbd4ebdc5	-0.050473947
159	0xbd9f4ddb	-0.077785216
160	0x3e113cf5	0.1418341
161	0x3d8d627c	0.0690355
162	0x3be62ec6	0.007024619
163	0xbcf3e9de	-0.029774603
164	0x3e20962a	0.15682283
165	0x3e797a0d	0.24362965
166	0xbd089fa2	-0.033355363
167	0xbdd62f9b	-0.10458299
168	0xbca66a4d	-0.02031436
169	0x3d20c6ee	0.039252214
170	0x3da94b30	0.08266294
171	0xbdb33f33	-0.08752289
172	0x3db78c3a	0.08962293
173	0x3e3fcf73	0.1873148
174	0xbdc7ab87	-0.09749513
175	0x3bdbbb3a	0.0067056688
176	0xbdfd173d	-0.12357948
177	0xbd813a87	-0.06309991
178	0x3cd2f8b0	0.025753349
179	0xbd4a9058	-0.049454063
180	0x3c1dd2c0	0.009632766
181	0x3dc208da	0.094743446
182	0x3dc88ddc	0.097926825
183	0x3c4f5a40	0.012655795
184	0xbd268ea3	-0.040663373
185	0x3de8504e	0.11343442
186	0xbd9dc8a5	-0.077042855
187	0x3e3a042a	0.18165651
188	0x3e0d4625	0.1379629
189	0x3dc18edf	0.094510786
190	0x3cabcdcd	0.020972157
191	0x3c92456c	0.017855369
192	0x3e1b28b8	0.15152252
193	0xbc3190b5	-0.0108377235
194	0x3d418211	0.04724318
195	0x3dd25bc3	0.102714084
196	0xbe39a377	-0.18128763
197	0x3dd0b016	0.10189836
198	0xbe0a7651	-0.13521697
199	0xb9503854	-0.0001985741
200	0x3d0b7f4b	0.034056943
201	0xbc1f5056	-0.009723743
202	0xbdad9054	-0.08474794
203	0xbe1f1260	-0.15534353
204	0x3cf55065	0.029945562
205	0xbe3319d2	-0.17490318
206	0xbdeceebd	-0.11568973
207	0xbdd95b07	-0.10613065
208	0x3c105532	0.008809375
209	0x3d925b2d	0.07146297
210	0x3e1bb8c7	0.15207206
211	0x3c8338c8	0.016018286
212	0x3d175614	0.036947325
213	0xbe10f684	-0.14156538
214	0xbd2db4f9	-0.042408917
215	0xbdafd5bb	-0.08585688
216	0x3cf4f3b4	0.029901363
217	0x3dbb5857	0.09147709
218	0x3cab1401	0.020883562
219	0xbd8fddc8	-0.07024723
220	0x3b7f635b	0.0038969133
221	0x3e0b0b2d	0.13578482
222	0xbd82da93	-0.06389346
223	0xbe037675	-0.12838157
224	0x3e0dace4	0.13835484
225	0x3cb2c19e	0.02182084
226	0x3e5148bc	0.20437902
227	0x3cb421c7	0.021988763
228	0x3d88ce2a	0.06679948
229	0x3e1a3b9b	0.150618
230	0x3e057657	0.13033424
231	0x3db4a955	0.0882136
232	0xbcbcda5f	-0.023053346
233	0xbd014fd7	-0.03157028
234	0xbb4c0f79	-0.0031137152
235	0x3e27b9c4	0.16379458
236	0x3db31b3d	0.0874543
237	0x3e604806	0.21902475
238	0x3ddcb724	0.10777119
239	0xbd9b9027	-0.07595854
240	0x3e1605ad	0.14650603
241	0xbdb15dd0	-0.086604714
242	0xbdfe67f2	-0.1242217
243	0xbe14b894	-0.14523536
244	0x3d600fe0	0.05470264
245	0x3e244f35	0.1604584
246	0xbd96add1	-0.073573716
247	0x3d3d098c	0.046151683
248	0x3dd0e28e	0.10199462
249	0x3e13612f	0.14392541
250	0x3d407481	0.046986107
251	0x3e328c1c	0.1743626
252	0xbdb022ce	-0.086003885
253	0xbdbebd56	-0.09313457
254	0x3e432828	0.19058287
255	0xbdab0824	-0.08351162

fc2.bias f4 [16]
0	0x3c99ac55	0.018758932
1	0x3e156e6b	0.14592902
2	0xbd61097d	-0.05494069
3	0x3ceff1c1	0.029290082
4	0xbd1d6a0b	-0.03843121
5	0x3e3d217d	0.18469806
6	0x3d8e4095	0.06945912
7	0x3e26d6cf	0.1629288
8	0xbc59ad57	-0.013285956
9	0xbc8767bf	-0.016528962
10	0x3d80eb15	0.06294838
11	0x3de16876	0.110062525
12	0x3d8cb906	0.06871228
13	0x3dcda6b3	0.10041561
14	0x3d8ce22f	0.068790786
15	0xbc95cc15	-0.01828579

fc3.weight f4 [1, 16]
0	0xbe18d039	-0.1492318
1	0x3e9486e5	0.29009166
2	0xbe30e179	-0.17273511
3	0x3d0cc9a1	0.034371976
4	0x3e64ec20	0.223557
5	0x3e872d6e	0.26401848
6	0xbb7f4ae3	-0.0038954548
7	0x3e29c0ef	0.16577505
8	0x3e024ca4	0.12724549
9	0x3e5f7dcf	0.21825336
10	0x3df69949	0.120409556
11	0x3e2870ab	0.1644923
12	0x3e1acbcb	0.15116803
13	0xbdd40ec5	-0.103543796
14	0x3e6aefb8	0.22943008
15	0xbd388802	-0.045051582
