backend/ml/models/rsi_model.pth (torch, 6765 bytes, 5 tensors)

fc1.weight f4 [32, 9]
00000000: c331 9abe ac0b d5bd 61bb e03d 9c8e 92bb
00000010: 2606 c1bc e532 75be b3b5 8f3e 8ceb 35be
00000020: 3a8d 2e3e 8e02 a6be e9aa 543d 6656 753c
00000030: 8f99 703e 8409 5a3c 086c 8cbe c5f0 dbbc
00000040: 69e8 0c3e 783f abbd 62e8 3a3d c467 203e
00000050: f6d3 ae3d 98cd c83e 61bb 213d dfed d1be
00000060: 43d4 633e 7457 c73d 5776 ef3d 4005 443e
00000070: 9647 14be 5cca b3be 29f0 f7bc de58 a93e
00000080: 73b5 8fbd 0287 8c3e 8b46 b3bd 2414 a13d
00000090: c2be 323e 4799 5b3d aa03 7a3e f1f3 39be
000000a0: 55f5 a9bd 435f 3fbe e61a 96be ad20 8fbc
000000b0: 2904 cd3d f016 cc3e 9592 1c3d 6cd2 80be
000000c0: aeb5 ad3e 25a7 37be a261 78be 8a94 7dbe
000000d0: 8d26 20bc fd9a ee3c cb90 1cbe 610e 97be
000000e0: d14f 45be 33f3 fd3d 91d9 ba3c f632 d3bd
000000f0: 82a3 5e3c a910 cd3c 2e02 a93e 7069 7d3e
00000100: ecd8 39bc 0041 9f3e 57bc 10be 4034 83be
00000110: 3085 9bbe c16a 99bd 15a8 233e c2dc 1cbd
00000120: 8561 983e 8920 8abe 9f6f 93be 06b0 74bd
00000130: 569b 41bd 0b0a d7be 1ead d0bd 7d9f 86be
00000140: 7ec1 9fbe be19 343e df45 a9be 7ce6 533e
00000150: d7ca 8f3e 4aad 02be a449 fd3e 38b6 9cbe
00000160: 7dbd b1be 2842 8a3e 4aa1 68be 732e ab3e
00000170: d1c2 653e b48d d83e 4e8e 523e dafb adbe
00000180: fc5d bb3e b817 2b3e b9ac 41be b68e 303d
00000190: f926 a0be 0fa4 663e 0515 9dbd c773 a8bc
000001a0: 6d90 83bd b04a 873e 4afb 4a3e 6a6b ef3d
000001b0: 802d 513d b674 5c3e 6685 fe3d afb4 993d
000001c0: 47f2 093e 64a1 07bd c31b 2e3d 2122 8b3d
000001d0: 04d6 96bb 04db a93d 6e75 01be 98b5 00bd
000001e0: 2084 9c3d d094 38be f241 3c3e 58c2 6cbe
000001f0: 1764 91be c855 33be 6f49 abbd a5fc 87be
00000200: 5dfa 8e3e c408 463d 9587 b3bd 95a7 993e
00000210: f039 7dbd 4039 fb3d 98e8 94be ebdf 03bd
00000220: ade6 6e3b d0b4 be3d eb2e 673e 767d a43e
00000230: f92b 3ebe 87bb ecbc e48b 643e 8976 32be
00000240: b8ed b83e 473e 5dbe 1c3a e93d e5ca 9f3e
00000250: 12df a33e 8703 10be c828 38be e0c9 b6bd
00000260: 4048 51bd 5146 5dbe d144 27be 518a c63e
00000270: 12e7 bb3e b3c3 c4bc 670e 02be ebea 8ebe
00000280: d0b8 15be 9b12 f0bd fed6 3f3e aac5 d53d
00000290: 1582 9d3e fd01 2dbe b2a0 26bd af93 76be
000002a0: 2302 2bbe 10e9 fa3d 0ea4 0bbe 803b ffbd
000002b0: f6a6 28be d0ba cb3d c09c 28be 20b2 a7bd
000002c0: 008f b3ba be21 1f3e 08d8 26be 0654 80be
000002d0: 35cf 3dbe 8688 ccbd dc94 28be 77ab 1b3e
000002e0: f13e 1dbe d860 393d cc52 b53d 77dd 923e
000002f0: 3928 0a3e 16be a9bd 150e 063e 2ebd dbbd
00000300: 9946 8d3e 8f0a b1be 5fdc 3bbd 1fce 233e
00000310: fb80 60be 5c9b 6e3e afcd 0ebe 7bc8 573e
00000320: d6f4 72be 5097 4dbe 198c 56be 4d5e 92be
00000330: be01 84be 59cc a03e fb8b 983e 78af 15be
00000340: 2af5 ca3d 1ee9 37be fa8b d3bd 0ca3 3a3d
00000350: c675 e8be c959 46bd f04b 5a3e c7ab 17be
00000360: 56b9 883e 2d20 e03d 5ed2 07be f5a7 513d
00000370: b130 a4be bb4d 05be fa9b 72be 4b7d 8abe
00000380: cc24 7b3e f98e ae3d 780b 4c3d dca1 a6be
00000390: 3684 ebbd 33f0 bc3e c47c 1e3e 96da 863e
000003a0: e380 ba3e cc90 25be 07af 24be e5a6 a83e
000003b0: a19a af3e 1122 8c3e bfe0 fcbd 0ff3 0c3e
000003c0: cc59 77be 0c64 453d 889b 8cbe f98f 9d3e
000003d0: f28b 283e fc23 503e 2eaa 823e fe19 9b3e
000003e0: eeb6 3cbd 9d04 32be df3c 803e 6999 9d3e
000003f0: e012 e03d 3ce6 6e3e efb1 8c3c f6a9 2c3e
-0.3011609 -0.10402617 0.1097324 -0.004472567 -0.023562502 -0.23945196 0.28068313 -0.17765635
0.17046061 -0.32423824 0.051920805 0.014974212 0.23496078 0.013307933 -0.2742617 -0.026848206
0.13760532 -0.08361715 0.045631774 0.15664583 0.08536522 0.39219356 0.03948534 -0.41001794
0.2224894 0.09733477 0.116924934 0.19142628 -0.14480433 -0.35115325 -0.030265884 0.33075613
-0.070170306 0.27446753 -0.087536894 0.0786517 0.17455581 0.053612974 0.2441546 -0.18159463
-0.082987465 -0.18688683 -0.29317397 -0.017471636 0.10010559 0.3986125 0.03822573 -0.2516054
0.33927673 -0.17934854 -0.24255994 -0.24763694 -0.009774816 0.029126639 -0.15289609 -0.29503158
-0.19268729 0.12399902 0.022808822 -0.103124544 0.013588788 0.025032358 0.33009475 0.24747252
-0.011343222 0.3110428 -0.14134346 -0.256258 -0.30375051 -0.07491065 0.15982087 -0.03829647
0.29761901 -0.26977947 -0.28796098 -0.05973818 -0.04726728 -0.4199985 -0.101892695 -0.26293555
-0.3120231 0.17587945 -0.3306112 0.20693392 0.28084442 -0.12761417 0.49470246 -0.30607772
-0.3471488 0.27003598 -0.22717777 0.33433875 0.22437598 0.4229561 0.20562097 -0.3398121
0.36595142 0.16708267 -0.18913545 0.04310485 -0.31279734 0.22523521 -0.07670025 -0.02056302
-0.064240314 0.2642417 0.19822422 0.116904095 0.051068783 0.21528897 0.124277875 0.07505166
0.13471328 -0.0331129 0.042506944 0.06793619 -0.0046031494 0.08293727 -0.12642452 -0.03142318
0.07642388 -0.18025517 0.18384531 -0.23121011 -0.28396675 -0.17513192 -0.08363616 -0.2655994
0.27925387 0.048348203 -0.087660946 0.30010667 -0.06182283 0.12266779 -0.29083705 -0.032195967
0.0036453411 0.09311831 0.22576492 0.3212697 -0.18571462 -0.028898014 0.22318989 -0.1742803
0.36118865 -0.21605788 0.113880366 0.31209484 0.32006127 -0.14063846 -0.17984307 -0.08925223
-0.051094294 -0.21608855 -0.16334845 0.38777402 0.3669973 -0.024019098 -0.12700807 -0.27913603
-0.14621282 -0.11722299 0.18734357 0.10438092 0.30763307 -0.1689529 -0.040680595 -0.24079774
-0.16700034 0.122514844 -0.136368 -0.124625206 -0.1646994 0.09947741 -0.16466045 -0.081882715
-0.0013699234 0.15540215 -0.16293347 -0.25064105 -0.18536074 -0.09986977 -0.16463035 0.15202127
-0.15356041 0.045258373 0.08853683 0.2868459 0.13491906 -0.08288209 0.1309131 -0.107294425
0.27592924 -0.34578368 -0.04586446 0.15996598 -0.21924202 0.23301452 -0.1394565 0.21072571
-0.2372621 -0.20077252 -0.2095188 -0.2858757 -0.2578258 0.31405905 0.29794297 -0.14617717
0.099100426 -0.17960021 -0.10329433 0.04556565 -0.45402354 -0.04842547 0.2131803 -0.14811622
0.267039 0.10943637 -0.13263842 0.051185567 -0.320684 -0.13017933 -0.23692313 -0.27048716
0.24525756 0.085233636 0.049815625 -0.32545364 -0.114998266 0.36902007 0.15477282 0.26338643
0.36426458 -0.16168517 -0.16082393 0.3293983 0.3429766 0.2736974 -0.123475544 0.13764594
-0.24155349 0.048191115 -0.2746241 0.30773905 0.16459635 0.20326227 0.25520462 0.30293268
-0.046072893 -0.17384572 0.2504644 0.30781105 0.109411 0.23330015 0.01717469 0.1686171

fc1.bias f4 [32]
00000000: b500 90be 2504 ebbd 78dc 0dbe d3eb a73d
00000010: 8f8d 6bbe b019 87bd 26b8 1e3e 3835 613e
00000020: 0e5b a23e b289 e83d 756d 2dbe ced5 a23e
00000030: ea6d ee3c 7c6f c23d 3f5b 293e e1f7 4abe
00000040: 3e69 a03d b42b 603e b906 9b3c 401c 2fbe
00000050: 4fe7 8e3e 5e1d 94be 7595 7e3e fa57 823e
00000060: c4d5 3bbe d22e c23d e87f 253d 0cd3 673e
00000070: 90f8 2c3e cc01 ce3d 836c 8ebe a8af b53e
-0.2812554 -0.114754 -0.13853633 0.08199277 -0.23003219 -0.065966964 0.15499935 0.21992958
0.31710094 0.11354388 -0.16936286 0.31803745 0.029105145 0.0949392 0.16538714 -0.19821121
0.07832573 0.21891671 0.018924104 -0.1710062 0.2791085 -0.28928655 0.24861701 0.25457746
-0.18343264 0.094815865 0.040405184 0.22639102 0.16891694 0.100589365 -0.27817163 0.35485578

fc2.weight f4 [16, 32]
00000000: 9d92 10be 2a5d dbbc 73ae 383e 7edc 7cbd
00000010: cf1e 123e c5e8 313d 489b 693d 7f7d ed3b
00000020: de83 eb3d a82e 21be 1377 c83d 7cc7 033e
00000030: a0bb 923d 3b75 8ebd aea3 94bd 9c31 2bbe
00000040: 80bc 1cbe 353b 2ebc 76c4 313d 5e07 12be
00000050: 8de7 943d 78ac 15bd dee2 403e cf96 44bc
00000060: a94b 053e c1d7 86bb 894a df3d 1d52 593e
00000070: 2d9c 4abd 505d 36bd 2d9a ffbd 4fc5 f6bd
00000080: 411d fb3d 3213 8cbd b069 2b3e 2654 1f3d
00000090: fd43 8f3d 0549 78be 6438 c9bd 8d8d 71bd
000000a0: da3b a4bd 5f60 12be 99d8 c73c 30ec c73d
000000b0: 9c15 383e 31f2 2c3e acbc 92bd aec4 e53d
000000c0: 9cc9 0c3e b771 fcbd 0d8f 2ebe f41d 733d
000000d0: ab56 b23d 7f46 13be 10a8 143e 9abd 29bd
000000e0: 4342 c43d fd93 d13d f278 0abe 57da bd3d
000000f0: 42f7 d7bd 556c 9ebe af94 0fbe 4727 183e
00000100: 92b7 c83d ccfd 213e 7e86 6a3d 3385 c53d
00000110: 279b 003d 521f 8bbe 959d 393e b44c cd3c
00000120: 4c8d 5dbd 084a 8dbc 5fb5 703e 79dd 42bc
00000130: cc5e 60bc df41 e3bd 52a6 a4bd 5118 94bd
00000140: eab1 1a3e 026f 7bbe 27f0 23bc 9119 a2bd
00000150: 2376 003e f4b3 1f3e f877 babd 9766 c33d
00000160: 6d11 b5bc 3d4d 343e a12a ffbd d5b4 c5bd
00000170: 97b0 f6bd 8aa1 62be f697 31be 4d55 243e
00000180: b608 4abe 1427 363e 7fc3 593d 73e0 533e
00000190: 94dd 6abd c187 833c 315a e2bc 4587 12be
000001a0: 8eb0 573e c269 8bbe 002f 5e3d 0127 233e
000001b0: 9cd0 a1bd c053 0abc 5a8a 52bd 3dfc b5bd
000001c0: f840 2a3e 925e 83be bf20 e83c 0030 ebbb
000001d0: 72fa 263e 345f 7a3d 93cc 323e e146 6f3e
000001e0: 95e3 db3d 74ed 973d 6a93 3c3d 2575 e53d
000001f0: c2c7 493e 94c6 22bd 2977 12bd 05e0 ff3d
00000200: 0f78 173e 3745 eb3d bfe1 2fbc 028f 14be
00000210: 7d18 193d 8d38 783d e063 8b3d 0053 21bd
00000220: 1f5c e0bd 7ab8 333e 2f6e 1ebd ca7a e1bd
00000230: 574c ae3d 21d3 18be e638 533e 5bc7 773d
00000240: 3e23 09bd 4d6d de3d 245f 37be ac3a 08be
00000250: 8048 163d 2f11 ad3d d913 353d 9b43 53be
00000260: f28a c2bd 6236 05be a5be 7fbd 9c78 2dbd
00000270: 536d 7cbd 3722 763e 29a8 153e aedd aa3d
00000280: 428c de3c 4cc8 273c 21fa bfbd d06a 213d
00000290: c35d 25be e741 78bc dd6b eebb 39ab 103e
000002a0: 739e 003e e270 bf3d 3e5e d4bc 3135 db3c
000002b0: 8f3d 24be a065 27be 857e 67bc e2b1 c53d
000002c0: 2baf 193e 58b8 d5bc c69c e13c 9039 cc3c
000002d0: 1e1b a7bc 5ddb 34be de12 f23d 5060 1cbe
000002e0: 0102 bdbd 6b4e c23c 8218 a33d 4976 e43d
000002f0: f41a 893d ac1e cbbd f0e1 82bc ec94 0e3e
00000300: 45ea 183e 8c2c 813d c9f2 e53c f138 6f3d
00000310: aeac a73d 5506 553e 38f6 113d a5e8 e5bc
00000320: cfba 58be 82af 563e a81c c0bd 4cbd d4bd
00000330: 30f9 91bd e803 083d c216 cd3d 4c9c 0c3e
00000340: da89 8abd b2aa 8bbd 5616 643d ed4a e2bd
00000350: cd7f f0bc 6f45 fb3c 62cf 003e 3229 5c3d
00000360: 6c5f 273e d763 e23d 9362 b33d 0869 8d3d
00000370: 0cbe c8bb baaf 083e bc9b c1bd 8c14 223c
00000380: 4830 783c d5c0 e2bd f7f2 5f3d 54ea 0fbd
00000390: cabc 263d 4513 edbd 3bae 9f3d fcdd f83b
000003a0: 7cc7 72bd f959 9bbd bb3a 85bd 32f4 adbd
000003b0: 1bb2 8abd 44ae 043d d299 26be f73e e0bd
000003c0: 8bbc 45be 7848 2cbe 42a2 1a3e c882 f53c
000003d0: f5f6 b2bd 9cbb b1bd 423f 7d3d 9385 693d
000003e0: 3b4b e13d c22f 113e 1357 bf3d a000 cfbd
000003f0: 66e3 663d 9dea b8bd 0fb8 053e 44ea ff3b
-0.14118429 -0.026777823 0.18035297 -0.061733715 0.14269565 0.043434877 0.057032853 0.0072476263
0.11499761 -0.15740454 0.097883366 0.12869066 0.07164693 -0.06955954 -0.07257782 -0.16718143
-0.15306282 -0.010634233 0.04340025 -0.14260623 0.07270727 -0.036541432 0.18836543 -0.011998846
0.13017143 -0.0041150753 0.10902888 0.2122273 -0.049465347 -0.044522583 -0.124805786 -0.120493524
0.12261439 -0.06839599 0.16739535 0.03889861 0.069953896 -0.24246605 -0.09825209 -0.058972884
-0.08019228 -0.14294575 0.024395274 0.09761846 0.17976993 0.16889264 -0.071648926 0.11219154
0.13748783 -0.12326377 -0.17046757 0.059354737 0.08707937 -0.14382361 0.14517236 -0.041440584
0.09582951 0.10233305 -0.135227 0.09270161 -0.105452076 -0.30942026 -0.14021562 0.14858733
0.09800638 0.15819472 0.057257168 0.09644546 0.031397965 -0.27172333 0.18126519 0.025060989
-0.05408983 -0.017247215 0.23506688 -0.0118936235 -0.013694476 -0.11096548 -0.080395356 -0.072312005
0.15106931 -0.24554065 -0.010005987 -0.07915033 0.12545066 0.1559599 -0.091049135 0.09541052
-0.022103036 0.17607589 -0.12459303 -0.096536316 -0.120454006 -0.22131935 -0.17343125 0.16048165
-0.19729885 0.17788345 0.053164955 0.2069109 -0.05734022 0.016055943 -0.027630897 -0.14309414
0.21063444 -0.27229124 0.05424404 0.15932848 -0.07901117 -0.008442819 -0.051401474 -0.08886001
0.16626346 -0.2565809 0.028335927 -0.007177353 0.16306475 0.06112595 0.17460851 0.23366882
0.10736767 0.074183375 0.046039023 0.11203984 0.19705108 -0.03974016 -0.03575817 0.124939
0.14791892 0.11487811 -0.010734974 -0.14507678 0.03737687 0.060600806 0.06806159 -0.039385796
-0.10955071 0.17550841 -0.038679298 -0.11009748 0.085106544 -0.1492429 0.20627174 0.060492855
-0.033480875 0.10860691 -0.17907387 -0.13303632 0.036690235 0.08450543 0.04420838 -0.20631258
-0.09499158 -0.13009027 -0.062437672 -0.04235135 -0.061627697 0.2403649 0.1461493 0.08343063
0.02716649 0.010240626 -0.0937388 0.039408505 -0.16149049 -0.015152431 -0.007276042 0.14127816
0.12560444 0.093477026 -0.025923844 0.026758762 -0.16039108 -0.1634736 -0.014129286 0.09653069
0.15008228 -0.026088879 0.027540576 0.024929792 -0.020398673 -0.17661805 0.11820005 -0.15271115
-0.09228898 0.023719033 0.07963659 0.111553736 0.06694594 -0.099179596 -0.015976876 0.13923997
0.14933117 0.06307325 0.02806987 0.058403913 0.08187233 0.20803197 0.035635203 -0.028065035
-0.21165012 0.20965388 -0.09380466 -0.10387668 -0.07127607 0.03320685 0.10014106 0.13731498
-0.06764574 -0.06819667 0.055685364 -0.11049447 -0.029357815 0.030672757 0.1257911 0.053750224
0.16344994 0.11054199 0.08759036 0.06904799 -0.006126171 0.13348284 -0.09453532 0.009892594
0.01514823 -0.11071936 0.05467507 -0.035135582 0.040707387 -0.11575941 0.07796904 0.007594822
-0.059272274 -0.0758552 -0.065053426 -0.08493842 -0.06772252 0.032392755 -0.16269615 -0.109495096
-0.19310205 -0.1682452 0.15100959 0.029969588 -0.087385096 -0.08678362 0.061827905 0.057012152
0.11000677 0.14178374 0.0934278 -0.10107541 0.056369208 -0.09029124 0.13058494 0.007809909

fc2.bias f4 [16]
00000000: a832 893d 758c a63d d82c 873c 01cf fc3d
00000010: 1016 af3d 54e1 57be d63e 50bd 6056 1cbe
00000020: 0e03 36bd a0e2 2fbc 51ef 21be ee0a 433d
00000030: be3e f2bd ec0b 93bd 2406 323d ec69 9dbd
0.06699115 0.08132259 0.016500875 0.1234417 0.0854913 -0.2108205 -0.050841175 -0.15267324
-0.044436507 -0.010735184 -0.15813948 0.047617845 -0.118283734 -0.07180008 0.043462887 -0.076862186

fc3.weight f4 [1, 16]
00000000: cdf7 9bbe 6cf3 9cbe d437 a5be 1181 8abe
00000010: 3170 0c3e feeb 803c 14e5 263d 6208 633e
00000020: 8641 2b3e 3b77 0cbe 85db 253e d560 dbbd
00000030: 4b06 573d 688b 313e 42c7 0f3e 76ab 85bb
-0.30462494 -0.30654466 -0.32269156 -0.27051595 0.13714673 0.01573753 0.04074581 0.22171167
0.16724214 -0.13717358 0.16197021 -0.107118286 0.052496236 0.17338336 0.14040855 -0.0040792776
