backend/data/turbomode_models/pytorch_nn/model.pt (torch, 64667 bytes, 20 tensors)

fc1.weight f4 [64, 179]
-0.05514275 0.010896854 -0.03209112 0.07134445 -0.06282741 -0.057673253 -0.048093177 -0.052003857
0.016283525 0.041787863 0.004100491 -0.04724841 -0.03995521 -0.016498206 -0.06809264 0.06553185
-0.01847849 -0.062010556 -0.016681876 -0.019955125 -0.056165818 0.10867295 -0.0066665113 0.042576008
0.002821952 0.0629397 -0.015044981 0.078891784 -0.029506158 0.06536468 -0.045676004 -0.0036904865
0.04317496 -0.05049878 0.051031776 0.071966335 -0.038830455 -0.0638766 0.06457136 -0.029165152
-0.01638396 0.07282214 0.06892644 -0.008808084 0.043585382 -0.028265424 0.050714795 -0.06673336
-0.02546378 -0.07647556 -0.06386927 -0.047197834 -0.0037846337 -0.07033352 0.00031092018 -0.04547281
-0.02549966 0.054823875 0.0049848557 0.058672607 0.06759077 0.01664679 0.032137237 -0.02989457
0.050034113 0.056472346 -0.0005091131 -0.01093141 -0.023718625 0.07372603 0.029061079 -0.04290876
0.058020186 -0.029645976 -0.05367831 0.0555474 -0.046405733 -0.08830577 0.02697429 0.07288709
0.031275313 -0.08302842 -0.10616645 0.026914705 0.009452696 0.033246234 0.064006835 0.06226234
0.011374302 -0.056213 -0.04245511 0.031215884 0.009644993 -0.044846784 0.045956098 -0.020116007
0.058122404 0.028568653 0.03956214 0.050163068 0.042346098 0.051246483 -0.016953427 0.013944723
0.016207026 -0.0034456817 0.046639394 -0.0672862 -0.033010695 0.0330597 -0.019602604 -0.01643813
-0.02371351 -0.057995327 0.047874898 -0.0672823 -0.044170313 0.032223675 0.06985302 0.025445305
0.03186899 -0.032489266 -0.024141626 0.01585151 0.013711063 -0.049805965 -0.1129412 0.006442554
-0.06621442 0.055557054 -0.030213978 0.049312428 0.02196613 0.011323437 0.0042484105 0.054812253
0.06430235 -0.021183714 -0.017695013 -0.03840144 0.05388094 -0.0072496193 -0.012595952 -0.019647725
0.013976164 0.043156706 -0.047659934 -0.034701794 -0.0500879 0.07370097 0.05124398 -0.05918668
-0.06745457 0.048853904 0.033008978 0.009872554 -0.024563033 -0.011827729 -0.11666246 0.037102986
-0.014659561 -0.019961387 -0.056963447 0.0942707 0.050003882 -0.021180103 -0.053739283 0.052759465
-0.026864432 -0.00013748408 0.022658616 -0.06889597 0.03659849 0.014966145 0.045460872 0.06355405
-0.016847897 0.02243834 -0.05586989 0.046518162 0.02507127 -0.03919596 0.03525144 -0.05822157
-0.03794504 0.043996014 -0.04275845 -0.0742561 -0.019109815 0.0048684683 0.00024200976 0.02412055
0.06499963 0.036778778 0.06593548 0.03127319 0.017193913 -0.061865054 0.0023281276 0.039079778
0.00511987 0.025826022 0.024950236 -0.06212409 0.012891576 -0.0028710125 -0.07803391 0.0026693568
-0.07238415 0.06185288 0.05279383 -0.030617187 0.032238938 0.04721383 0.0027928352 -0.01795074
0.0461859 0.012079016 0.029718878 -0.02813514 0.036140032 0.048617683 -0.069833376 0.03797891
-0.053483866 -0.05347593 -0.026195265 -0.05523112 0.039940644 -0.03730958 0.013513025 0.018548917
0.054496065 0.050246835 0.015800182 -0.03297386 0.016896047 -0.051823042 0.0026671812 -0.039639585
-0.016940752 0.0572982 0.02455094 0.06678495 0.0051608384 -0.004159279 -0.03803809 0.056316376
0.06587252 0.03709109 0.009126931 -0.050792936 -0.06994359 -0.050123744 -0.06085983 -0.07050887
00000000: 5ddd 61bd b888 323c fa71 03bd 0a1d 923d
00000010: a8ab 80bd ca3a 6cbd 5afd 44bd ff01 55bd
00000020: 0765 853c c029 2b3d 695d 863b 8c87 41bd
00000030: 13a8 23bd 3f27 87bc 2774 8bbd 9035 863d
00000040: 3460 97bc c8fe 7dbd 6ea8 88bc ee78 a3bc
00000050: 210e 66bd ec8f de3d c072 dabb 2e64 2e3d
00000060: 80f0 383b 88e6 803d 397f 76bc 0492 a13d
00000070: e6b6 f1bc ebdd 853d c316 3bbd 17dc 71bb
00000080: 3ad8 303d cfd7 4ebd b206 513d 1663 933d
00000090: af0c 1fbd bcd1 82bd fd3d 843d c2eb eebc
000000a0: a837 86bc c623 953d 4e29 8d3d c84f 10bc
000000b0: 9686 323d e48c e7bc 51ba 4f3d 80ab 88bd
000000c0: 6b99 d0bc 389f 9cbd e4cd 82bd 8452 41bd
000000d0: 9e07 78bb 050b 90bd 0003 a339 b241 3abd
000000e0: aae4 d0bc 008f 603d 0058 a33b b052 703d
000000f0: 086d 8a3d d95e 883c 56a2 033d 75e5 f4bc
00000100: 92f0 4c3d 8c4f 673d 0076 05ba a819 33bc
00000110: 904d c2bc acfd 963d 8011 ee3c 19c1 2fbd
00000120: 93a6 6d3d 1edc f2bc cadd 5bbd ac85 633d
00000130: f013 3ebd a8d9 b4bd 30f9 dc3c d445 953d
00000140: 8b1a 003d ce0a aabd cc6d d9bd 3a7c dc3c
00000150: 7bdf 1a3c 342d 083d 0416 833d cc06 7f3d
00000160: 485b 3a3c 9a3f 66bd 69e5 2dbd 74b8 ff3c
00000170: 0806 1e3c 43b1 37bd 763c 3c3d 53ca a4bc
00000180: c211 6e3d cf08 ea3c e90b 223d ca77 4d3d
00000190: 1a73 2d3d d5e7 513d eae1 8abc 6878 643c
000001a0: 99c4 843c f2d0 61bb f308 3f3d 59cd 89bd
000001b0: 3936 07bd 9c69 073d a495 a0bc 42a9 86bc
000001c0: d642 c2bc 828c 6dbd 7818 443d 4dcb 89bd
000001d0: eeeb 34bd f9fc 033d 1a0f 8f3d ac72 d03c
000001e0: 0f89 023d 7713 05bd a9c4 c5bc 07db 813c
000001f0: 5ea4 603c 5701 4cbd b74d e7bd 0f1c d33b
00000200: 6d9b 87bd cb8f 633d 4e83 f7bc d4fb 493d
00000210: 50f2 b33c f085 393c 4036 8b3b d082 603d
00000220: f3b0 833d 7889 adbc 22f5 90bc d44a 1dbd
00000230: 43b2 5c3d 378e edbb 405f 4ebc 44f4 a0bc
00000240: 48fc 643c 16c5 303d 1037 43bd 7823 0ebd
00000250: f828 4dbd 89f0 963d 35e5 513d bb6d 72bd
00000260: 9f25 8abd 081b 483d 6c34 073d 7ec0 213c
00000270: 6a38 c9bc 17c9 41bc baec eebd 4df9 173d
00000280: a82e 70bc 1086 a3bc 8152 69bd ff10 c13d
00000290: dfd0 4c3d e581 adbc b91d 5cbd 4f1a 583d
000002a0: cc12 dcbc 9a29 10b9 909e b93c 5519 8dbd
000002b0: 4ce8 153d 9034 753c 2e35 3a3d a028 823d
000002c0: 9a04 8abc 9cd0 b73c d3d7 64bd d489 3e3d
000002d0: 4462 cd3c f18b 20bd d063 103d be79 6ebd
000002e0: 426c 1bbd 2a35 343d 7c23 2fbd 9513 98bd
000002f0: 308c 9cbc ac87 9f3b 00c4 7d39 7698 c53c
00000300: 871e 853d 58a5 163d 2e09 873d 5118 003d
00000310: 40da 8c3c 3666 7dbd 8093 183b 1e12 203d
00000320: 95c4 a73b 1891 d33c 7064 cc3c d475 7ebd
00000330: 3037 533c 9927 3cbb 3ed0 9fbd 60f0 2e3b
00000340: 243e 94bd 7259 7d3d 583e 583d e5d0 fabc
00000350: fa0c 043d 4a63 413d 0008 373b 6e0d 93bc
00000360: 6d2d 3d3d 11e7 453c 0175 f33c aa7b e6bc
00000370: 9207 143d 5623 473d cd04 8fbd c68f 1b3d
00000380: e611 5bbd 9409 5bbd 7497 d6bc 073a 62bd
00000390: cd98 233d eed1 18bd bc65 5d3c e6f3 973c
000003a0: 4437 5f3d a0cf 4d3d 626f 813c 990f 07bd
000003b0: 9469 8a3c 6644 54bd e0cb 2e3b 1e5d 22bd
000003c0: 55c7 8abc 84b1 6a3d 0e1f c93c 8cc6 883d
000003d0: 401c a93b 904a 88bb d4cd 1bbd 00ac 663d
000003e0: 2ce8 863d d4ec 173d 2089 153c 410c 50bd
000003f0: 963e 8fbd 8e4e 4dbd 2848 79bd f466 90bd

fc1.bias f4 [64]
-0.15715642 -0.282943 -0.3070488 -0.15906592 -0.07074167 -0.06290657 -0.23229648 -0.21472432
-0.29499868 -0.091615036 -0.12533388 -0.10558332 -0.024565332 -0.1735755 -0.15452226 -0.14839457
-0.13391286 -0.22591804 -0.103328355 -0.19390067 -0.14177173 -0.22134064 -0.26624683 -0.21677047
-0.27652225 -0.10364711 -0.16853124 -0.06601988 -0.052799713 0.00084687234 -0.123648904 -0.28655896
-0.20018093 -0.26762605 -0.11415461 -0.16128886 -0.10353644 -0.18135236 -0.17228064 -0.032557618
-0.1471065 -0.29677114 -0.24071753 -0.11597463 -0.15351382 0.03801312 -0.15330592 -0.16471554
-0.15857014 -0.22703701 -0.20837563 -0.11735254 -0.12639338 -0.18103614 -0.14385316 -0.13287999
-0.10049177 -0.2446383 -0.015401523 -0.09444749 -0.13866976 -0.22681937 -0.033419084 -0.093892366
00000000: 9ded 20be e8dd 90be 8035 9dbe 2de2 22be
00000010: 02e1 90bd 29d5 80bd 21df 6dbe b1e0 5bbe
00000020: 110a 97be aaa0 bbbd 8657 00be 113c d8bd
00000030: 3c3d c9bc c7bd 31be 153b 1ebe bff4 17be
00000040: 7420 09be 0f57 67be d19d d3bd e68d 46be
00000050: 9c2c 11be 1fa7 62be 8151 88be 14f9 5dbe
00000060: 5394 8dbe f044 d4bd 7493 2cbe 6e35 87bd
00000070: 8344 58bd a400 5e3a a33b fdbd dbb7 92be
00000080: 3bfc 4cbe 4806 89be e4c9 e9bd e828 25be
00000090: ea0a d4bd 6fb4 39be 566a 30be 235b 05bd
000000a0: 16a3 16be 63f2 97be a87e 76be 1b84 edbd
000000b0: ba32 1dbe a5b3 1b3d 3afc 1cbe 31ab 28be
000000c0: 3660 22be 647c 68be 6c60 55be 8756 f0bd
000000d0: 446d 01be 8a61 39be 3e4e 13be b111 08be
000000e0: a1ce cdbd 7682 7abe ab56 7cbc b06d c1bd
000000f0: 72ff 0dbe 5643 68be 73e2 08bd a44a c0bd

fc2.weight f4 [32, 64]
-0.13277069 0.11364838 -0.1016146 0.005593643 -0.0094878655 -0.032147463 -0.09912398 0.052964136
0.092719205 0.024886614 0.04696188 0.13592136 -0.0055152182 -0.064765014 -0.17516586 0.11332755
-0.18426609 0.014413075 -0.09281611 -0.0040742164 0.103548735 0.1082617 -0.09705388 0.026936807
-0.11827457 -0.12305471 0.010466188 -0.14592378 0.017835949 0.08552542 0.0041958448 -0.09881099
-0.10922423 0.09886073 -0.036707073 0.07443627 0.012465611 -0.052652586 -0.1497705 -0.13975419
-0.02427606 -0.03979959 -0.046855982 -0.12210346 -0.07428881 0.009046348 0.07971331 0.038078
-0.12570943 -0.07533411 -0.0984773 -0.07128777 0.047812745 -0.15018801 -0.10524898 0.079478204
-0.018720051 -0.099496074 -0.01572193 0.06005494 -0.12416169 0.10942613 -0.065520525 0.024577975
-0.06202276 0.16904254 -0.13474633 -0.09671969 -0.017580688 0.035914816 -0.03353148 0.008627432
0.12557758 0.035963602 -0.09098633 0.02499566 0.02408073 -0.16514166 -0.08288762 0.0721284
-0.031025827 0.061543353 -0.022895275 0.044649646 0.089257516 0.018966142 -0.06223252 0.035109427
-0.09048559 -0.15418173 0.094050154 -0.018419916 -0.055758614 0.03844583 0.11359095 -0.1531864
-0.15487522 -0.044058513 -0.028719267 0.082260266 0.016705185 -0.009279381 -0.046178814 -0.071400225
-0.005661099 0.025408672 -0.027880974 -0.0077568116 -0.076161265 0.020182656 0.03205194 -0.0014165185
0.05390716 -0.10264945 -0.13119364 -0.1209933 0.0059993514 -0.020079855 0.0027634425 -0.039861836
-0.049663246 -0.031031588 -0.12158236 0.050463036 -0.10538937 0.032459844 -0.050085142 0.12157475
-0.023010965 -0.12696044 0.02506965 0.05795336 0.06419314 -0.030588312 0.044592008 -0.08227642
0.0067285965 -0.06300214 0.08920048 -0.016494324 -0.034934346 0.0521155 -0.13330148 0.0206523
-0.036622573 -0.03232741 -0.08526366 -0.15100926 0.09734134 -0.10770439 0.0917355 -0.1459297
0.04695094 0.07112248 -0.09572714 -0.10678754 0.0061250273 -0.07713895 0.05910101 0.0793522
-0.072213545 -0.18010566 -0.02840156 -0.018684851 -0.13816887 0.12102614 0.015281238 0.058716442
-0.06359154 0.08246111 -0.090273045 0.07175108 0.04044413 -0.00038019635 -0.16759035 -0.018434051
-0.0939221 0.06093261 0.006982288 0.0051044263 0.048748437 0.032474156 0.01776197 -0.033603143
-0.061438426 0.072690964 -0.044972207 0.057633888 -0.040465903 -0.19364575 -0.051551286 0.047596812
-0.17349434 0.12215222 -0.074413165 -0.008397565 -0.065783545 0.03483537 -0.11965326 0.0943555
0.13973446 0.08786772 -0.030583696 -0.06268849 -0.06728062 -0.12771215 -0.064686075 0.11916946
0.038032252 0.076573536 0.043310516 0.08215941 0.048763726 0.15447032 -0.19756064 0.01791796
-0.13329571 -0.12929603 -0.043128323 0.0034652702 0.072288744 -0.0031006625 0.031168792 -0.045500126
-0.020381235 0.02316302 0.022233028 0.09172734 -0.0627582 -0.032401588 -0.03339297 -0.07351364
0.018351054 -0.049071018 -0.0060506733 -0.15338346 -0.015352895 0.0137262745 -0.08897682 0.099182844
0.01887914 -0.11510371 -0.14060676 -0.06286917 0.028657945 0.028787715 -0.06945559 0.02188045
0.07123621 0.013508566 -0.12315597 -0.0710489 -0.124926634 0.053422704 -0.007345742 0.01993738
00000000: 0af5 07be 7bc0 e83d 511b d0bd e14a b73b
00000010: fe72 1bbc 0fad 03bd 8301 cbbd ecf0 583d
00000020: 91e3 bd3d 03df cb3c 1a5b 403d f82e 0b3e
00000030: 01b9 b4bb 85a3 84bd ae5e 33be 4618 e83d
00000040: 40b0 3cbe d124 6c3c 5f16 bebd 0181 85bb
00000050: 5c11 d43d 4fb8 dd3d 2fc4 c6bd 94aa dc3c
00000060: f039 f2bd 1c04 fcbd 607a 2b3c 0b6d 15be
00000070: b21c 923c f427 af3d 4c7d 893b 6b5d cabd
00000080: f4b0 dfbd 7f77 ca3d 285a 16bd 0b72 983d
00000090: 903c 4c3c 3daa 57bd 705d 19be b91b 0fbe
000000a0: 96de c6bc e504 23bd 0fec 3fbd 6111 fabd
000000b0: bb24 98bd 2237 143c bb40 a33d adf7 1b3d
000000c0: f9b9 00be c548 9abd 77ae c9bd 53ff 91bd
000000d0: 4cd7 433d e3ca 19be c78c d7bd 78c5 a23d
000000e0: cb5a 99bc 99c4 cbbd 47cb 80bc 2bfc 753d
000000f0: 7c48 febd cf1a e03d a02f 86bd c057 c93c
00000100: 940b 7ebd 7d19 2d3e f1fa 09be f914 c6bd
00000110: 6005 90bc 6a1b 133d 4e58 09bd 135a 0d3c
00000120: 6997 003e 924e 133d 0a57 babd b3c3 cc3c
00000130: f344 c53c e51a 29be fcc0 a9bd 0eb8 933d
00000140: e029 febc e214 7c3d df8e bbbc 8ce2 363d
00000150: a5cc b63d e25e 9b3c 87e7 7ebd e7ce 0f3d
00000160: 8250 b9bd d1e1 1dbe 5e9d c03d 5de5 96bc
00000170: 2563 64bd 6079 1d3d 5fa2 e83d e5dc 1cbe
00000180: 9c97 1ebe b376 34bd ab44 ebbc 1278 a83d
00000190: 50d9 883c 8b08 18bc ff25 3dbd 483a 92bd
000001a0: be80 b9bb d925 d03c a466 e4bc da2c febb
000001b0: 70fa 9bbd 1956 a53c e548 033d 79aa b9ba
000001c0: c1cd 5c3d e039 d2bd a057 06be 56cb f7bd
000001d0: 3596 c43b 827e a4bc df1a 353b 2a46 23bd
000001e0: b06b 4bbd f535 febc 2c00 f9bd 54b2 4e3d
000001f0: 62d6 d7bd 9df4 043d 1426 4dbd 2ffc f83d
00000200: 7e81 bcbc eb01 02be de5e cd3c 8160 6d3d
00000210: b177 833d 5794 fabc 1ca6 363d 8a80 a8bd
00000220: 8f7b dc3b 4407 81bd beae b63d 1b1f 87bc
00000230: 5117 0fbd 1077 553d 2f80 08be 032f a93c
00000240: 8d01 16bd bf69 04bd b79e aebd 2ca2 1abe
00000250: e55a c73d 1f94 dcbd d2df bb3d 986e 15be
00000260: a14f 403d aaa8 913d 970c c4bd 6db3 dabd
00000270: 74b4 c83b 07fb 9dbd e713 723d 6883 a23d
00000280: b2e4 93bd 9e6d 38be 63aa e8bc f910 99bc
00000290: 247c 0dbe 8edc f73d 285e 7a3c a780 703d
000002a0: 483c 82bd 5fe1 a83d 13e1 b8bd 3bf2 923d
000002b0: bea8 253d 1755 c7b9 ce9c 2bbe 0203 97bc
000002c0: 3b5a c0bd 7994 793d adcb e43b 0843 a73b
000002d0: 71ac 473d 9f03 053d 8d81 913c 73a3 09bd
000002e0: dca6 7bbd 00df 943d c734 38bd 8311 6c3d
000002f0: 93bf 25bd 124b 46be 7127 53bd e0f4 423d
00000300: 80a8 31be f12a fa3d ee65 98bd f195 09bc
00000310: 86b9 86bd 88af 0e3d c50c f5bd 753d c13d
00000320: 8d16 0f3e fef3 b33d a98a fabc d362 80bd
00000330: 6cca 89bd f9c6 02be 227a 84bd 1e0f f43d
00000340: b5c7 1b3d 96d2 9c3d 5e66 313d 3143 a83d
00000350: 79bc 473d 782d 1e3e 564d 4abe b0c8 923c
00000360: ac7e 08be 2e66 04be 53a7 30bd 9619 633b
00000370: 1f0c 943d 7c34 4bbb b255 ff3c 575e 3abd
00000380: 8cf6 a6bc 60c0 bd3c 0a22 b63c 8bdb bb3d
00000390: 5f87 80bd 87b7 04bd 11c7 08bd 528e 96bd
000003a0: f354 963c b1fe 48bd ba44 c6bb 8e10 1dbe
000003b0: b58a 7bbc 2be4 603c 7b39 b6bd 6020 cb3d
000003c0: 6da8 9a3c 7ebb ebbd 38fb 0fbe 8dc1 80bd
000003d0: 11c4 ea3c 37d4 eb3c bb3e 8ebd a13e b33c
000003e0: 4ae4 913d 0853 5d3c 3239 fcbd 1682 91bd
000003f0: 89d9 ffbd c4d1 5a3d 8db4 f0bb b753 a33c

fc2.bias f4 [32]
-0.046911575 -0.05275085 -0.14882687 -0.04616937 -0.28211576 0.010804209 0.023769662 -0.10899729
0.061693106 0.01765576 0.0059311334 0.003584269 0.10483107 -0.08993759 -0.126762 0.012541121
-0.08528436 -0.034262057 0.0054173307 -0.098344564 0.060212 -0.16845669 -0.065071605 -0.0419577
-0.11063641 0.06341399 -0.1470913 0.016049867 -0.16946034 -0.07899292 0.040967174 -0.101748355
00000000: 5a26 40bd 4611 58bd 1266 18be 181c 3dbd
00000010: 7a71 90be 2304 313c 98b8 c23c f939 dfbd
00000020: e9b1 7c3d d0a2 903c f459 c23b 0ee6 6a3b
00000030: acb1 d63d 3331 b8bd e6cd 01be 4679 4d3c
00000040: 91a9 aebd 5f56 0cbd dd83 b13b e068 c9bd
00000050: dca0 763d e97f 2cbe 4344 85bd d6db 2bbd
00000060: 5895 e2bd 32df 813d 1a9f 16be 037b 833c
00000070: 0387 2dbe 0ac7 a1bd 32cd 273d 7161 d0bd

fc3.weight f4 [16, 32]
0.121907696 0.10883882 -0.1309893 0.16588733 -0.028194577 0.09903934 -0.10779825 -0.05017078
0.01217711 0.10564921 0.063947365 -0.07416875 -0.12337038 0.056628592 0.0119541185 -0.0076396163
-0.04884646 -0.030872785 0.17938396 0.18084542 0.0050502974 -0.1655549 -0.042799048 0.1427725
-0.23268837 -0.026644783 0.043244094 -0.18921126 0.008451284 0.14107072 -0.03246246 -0.2531508
0.03623168 -0.0019262413 -0.014385411 0.080470614 -0.22744471 0.04938512 -0.23468943 -0.08590827
0.0014607849 -0.0011742936 0.0027909884 -0.20186192 -0.09463657 0.09150397 -0.010781559 0.110358
-0.017555388 0.09357193 0.0081359865 0.20684597 -0.050863553 -0.19621353 -0.11691701 0.15982391
-0.08134208 -0.12345325 0.023316322 -0.15206704 -0.19509876 0.093205824 0.027043948 -0.22602934
0.010899489 0.18686551 -0.10728249 0.05720222 -0.119803675 0.09428477 -0.1174188 -0.1244669
-0.12924638 0.065660916 0.12619416 -0.23466133 0.04444971 0.20961997 -0.010374136 0.12826464
-0.063518465 -0.021615034 0.1227983 0.050961897 0.03556102 0.07061462 -0.0651944 0.12762229
-0.069304846 -0.18120241 -0.12820156 -0.14778502 0.030155946 -0.058732316 0.05527137 -0.0250717
-0.19937637 0.049246076 0.13094455 -0.19936778 0.14199093 -0.15057567 0.055215884 0.029472113
0.09463783 -0.11722233 -0.20823781 0.1452943 0.12237969 -0.08264348 0.010840528 0.055324312
0.08056814 -0.055647478 -0.22931589 -0.08314168 -0.074241474 -0.023059448 0.037297376 -0.18754812
0.019023364 0.0035185593 -0.016743653 0.06190775 -0.15353292 -0.05479174 0.035370994 0.12663427
0.10067473 0.16381575 -0.0713575 -0.012655935 0.010630399 0.040408276 -0.23474959 -0.062389974
-0.0045920457 0.08632298 0.043810558 -0.10966444 -0.0153456675 0.007029811 -0.0062616244 0.0016868258
-0.04647102 0.14581233 0.1486111 0.1302783 -0.0031557507 -0.1937048 -0.08226077 0.08420632
-0.15874054 -0.17994006 -0.06554359 -0.11679772 0.054925118 0.18169825 -0.122212544 -0.08845735
-0.17298068 -0.0021168774 0.10377933 -0.05023288 0.05379726 0.04960876 0.13222009 0.058278117
0.07133167 -0.13003078 -0.19732736 0.016905226 -0.015116241 -0.10428726 0.04809682 -0.11247144
-0.08208225 -0.12717491 -0.17273952 -0.10425235 -0.13111956 0.010176901 -0.029310288 -0.1820873
0.14631349 -0.13452445 -0.06853176 0.15655588 -0.0793103 -0.12699857 0.07599698 0.004997106
-0.13089888 -0.075774886 0.018811647 -0.06836657 0.09337649 0.026741391 0.014094894 0.15994649
0.057925303 -0.09186824 -0.11515956 0.102034785 -0.10851734 -0.1459141 0.1741251 -0.040083442
0.094917476 -0.16004346 -0.042949695 -0.22239956 -0.11537773 -0.07770339 -0.040520187 -0.009188986
0.17246251 -0.08988796 -0.086846374 0.08620981 -0.13676561 -0.13176267 -0.1359658 0.07814266
0.13424167 0.05805462 -0.10305652 -0.07881309 -0.07861884 -0.03037724 -0.051419117 0.0061396295
0.061296426 0.11999313 0.14774674 0.015014597 -0.1716666 0.107931465 -0.024889834 -0.0061513917
-0.062785625 0.24546884 0.17566168 0.14518473 0.08331629 -0.012521769 -0.04582426 -0.046443626
-0.047139477 2.5425043e-05 -0.13317901 -0.1801516 0.090902865 0.094302915 0.04307973 -0.06321425
00000000: beaa f93d e3e6 de3d 0f22 06be 5ede 293e
00000010: 50f8 e6bc 23d5 ca3d 54c5 dcbd e07f 4dbd
00000020: 8082 473c 9d5e d83d d6f6 823d c9e5 97bd
00000030: 9ca9 fcbd 62f3 673d 35db 433c bf55 fabb
00000040: 3a13 48bd ece8 fcbc 6eb0 373e 8b2f 393e
00000050: f77c a53b 3987 29be 0e4e 2fbd f432 123e
00000060: dc45 6ebe 2946 dabc b820 313d 99c0 41be
00000070: 4177 0a3c d874 103e 5bf7 04bd fb9c 81be
00000080: ac67 143d ef79 fcba c9b0 6bbc c7cd a43d
00000090: 44e7 68be 0d48 4a3d 6d52 70be adf0 afbd
000000a0: cf77 bf3a c1ea 99ba 04e9 363b e4b4 4ebe
000000b0: d1d0 c1bd 6f66 bb3d 23a5 30bc 6003 e23d
000000c0: 51d0 8fbc a4a2 bf3d cd4c 053c 6ecf 533e
000000d0: 4d56 50bd 33ec 48be 2f72 efbd e1a8 233e
000000e0: ad96 a6bd 0fd5 fcbd df01 bf3c 76b7 1bbe
000000f0: f8c7 47be b2e2 be3d 458b dd3c 3c74 67be
00000100: c593 323c ac59 3f3e ecb6 dbbd e04c 6a3d
00000110: a15b f5bd 6018 c13d 4579 f0bd 81e8 febd
00000120: 2a59 04be 3b79 863d 0b39 013e 0f4b 70be
00000130: e610 363d 9ea6 563e 48f8 29bc ce57 033e
00000140: f815 82bd 0312 b1bc ad7d fb3d 6cbd 503d
00000150: 6fa8 113d 669e 903d a484 85bd 6baf 023e
00000160: b3ef 8dbd 208d 39be 4547 03be f554 17be
00000170: 9a09 f73c 4c91 70bd 3b64 623d 2a63 cdbc
00000180: 5229 4cbe 41b6 493d 5416 063e 1127 4cbe
00000190: 1266 113e 8230 1abe 0d2a 623d 806f f13c
000001a0: 7bd1 c13d 4312 f0bd 4b3c 55be 07c8 143e
000001b0: 34a2 fa3d fc40 a9bd 789c 313c bf9b 623d
000001c0: e900 a53d 9cee 63bd c9d1 6abe 2f46 aabd
000001d0: ea0b 98bd 2be7 bcbc 22c5 183d 9d0c 40be
000001e0: e3d6 9b3c a197 663b fc29 89bc fb92 7d3d
000001f0: bc37 1dbe 4e6d 60bd 2de1 103d 6aac 013e
00000200: 8e2e ce3d 51bf 273e e223 92bd d75a 4fbc
00000210: 202b 2e3c 2683 253d 3262 70be a18c 7fbd
00000220: df78 96bb 1aca b03d b372 333d c097 e0bd
00000230: 656c 7bbc 545a e63b 502e cdbb 7b18 dd3a
00000240: 6558 3ebd d44f 153e 822d 183e ad67 053e
00000250: b6d0 4ebb 8d5a 46be 5678 a8bd 5d74 ac3d
00000260: e18c 22be 3542 38be b83b 86bd a533 efbd
00000270: 29f9 603d 1b0f 3a3e 924a fabd 2129 b5bd
00000280: d921 31be 4fbb 0abb 428a d43d fec0 4dbd
00000290: 845a 5c3d 8e32 4b3d b464 073e 09b5 6e3d
000002a0: 5716 923d ca26 05be 2f10 4abe d47c 8a3c
000002b0: 1caa 77bc 8f94 d5bd 2c01 453d 6d57 e6bd
000002c0: bd1a a8bd 243a 02be a1e2 30be 4282 d5bd
000002d0: 3544 06be 04bd 263c 211c f0bc 1875 3abe
000002e0: 34d3 153e c7c0 09be 615a 8cbd 2f50 203e
000002f0: 706d a2bd ea0b 02be 4ea4 9b3d c3be a33b
00000300: 5b0a 06be dd2f 9bbd e21a 9a3c c603 8cbd
00000310: 2c3c bf3d c310 db3c 45ee 663c 03c9 233e
00000320: 1543 6d3d 6a25 bcbd c7d8 ebbd 9df7 d03d
00000330: 573e debd 816a 15be da4d 323e 892e 24bd
00000340: 1864 c23d 6fe2 23be 05ec 2fbd b6bc 63be
00000350: 294b ecbd f422 9fbd 7ff8 25bd 678d 16bc
00000360: 039a 303e 2e17 b8bd 83dc b1bd c58e b03d
00000370: 490c 0cbe cbec 06be 9e3a 0bbe 4209 a03d
00000380: a676 093e aeca 6d3d 4c0f d3bd c268 a1bd
00000390: ea02 a1bd b1d9 f8bc da9c 52bd f22e c93b
000003a0: f611 7b3d f5be f53d ec4a 173e c9ff 753c
000003b0: 5fc9 2fbe 2c0b dd3d c4e5 cbbc 9d91 c9bb
000003c0: c095 80bd 2f5c 7b3e a8e0 333e 4eab 143e
000003d0: bba1 aa3d 1b28 4dbc 38b2 3bbd ac3b 3ebd
000003e0: 5315 41bd dd47 d537 1460 08be a979 38be
000003f0: 482b ba3d e321 c13d 5f74 303d 7976 81bd

fc3.bias f4 [16]
0.03746712 0.045444764 0.055733733 -0.004904509 -0.018125305 -0.07255847 -0.009589981 0.16785344
0.01699372 -0.02831073 0.07688703 0.103794105 -0.05804779 0.12669024 0.020147648 0.08600099
00000000: 1f77 193d 4a24 3a3d 0e49 643d 01b6 a0bb
00000010: 857b 94bc 8999 94bd 4c1f 1dbc c6e1 2b3e
00000020: 6a36 8b3c e7eb e7bc f276 9d3d 0192 d43d
00000030: 85c3 6dbd 16bb 013e ae0c a53c 4921 b03d

fc4.weight f4 [2, 16]
0.2426195 -0.0660667 0.07698903 -0.06685457 0.05486591 -0.19409624 -0.0862687 -0.009218175
-0.106454946 0.050115682 0.02259841 -0.056152463 -0.00038438116 0.26905492 -0.13148692 0.08337968
0.120478824 -0.17930526 -0.031866796 0.024397386 -0.057413902 -0.10636906 0.0156116765 -0.12213469
0.0044501475 0.14198743 -0.10639634 -0.16161919 -0.11588241 0.17215253 -0.045496345 0.16777869
00000000: 3f71 783e fa4d 87bd 6dac 9d3d 0ceb 88bd
00000010: 14bb 603d 2ac1 46be a5ad b0bd d407 17bc
00000020: 0d05 dabd 1a46 4d3d 4d20 b93c 2000 66bd
00000030: c486 c9b9 91c1 893e 82a4 06be f7c2 aa3d
00000040: 9abd f63d cc9b 37be c286 02bd 07dd c73c
00000050: d72a 6bbd 06d8 d9bd 1ec8 7f3c c121 fabd
00000060: 8bd2 913b 2765 113e 53e6 d9bd 807f 25be
00000070: c253 edbd c148 303e 605a 3abd 2dce 2b3e

fc4.bias f4 [2]
0.2214156 -0.0013739782
00000000: c5ba 623e 0f17 b4ba

batch_norm1.weight f4 [64]
1.0394771 1.0379789 1.0612593 1.0160052 0.9428438 0.90425974 1.0283573 0.9436093
1.0459037 0.9530139 0.93382007 1.0291653 0.9054357 1.0660425 1.0405314 0.966382
1.0194111 1.0008959 0.99886644 1.0095507 0.9298036 1.0354947 1.0096173 0.98908955
1.0264091 0.94767773 1.0437368 0.98719156 0.9489879 0.9238998 1.0333184 1.0720036
0.9461012 1.1811918 0.9389642 0.97822726 1.0046475 0.9899057 1.0128204 1.0149707
0.9996099 1.054614 0.9672155 0.9998679 0.9993413 0.8717406 1.0006976 0.86941326
1.0010144 1.0124202 1.0245299 0.9686792 0.89535135 1.0407329 0.97675955 1.0204519
1.0128914 1.0441425 1.0228007 0.8848542 1.0729606 1.0410148 0.9719524 0.923283
00000000: 960d 853f 7edc 843f 58d7 873f 750c 823f
00000010: 365e 713f 917d 673f 36a1 833f 6190 713f
00000020: 2ce0 853f b8f8 733f d50e 6f3f b0bb 833f
00000030: a2ca 673f 1574 883f 2230 853f d064 773f
00000040: 107c 823f 5b1d 803f b6b5 7f3f f538 813f
00000050: 9c07 6e3f 178b 843f 243b 813f f934 7d3f
00000060: 6061 833f 029b 723f 2b99 853f 96b8 7c3f
00000070: dff0 723f b384 6c3f c743 843f 6a37 893f
00000080: b033 723f 4b31 973f f55f 703f 1a6d 7a3f
00000090: 4a98 803f 766a 7d3f 19a4 813f 8fea 813f
000000a0: 6fe6 7f3f 97fd 863f 6f9b 773f 58f7 7f3f
000000b0: d5d4 7f3f 642a 5f3f dc16 803f de91 5e3f
000000c0: 3d21 803f fc96 813f cc23 833f 5cfb 773f
000000d0: bf35 653f bc36 853f ea0c 7a3f 2b9e 823f
000000e0: 6da6 813f 76a6 853f 22eb 823f ce85 623f
000000f0: c656 893f f93f 853f dfd1 783f 465c 6c3f

batch_norm1.bias f4 [64]
0.051327027 -0.034172934 -0.035929635 0.09960228 0.032276925 -0.092549086 0.1363846 0.10014262
-0.08725225 -0.06998069 -0.038212884 -0.090598896 -0.030966133 0.12526174 0.10483421 0.033119228
0.18382038 -0.031755473 0.1339325 0.036372356 -0.10125773 0.06212135 0.03356207 0.07885902
-0.02217917 0.06812471 0.010380101 0.13845722 0.13194007 -0.0044060205 0.05319275 -0.025454015
0.0044020102 0.18101439 0.089085825 -0.0950256 0.14613426 -0.06864141 0.122345105 0.13779011
0.1546031 -0.06477121 0.13957791 0.03407418 0.0071018743 -0.03428321 0.09176195 -0.0911125
0.09062901 0.026944833 0.10397062 0.091225974 -0.13832983 0.1753317 0.036122035 0.15511656
0.16513409 -0.0702425 0.07235414 -0.13635062 0.12424711 0.07021469 0.13384427 -0.11254577
00000000: 4a3c 523d ebf8 0bbd f42a 13bd 48fc cb3d
00000010: cf34 043d 608a bdbd 68a8 0b3e 9317 cd3d
00000020: 4fb1 b2bd 0952 8fbd 1d85 1cbd ea8b b9bd
00000030: b0ac fdbc 9d44 003e 51b3 d63d 07a8 073d
00000040: 693b 3c3e 0712 02bd 9a25 093e 2efb 143d
00000050: 3660 cfbd f572 7e3d 6278 093d d680 a13d
00000060: 17b1 b5bc f884 8b3d 4d11 2a3c bbc7 0d3e
00000070: 4c1b 073e 6160 90bb a4e0 593d f084 d0bc
00000080: bd3e 903b d65b 393e a172 b63d c89c c2bd
00000090: 38a4 153e de93 8cbd 1290 fa3d da18 0d3e
000000a0: 4650 1e3e c5a6 84bd 83ed 0e3e 5e91 0b3d
000000b0: d7b6 e83b 8d6c 0cbd b0ed bb3d 3199 babd
000000c0: b49b b93d 69bb dc3c 8cee d43d afd4 ba3d
000000d0: 56a6 0dbe 278a 333e b3f4 133d e0d6 1e3e
000000e0: e918 293e 4ddb 8fbd 682e 943d 7f9f 0bbe
000000f0: 4575 fe3d b8cc 8f3d 790e 093e 667e e6bd

batch_norm1.running_mean f4 [64]
0.082701534 0.015404958 0.02540519 0.07019128 0.16043158 0.21536022 0.032926656 0.033923194
0.020737356 0.102726355 0.104011744 0.06808313 0.15080981 0.09541862 0.09394295 0.11198596
0.077700794 0.031331245 0.11631264 0.037502475 0.06960179 0.041295025 0.016851725 0.029861424
0.043170758 0.09367839 0.08834243 0.16555856 0.1532459 0.45948112 0.13346376 0.01679838
0.07096149 0.03519729 0.20167893 0.07216668 0.088370554 0.027515844 0.041931834 0.19222659
0.11487529 0.022226203 0.04496414 0.10970737 0.118253745 0.24351737 0.07714677 0.07568204
0.09944947 0.054646116 0.07113186 0.070158996 0.15866494 0.17341696 0.105477296 0.08986191
0.11784237 0.030861005 0.17255634 0.14563754 0.07554326 0.036319405 0.27344692 0.10696504
00000000: 6c5f a93d 1465 7c3c 8c1e d03c 72c0 8f3d
00000010: 2d48 243e 6487 5c3e 1ade 063d 0cf3 0a3d
00000020: 63e1 a93c 3262 d23d 1c04 d53d 2b6f 8b3d
00000030: e36d 1a3e d66a c33d 2965 c03d e558 e53d
00000040: 9821 9f3d 3155 003d 5235 ee3d 329c 193d
00000050: 628b 8e3d f924 293d a10c 8a3c f29f f43c
00000060: d2d3 303d 75da bf3d e0ec b43d 2f88 293e
00000070: 7eec 1c3e 1c41 eb3e b9aa 083e c29c 893c
00000080: 4254 913d 092b 103d ec84 4e3e 20cc 933d
00000090: 9ffb b43d e868 e13c b7c0 2b3d 0cd7 443e
000000a0: bc43 eb3d ba13 b63c 512c 383d 42ae e03d
000000b0: 052f f23d 9e5c 793e 20ff 9d3d 2fff 9a3d
000000c0: 2aac cb3d 9bd4 5f3d 95ad 913d 85af 8f3d
000000d0: 1079 223e 3794 313e 7b04 d83d 8509 b83d
000000e0: 5757 f13d 38d0 fc3c 9cb2 303e 0222 153e
000000f0: 6db6 9a3d a8c3 143d 3c01 8c3e 7d10 db3d

batch_norm1.running_var f4 [64]
0.078206375 0.009382962 0.0096766995 0.047975264 0.27466676 0.38907298 0.027261147 0.01698856
0.011371404 0.106579475 0.14361328 0.055553216 0.11721547 0.10550834 0.15570106 0.11901993
0.06078686 0.027531981 0.10402387 0.02357575 0.054004546 0.017999332 0.0070997365 0.012403065
0.025352355 0.06289276 0.11116368 0.16970804 0.20130184 2.5820215 0.12966381 0.007919842
0.07555361 0.016497282 0.6591912 0.062999524 0.04982481 0.011460758 0.026562152 0.23174717
0.16706266 0.015332627 0.023882132 0.0800978 0.1410663 0.44690156 0.054100703 0.05281517
0.10127052 0.030374765 0.04176379 0.04534025 0.15100539 0.46114153 0.0831482 0.12477116
0.08141826 0.017344138 0.29716736 0.1494356 0.097979255 0.017303169 0.9711897 0.10159602
00000000: aa2a a03d ffba 193c 058b 1e3c b681 443d
00000010: 1fa1 8c3e 9334 c73e c552 df3c 982b 8b3c
00000020: 204f 3a3c 5746 da3d 5c0f 133e c58b 633d
00000030: aa0e f03d c214 d83d 1970 1f3e b9c0 f33d
00000040: a4fb 783d c08a e13c 770a d53d ee21 c13c
00000050: df33 5d3d 5673 933c e8a4 e83b 3a36 4b3c
00000060: beaf cf3c ebcd 803d c9a9 e33d f2c7 2d3e
00000070: 1222 4e3e d73f 2540 97c6 043e 3ac2 013c
00000080: dabb 9a3d 4f25 873c c1c0 283f e505 813d
00000090: 1a15 4c3d e7c5 3b3c df98 d93c 214f 6d3e
000000a0: 7912 2b3e b335 7b3c 76a4 c33c 510a a43d
000000b0: af73 103e 48d0 e43e b398 5d3d b854 583d
000000c0: eb66 cf3d 80d4 f83c 8210 2b3d b3b6 393d
000000d0: 28a1 1a3e be1a ec3e 9a49 aa3d 0688 ff3d
000000e0: 9ebe a63d 4b15 8e3c 5226 983e a505 193e
000000f0: 59a9 c83d 60bf 8d3c e39f 783f 9311 d03d

batch_norm2.weight f4 [32]
1.0860766 1.0118341 1.0586023 1.0614415 1.0488532 0.867288 1.1172993 1.0056916
0.87372804 0.9029859 1.1143067 0.9879771 0.9216584 1.0516578 0.9642448 0.94103014
0.981791 1.0722246 1.0307606 1.0426822 0.8587566 0.9360557 0.9623756 1.0228326
1.0824625 0.95963085 0.89554363 1.0760964 0.9416009 1.1126977 0.8102483 1.0395784
00000000: 8f04 8b3f c883 813f 4880 873f 51dd 873f
00000010: d240 863f 9606 5e3f aa03 8f3f 81ba 803f
00000020: a4ac 5f3f 152a 673f 9aa1 8e3f 11ec 7c3f
00000030: cef1 6b3f b99c 863f bfd8 763f 5ae7 703f
00000040: a856 7b3f a83e 893f f7ef 833f 9c76 853f
00000050: 79d7 5b3f 59a1 6f3f 3f5e 763f 2eec 823f
00000060: 228e 8a3f 5eaa 753f 5942 653f 87bd 893f
00000070: c20c 713f e16c 8e3f 6f6c 4f3f e810 853f

batch_norm2.bias f4 [32]
0.036481842 0.07068581 0.0008298531 0.008998908 0.008292586 0.009341903 -0.024839822 -0.0057390123
0.049879577 0.05779328 0.040928658 -0.038297243 -0.006204728 -0.006040307 0.06590149 0.035831343
-0.029250098 0.0046127257 0.05041985 0.11169177 -0.055960678 -0.10617265 0.03779157 0.028480813
-0.053747986 -0.04353654 0.019630637 -0.021777598 0.019996215 0.09589764 -0.024659554 -0.030736577
00000000: fc6d 153d b9c3 903d 808a 593a 2870 133c
00000010: a0dd 073c c80e 193c e27c cbbc 530e bcbb
00000020: 874e 4c3d a5b8 6c3d cfa4 273d 92dd 1cbd
00000030: 0851 cbbb c5ed c5bb 5cf7 863d e3c3 123d
00000040: e79d efbc 5926 973b 0b85 4e3d a8be e43d
00000050: 0637 65bd 0c71 d9bd 55cb 1a3d 9850 e93c
00000060: d926 5cbd 5f53 32bd 6ed0 a03c ef66 b2bc
00000070: 1acf a33c fb65 c43d d502 cabc 46cb fbbc

batch_norm2.running_mean f4 [32]
0.23872866 0.16788746 0.13552591 0.26599658 0.079545215 0.30296645 0.23809367 0.14744918
0.23516513 0.2655936 0.21019223 0.23353252 0.36688122 0.19712327 0.1408955 0.21602234
0.16317019 0.22374874 0.17452767 0.1760135 0.30606094 0.29402956 0.19252627 0.18546659
0.18659388 0.3805024 0.18039039 0.21980074 0.20017028 0.1514482 0.22647172 0.18074341
00000000: 4975 743e b1ea 2b3e 4ec7 0a3e b430 883e
00000010: 9ae8 a23d 6b1e 9b3e d4ce 733e ebfc 163e
00000020: 21cf 703e e2fb 873e a23c 573e 2623 6f3e
00000030: dbd7 bb3e afda 493e e946 103e f634 5d3e
00000040: 1616 273e 641e 653e 62b7 323e e23c 343e
00000050: 05b4 9c3e 0b8b 963e 9b25 453e f4ea 3d3e
00000060: 7712 3f3e 36d1 c23e 42b8 383e 7213 613e
00000070: 70f9 4c3e 3d15 1b3e 34e8 673e cd14 393e

batch_norm2.running_var f4 [32]
0.41025105 0.31988865 0.2924704 0.4429584 0.17106651 0.65351427 0.52505827 0.40879804
0.49233258 0.7140641 0.32350975 0.49779302 0.8369639 0.31476834 0.2365329 0.44241524
0.30080658 0.37366617 0.28839153 0.25739273 0.36445373 0.89238256 0.30687043 0.31311247
0.42999196 0.7277345 0.2679321 0.57629865 0.63333374 0.19968422 0.30722412 0.35040963
00000000: 6d0c d23e 72c8 a33e aebe 953e 72cb e23e
00000010: 0f2c 2f3e b64c 273f 386a 063f fa4d d13e
00000020: 0413 fc3e e8cc 363f 12a3 a53e bade fe3e
00000030: 4443 563f 5129 a13e ae35 723e 4084 e23e
00000040: 5203 9a3e 2c51 bf3e 0ea8 933e fbc8 833e
00000050: ae99 ba3e 2f73 643f 1f1e 9d3e 4750 a03e
00000060: e827 dc3e cf4c 3a3f 652e 893e 4f88 133f
00000070: 2922 223f 057a 4c3e 7b4c 9d3e e468 b33e

batch_norm3.weight f4 [16]
1.019658 1.0273386 0.9846799 0.88679713 0.95672095 0.9955386 0.8687612 0.8997871
0.9720943 0.97098845 0.9029886 1.0082643 0.9518949 1.0282807 1.0023887 0.9468684
00000000: 2784 823f d57f 833f fb13 7c3f 2305 633f
00000010: aaeb 743f 9edb 7e3f 2267 5e3f 7358 663f
00000020: 2cdb 783f b392 783f 432a 673f ce0e 813f
00000030: 62af 733f b49e 833f 464e 803f f865 723f

batch_norm3.bias f4 [16]
0.2136248 0.11946277 -0.10377888 -0.11945338 0.14266212 0.08125403 -0.12504372 0.11846256
-0.12305006 -0.11367832 0.122455485 0.15276702 0.11703189 0.143744 0.08339433 -0.12160784
00000000: 76c0 5a3e e6a8 f43d 058a d4bd f9a3 f4bd
00000010: 0516 123e 8368 a63d 760b 00be 809c f23d
00000020: ab01 fcbd 2ed0 e8bd f1c9 fa3d f56e 1c3e
00000030: 6aae ef3d a131 133e a6ca aa3d 880d f9bd

batch_norm3.running_mean f4 [16]
0.48556736 0.486753 0.43432736 0.359907 0.46188664 0.27416864 0.3418382 0.449049
0.47314143 0.35041523 0.37498215 0.50658095 0.30351132 0.4996085 0.39995262 0.34786656
00000000: 499c f83e b037 f93e 2860 de3e bb45 b83e
00000010: 687c ec3e d55f 8c3e 6b05 af3e c0e9 e53e
00000020: 983f f23e a069 b33e a9fd bf3e 4aaf 013f
00000030: d665 9b3e afcc ff3e 97c6 cc3e 911b b23e

batch_norm3.running_var f4 [16]
1.7326591 1.1385899 1.129999 0.7996067 1.5108455 0.63528436 0.9063226 1.4417006
1.6748005 0.9791259 0.9227651 1.4116037 1.1565796 1.5259027 0.9964093 1.1048665
00000000: c6c7 dd3f 50bd 913f cfa3 903f 06b3 4c3f
00000010: 6363 c13f ffa1 223f c204 683f a589 b83f
00000020: dd5f d63f ffa7 7a3f 553a 6c3f 6eaf b43f
00000030: cd0a 943f c850 c33f ae14 7f3f 446c 8d3f
