backend/data/turbomode_models_old_3classDONT _USE/pytorch_nn/model.pt (torch, 142171 bytes, 20 tensors)

fc1.weight f4 [128, 176]
00000000: 18f3 903d 5cde 6dbc da3a 2a3d ca4f 0e3d
00000010: 668c cabc f43a 093d 2a46 7abd c090 333d
00000020: e557 b53d 5fff dd3d e57e e43e 8404 e3bc
00000030: 6ce7 743c 1f3c 07bf 0562 00bd 86c8 68bd
00000040: 15b1 80be f62f a1bc fa7a 42bd 60d8 bebb
00000050: c85a fa3c 9a3c b33e d626 0a3d 4091 ad3c
00000060: 4aea 843d 49df 3dbd 770f f9bc 3861 d13d
00000070: b632 c8bc 00cc 153d 1d59 893d bf80 b73d
00000080: 500d 10bd 92f3 f4ba 2949 213c a884 233c
00000090: 325f 283d 7bc7 e03d 186d cdbc bfeb a93d
000000a0: 7fb7 a83d 8ff6 98bd 4055 293d 3a6e 333d
000000b0: 4cc0 753d e052 303c e643 d93d 143a 503d
000000c0: 0870 ed3d ee21 043d a2f1 1cbe 7c7d 4fbe
000000d0: 8861 6e3d d292 10bd 9719 98bd f34f 5dbc
000000e0: 4bae 093e b8db 593d 905b 3dbd 4b45 80bd
000000f0: 09d8 fabc 5437 8a3c bc96 17bd aef2 1fbd
00000100: 7aff 98bc 8893 4dbd 0033 da3b e0f2 0dbd
00000110: 4a3a 033d 8050 543b 98d1 973d 5cb1 733d
00000120: 4c00 c7bc e6c6 45bd 251a 76bd 625d 60bd
00000130: d135 50be 442d eebc 7ebd 10bd 1f7a ddbe
00000140: e17c 28bc 5828 0c3e b219 913e 6261 97be
00000150: 9c2c 2f3d 5c14 91bd 2048 933d b8dd 10bc
00000160: 762f 0abd f060 543d 6c8c 59bc 7217 8d3d
00000170: c8f5 2e3d b037 ffbb abb5 663e 141e fa3e
00000180: 6cfa 793d 0953 713d 6818 233d e0df 2bbc
00000190: 7b51 2bbe f58d 99bd e1bf 543d 0f23 52bf
000001a0: 511a d13d be96 eebc 342e 27be e0b0 233e
000001b0: 02b6 d7bc fc43 9dbc d6ac 4bbd 242c 533d
000001c0: 5811 89bd c8be 923c 6017 a23c 3710 13bd
000001d0: 18d2 a6bc 1944 913d 4692 f8bd fe15 7bbd
000001e0: 3994 953e 23e8 ae3d 98af 9dbc 4a66 b63e
000001f0: a67d fb3d 18f1 a2be ffc0 5bbe 5f2e 48be
00000200: 3211 343e 8ae0 193d d899 94bd 2867 40bd
00000210: 8e22 0d3d 249e 843c f432 443d bc61 4abd
00000220: 09b5 bdbc a30c 1abe 596b 623d 28ae 263c
00000230: 7060 633d 6b57 8bbd 10ba 663c b0d7 893b
00000240: bee2 263d da91 9a3d 9e29 713d a483 183d
00000250: b2e1 c4bc 185d f93c 80b0 4c3a 8c6e 8b3d
00000260: 8287 3ebe 1f16 6ebc 649b 683e 8ffa 69be
00000270: d646 d0be 69b8 d93d f14c 4d3d 26fa 07bc
00000280: 791f 32bd a22d 373c 585a babd 402f 87bd
00000290: 0b4d 473e d0e8 2abc c835 bd3d 8874 a2bc
000002a0: 0629 95bd 846a 92bc 8805 ce3c 38b9 52bc
000002b0: 2433 6c3d 225e 8f3d fc46 c83e e0ff 803f
000002c0: 502e af3c 8688 82bd 3dd4 49bd 7889 f53c
000002d0: 90af 4d3d b094 4e3c 0019 95ba 4487 6e3d
000002e0: 0401 9b3d ba95 c1bb 24f0 1d3d 0ccb 533d
000002f0: 00f8 cd3d 0053 b83e 3081 943b 50be 3abd
00000300: 18f5 64be 300b febb b824 3abd 5457 673d
00000310: 20bb 8abb 63a1 e43c 6021 8dbd d092 fd3c
00000320: f8db 8a3d 3042 aebb 6738 a03d 1506 4c3d
00000330: 04ab 27bd 7dad bb3d dc58 bbbd f86a 363b
00000340: ce36 68be 1953 373d 2bc0 2cbc 7a84 3a3d
00000350: a558 5bbd 4298 513d 2f21 4f3c 47b1 a63d
00000360: 498c f63c 14a2 8cbc 5843 5c3c 9837 de3c
00000370: 4aa4 333d 0804 8d3c bfec f1be 2f0d 7ebd
00000380: 6318 9b3b 609d 6a3e 30ae 1b3d 5378 823d
00000390: 900c 3bbd 2033 6e3d 78f7 573d 2a91 ef3d
000003a0: 148e 683d 5851 5d3c 2b6f 7fbd dc33 7e3d
000003b0: 0f8c 31bf 1ee2 0e3f 3679 45bd 1ca6 efbd
000003c0: 64a4 d6bc 86c4 343d b454 8b3d 4048 91bd
000003d0: a4a9 8d3d f8db 32bc c43a 3ebd fc63 5fbd
000003e0: b14b 89bd b684 78bd 909b 30bc c865 4d3d
000003f0: 3f1f 023e f1c0 91bd 9ce1 11bd 861f 2cbe
0.070776165 -0.014518347 0.04156003 0.03474406 -0.02472515 0.033503488 -0.06110207 0.043839216
0.08854655 0.10839724 0.44628063 -0.027712114 0.014947753 -0.5282611 -0.03134348 -0.05683186
-0.25135103 -0.01967619 -0.04748056 -0.0058241338 0.030560866 0.35007173 0.033728443 0.021187425
0.064899996 -0.04635552 -0.030402882 0.10223621 -0.024438243 0.036571503 0.0670645 0.08960103
-0.035168946 -0.0018688312 0.009844103 0.009980358 0.04110641 0.10975548 -0.025076434 0.08296918
0.08238124 -0.07468902 0.041341066 0.043806292 0.05999784 0.010761946 0.10608654 0.050836638
0.11593634 0.03225892 -0.1532655 -0.20262712 0.05819848 -0.03529627 -0.07426756 -0.013507831
0.13445394 0.053188056 -0.0462299 -0.062632166 -0.030620592 0.016872086 -0.037008986 -0.039049797
-0.018676508 -0.050189525 0.0066589117 -0.03465545 0.03203801 0.0032396615 0.07413024 0.059495315
-0.024292134 -0.048285387 -0.060083527 -0.054776557 -0.2033303 -0.029074319 -0.035336964 -0.43257234
-0.01028368 0.13687265 0.28339916 -0.29566485 0.042767152 -0.07083961 0.07191491 -0.008841924
-0.03373667 0.05185026 -0.013278108 0.068892375 0.042714864 -0.007788621 0.22530238 0.48851073
0.061029837 0.05891708 0.039818197 -0.010490388 -0.16730301 -0.07497779 0.051940802 -0.82084745
0.102100976 -0.029124614 -0.16326219 0.15985441 -0.026331905 -0.019197457 -0.049725376 0.051555768
-0.06692761 0.017913237 0.019786537 -0.035904136 -0.020363852 0.07093067 -0.121372744 -0.06130027
0.29214647 0.0854037 -0.019248769 0.35624915 0.12279825 -0.31824565 -0.21460341 -0.19548939
0.17584684 0.037567653 -0.07255906 -0.046973377 0.034456782 0.016188689 0.047900155 -0.049409613
-0.023157613 -0.15043883 0.055278156 0.010173358 0.05551189 -0.06803783 0.014082447 0.00420662
0.040743582 0.0754735 0.05887758 0.037234917 -0.024033401 0.030439898 0.0007808283 0.068081945
-0.1860638 -0.014531641 0.22715527 -0.22849487 -0.40679044 0.106308766 0.050122205 -0.008299386
-0.043487046 0.011180313 -0.09099263 -0.06600809 0.19462983 -0.010431483 0.092387736 -0.019830957
-0.07283215 -0.017873056 0.025149122 -0.012861542 0.05766596 0.07000376 0.39116657 1.0078087
0.021384388 -0.06373696 -0.04927467 0.029972777 0.050216258 0.012608692 -0.0011375248 0.058234468
0.07568553 -0.0059077414 0.038559094 0.051707312 0.10057068 0.36000824 0.004532002 -0.045591652
-0.22359121 -0.0077527985 -0.045445174 0.056479767 -0.004233733 0.027908986 -0.068911314 0.030953795
0.06780237 -0.0053179488 0.07823258 0.049810488 -0.040934578 0.0916395 -0.09147808 0.0027834754
-0.22677156 0.044756982 -0.010543863 0.045536496 -0.053551335 0.051170595 0.012642189 0.08139282
0.03009619 -0.017167129 0.01344379 0.027126119 0.04385785 0.017213836 -0.47250935 -0.06202429
0.0047331317 0.22911596 0.038007915 0.06370606 -0.045666277 0.058154225 0.05272624 0.1169761
0.05677612 0.013508163 -0.062361877 0.062061176 -0.6935434 0.5581378 -0.0482113 -0.11701605
-0.026201434 0.04413273 0.06803265 -0.07093859 0.06917122 -0.010916702 -0.046442762 -0.054538712
-0.0670389 -0.060673438 -0.0107792765 0.050145894 0.12707232 -0.07116879 -0.03561555 -0.168089

fc1.bias f4 [128]
00000000: d3e0 5bbf 325e eabf 6bf6 afbf 72d0 68bf
00000010: c454 89bf 81c3 44bf 8b6a 14bf 4048 23bf
00000020: f959 f3be 0a8d a3bf 9ea4 29bf 8d60 9dbf
00000030: ba70 9bbf a95d 0fbf 4028 86bf 679b 48bf
00000040: bee4 71bf 0acc cabf 6599 b1bf cf48 00c0
00000050: 6165 05bf abc8 60bf c6d9 8dbf 24f6 6ebf
00000060: 3950 84bf da73 aabf a898 bebf 7fbb 78bf
00000070: cf02 1fbf 0b8b 56bf c386 b0bf bdf5 c1bf
00000080: 7c26 9dbf 4e35 adbf 35b5 73bf 7721 a8bf
00000090: 1f4c 04bf 0822 35bf 7d7a a5bf 5cf3 b1bf
000000a0: 6beb c8bf 4afb c4bf 8810 90bf 5985 88bf
000000b0: 2614 7fbf 8763 d2bf 2521 b1bf 7ec8 16bf
000000c0: 2b35 98bf d2b9 21bf 9945 bfbf 8a7f 72bf
000000d0: 9863 4dbf 7b1a 79bf c551 a7bf 59f6 b6bf
000000e0: 0fe3 86bf 9074 acbf 2777 9fbf 4947 c1bf
000000f0: d69c 32bf 8f97 3dbf 46f4 b5bf 80e4 a8bf
00000100: a3be 97bf cc6e ddbe 721d 5ebf d633 c0bf
00000110: 8f36 bdbf f2ac a6bf a111 85bf 1d20 97bf
00000120: de52 9ebf 2428 aabf 60f4 7cbf 142a 40bf
00000130: 0791 a1bf bb91 94bf aaef 8bbf e4ce 5dbf
00000140: 21a2 a3bf e675 acbf 22c6 67bf 72e8 adbf
00000150: ad7c 59bf fdf0 a5bf 026a b8bf 5986 91bf
00000160: 2337 9fbf 0601 aebf a153 7ebf 1030 5cbf
00000170: 64d8 f8be f923 b5bf 140e 8bbf fb7f c9bf
00000180: f7ba b1bf 64e8 9abf 221b 71bf ddcd bfbf
00000190: 97f6 9abf 2bf8 72bf dd96 8cbf 16fc a3bf
000001a0: 9c1e 8bbf d7c5 0ebf 6b6b 02c0 2c9e 01bf
000001b0: 5c37 81bf e897 adbf 8a3c 81bf 14a0 b4bf
000001c0: dbed 67be 0b9b 79bf 9938 6ebf a74b 77bf
000001d0: 9611 c0bf a2a3 41bf 5cca 8dbf 84aa abbf
000001e0: 149b 72bf e15e 86bf d932 a2bf 30cb 28bf
000001f0: 1ba4 43bf 46d8 43bf 7a7f 88bf a968 66bf
-0.8588993 -1.8309996 -1.3747076 -0.9094306 -1.0728993 -0.76860815 -0.5797507 -0.6378212
-0.4752958 -1.2777417 -0.6626681 -1.229509 -1.2143776 -0.5600229 -1.0481033 -0.78362125
-0.9448966 -1.5843518 -1.3874937 -2.004444 -0.52107817 -0.87806195 -1.1082084 -0.9334433
-1.0336982 -1.3316605 -1.4890337 -0.97161096 -0.6211366 -0.8380591 -1.3791126 -1.5153118
-1.227737 -1.3531892 -0.95198375 -1.3135213 -0.5167865 -0.7075505 -1.2928005 -1.3902392
-1.5696844 -1.5389187 -1.1255045 -1.0665694 -0.9964012 -1.6436623 -1.383824 -0.58899677
-1.1891226 -0.63174164 -1.4943115 -0.9472586 -0.80230093 -0.9730603 -1.3071829 -1.4293929
-1.0538043 -1.3473072 -1.2458237 -1.509988 -0.6977056 -0.74059385 -1.4215171 -1.3194733
-1.1855053 -0.43248594 -0.8676368 -1.5015819 -1.4782275 -1.3021529 -1.0396005 -1.1806675
-1.2369039 -1.32935 -0.98810387 -0.75064206 -1.2622384 -1.1606973 -1.0932515 -0.86643815
-1.2783853 -1.347348 -0.905367 -1.3586562 -0.84955865 -1.2964169 -1.4407351 -1.1369125
-1.2438701 -1.3594062 -0.9934636 -0.8601084 -0.48602593 -1.4151603 -1.0863671 -1.5742182
-1.3885182 -1.210217 -0.94182026 -1.49847 -1.2106503 -0.94909924 -1.098354 -1.2811306
-1.0868716 -0.5577063 -2.0378063 -0.50631976 -1.0095019 -1.3561983 -1.00966 -1.4111352
-0.22649328 -0.975022 -0.9305511 -0.9659981 -1.5005367 -0.7564031 -1.107738 -1.3411412
-0.9476788 -1.0497705 -1.2671767 -0.6593504 -0.7642228 -0.7650188 -1.0663903 -0.9000345

fc2.weight f4 [64, 128]
00000000: 9ec4 5c3e 86ba dfbe 5b5e cbbd 598d fbbe
00000010: 6179 19bf a326 fd3b 27dc 183e 7a82 88bd
00000020: 9544 41be c9a6 10be a251 10be d5d0 bd3e
00000030: 8601 a23d b469 553e 18ae 123e 8670 6fbe
00000040: 69b2 aa3d 6189 a1bd 0dac 23bf feb1 0d3f
00000050: fc92 af3e edf3 3e3c 0e4d 1dbc 46c9 833d
00000060: 916d a7be a7c1 a3be bb87 8abe 0b9f a8be
00000070: 9e38 c13d b66b 3dbe c4ed 4d3e 22b6 be3d
00000080: 75b8 00be 6389 ebbe 607a 1f3e 1cbf 1b3e
00000090: d170 cc3d ced3 21bd cde0 16bc aa31 c8bb
000000a0: 6135 10be c563 14be c56b 98be 9b37 9bbe
000000b0: 3c61 34be addd 41be 8dfc d1be 72a1 dd3d
000000c0: 34fe 983d 9d47 d43e ec87 c4be 4618 3fbd
000000d0: 4f9e 923d 1583 1b3d c0f8 21bf f583 b4be
000000e0: 3a8a fb3d 3a8a 58bd d6a3 003e 6c05 3e3e
000000f0: bb8a 243e fe88 7c3e 0d04 8dbd d629 ac3e
00000100: 53f8 ea3c 1b58 933c e396 61bd 6eda 3b3e
00000110: 3a36 38bf ea48 263d 963b 583e 352c 233d
00000120: 1137 02be a7dd d2bd d5db b8be 01e1 59be
00000130: 4690 f2bd be19 7b3d 9855 7abf 67db cfbe
00000140: 7190 5b3d 0135 16be da46 463d e9c4 7bbe
00000150: 77db 9ebe 6a58 50be f1ef 3f3d a08a 9ebe
00000160: ba7b 4e3e 6288 75be f25d 7c3e d526 6a3d
00000170: 6a34 6fbe 29ab 02bf d44e 09bf 0d75 f7bd
00000180: f72d 393e 8d08 8bbe f655 19bd 2dfd a1bf
00000190: 3a0d 973e 5ad8 8c3d 37b7 bc3e f099 9cbd
000001a0: 970e 6cbd f6d5 bbbe 07ac ae3e f49d 1c3e
000001b0: 1119 ff3d 8da5 3dbf 9a5f 0c3d c16b 99bd
000001c0: e065 923d 2c3d 9a3d 9e64 6f3e 86b1 c5be
000001d0: cfc4 26bf 0141 e3be 46ef 183e 236e 69be
000001e0: 2caa 3fbd 2903 afbc 7c15 7cbe 2728 c03e
000001f0: 734d fd3d 06c5 23be 0bb4 373e 2b43 163e
00000200: f608 e0bd 7692 0f3c 3762 57bf ca51 24be
00000210: 87b8 2fbf 0678 46bd 3fe6 d6bd d95d 68be
00000220: 5174 dabd 267d da3d 7ec1 863e dbf2 023e
00000230: 6d53 7eb9 ecad dc3d 2657 153e 6be4 843d
00000240: 610f 6e3d 5aee 94be 57dd 073e c911 3ebe
00000250: e3ce 183f de02 5dbe 508a c7bd ec13 24be
00000260: cbdf 873d af03 90be 9b78 0c3e 137e 74be
00000270: 9073 71be 4239 80be 4e97 183d a8e2 29bc
00000280: 8706 05be 9609 3fbf 728b 00be c327 b4bd
00000290: a251 77bd db35 58be 6fdd e1bd 7ad1 c3be
000002a0: af4a 93bc 79c5 373d 72f9 063f 316a 303e
000002b0: 1b21 013d 3b6b 6abe 15e5 f93c 84c4 8abd
000002c0: bc11 093f 245d 863d 62fa 33bf b07f ad3d
000002d0: aa34 0ebe 7052 e0bc 3a77 72be 2daa 7ebd
000002e0: 40f1 1a3d 6e9b 80be d9c5 013f a61e b6be
000002f0: 8132 91bc 554d 813c a893 1bbe 5ff5 563c
00000300: c8ec 873c 08f4 ea3b d45a 13bd 60cf a8be
00000310: ffd9 3cbd 21a7 0c3e aff5 92be 3caa 01bf
00000320: 29a7 0abd 83df 5abe 1b4d 7ebe 2c9f 28be
00000330: 94e0 3b3d 3035 58bd ea13 ddbd 5874 e0be
00000340: 34c5 073f 6691 76be ca37 e4be 22ca 2abd
00000350: 4f68 51be 9fe6 8fbd 7e2d cdbe a12e 9bbe
00000360: bb20 613d aa44 8cbc 0169 37bd 8fbc 96bc
00000370: a96b 7abe bb0d dbbe 3454 6ebe 460e 6ebe
00000380: 700e 3a3e 0502 5cbf 60e8 3ebe 3202 c2be
00000390: 25e9 813e 0400 c8bb d33f 723d c7db 73bd
000003a0: af76 dcbe 3236 3dbe b166 d9be 05d1 75bc
000003b0: 29ec 28bd aa77 fabd 6342 78be 2ca3 1abf
000003c0: f466 00bc 49c3 9c3d c904 523e 01cf 20bf
000003d0: 05a7 4abe 406f c4be b205 e5bd 5d39 10be
000003e0: fcd7 e8bd 6cf2 2a3e 066b e0be e9f4 08bf
000003f0: b2bd 603d 9ffd 81be a867 7a3d 9993 133e
0.21559379 -0.43696994 -0.09930106 -0.49131277 -0.59950835 0.007725553 0.14927731 -0.066655114
-0.18873818 -0.14126123 -0.1409364 0.3707339 0.07910447 0.20841104 0.14324224 -0.23382768
0.0833481 -0.07887531 -0.63934404 0.5534972 0.34291828 0.011654836 -0.009600891 0.06434874
-0.3270078 -0.31983683 -0.2705668 -0.3293384 0.09434627 -0.1849812 0.20110232 0.09312083
-0.12570365 -0.46003255 0.15574026 0.15209621 0.099824555 -0.039508633 -0.00920887 -0.006109436
-0.14082862 -0.14491184 -0.29769722 -0.3031586 -0.17615217 -0.18932219 -0.41012993 0.10821809
0.074703604 0.41460887 -0.3838495 -0.04665401 0.07159101 0.037966806 -0.6327019 -0.35256925
0.12282224 -0.052866198 0.12562498 0.18556756 0.16068546 0.24661633 -0.06885538 0.33625668
0.028682863 0.017986348 -0.055075537 0.18345043 -0.71957743 0.04059688 0.2111648 0.03983708
-0.12716319 -0.10296183 -0.3610522 -0.21277238 -0.11843924 0.061303847 -0.97786856 -0.40597078
0.053604547 -0.14668657 0.048407413 -0.24586834 -0.31026813 -0.20346227 0.046859685 -0.30965137
0.20164385 -0.23977807 0.24645212 0.05716594 -0.23359838 -0.5104242 -0.5363591 -0.120828725
0.1808394 -0.2715496 -0.037435494 -1.2655388 0.2950228 0.06877203 0.36858532 -0.07646549
-0.0576311 -0.36686677 0.3411562 0.1529463 0.12455953 -0.74080735 0.03427086 -0.074912556
0.07148337 0.07531199 0.23378226 -0.38612002 -0.65144056 -0.44385532 0.14935026 -0.2279592
-0.046793148 -0.021363812 -0.2461757 0.37530634 0.12368288 -0.15993127 0.17939775 0.1467406
-0.10939209 0.008762946 -0.8413424 -0.16046825 -0.6864094 -0.048454307 -0.10493135 -0.2269205
-0.10666717 0.106684014 0.26319498 0.12787955 -0.00024254406 0.107753605 0.14584026 0.0648888
0.058120135 -0.29088098 0.13268028 -0.18561472 0.59690684 -0.21583125 -0.09743178 -0.16023225
0.06634482 -0.2812781 0.13717882 -0.23876218 -0.2357924 -0.25043684 0.03725367 -0.0103689805
-0.12990771 -0.74624 -0.12553194 -0.087966464 -0.060380585 -0.21114294 -0.11028563 -0.38245755
-0.017979948 0.04486606 0.52724373 0.17228009 0.031525712 -0.22892468 0.030504743 -0.06775764
0.53542686 0.06560734 -0.7030393 0.0847162 -0.13887277 -0.02738306 -0.23678294 -0.06217401
0.03782773 -0.25118583 0.50692517 -0.35570258 -0.017724277 0.015783945 -0.15193045 0.013120024
0.016592398 0.007170204 -0.035975292 -0.32970715 -0.046106335 0.1373563 -0.28703067 -0.5065038
-0.033850823 -0.21374325 -0.24834101 -0.16466969 0.04586847 -0.0527851 -0.10794814 -0.43838763
0.53035283 -0.24078903 -0.44573814 -0.041696675 -0.20449947 -0.07026409 -0.4007377 -0.30309013
0.054962855 -0.017122585 -0.044777874 -0.018400459 -0.24455132 -0.42783913 -0.23274308 -0.23247632
0.1816957 -0.8594058 -0.18643332 -0.378923 0.25373188 -0.0061035175 0.0591429 -0.059535768
-0.43059298 -0.18477705 -0.4246116 -0.015003447 -0.041240845 -0.12229855 -0.24244075 -0.6040523
-0.007837046 0.07654435 0.20509638 -0.6281586 -0.19790275 -0.38366127 -0.11182727 -0.14084382
-0.11369321 0.16694039 -0.43831652 -0.53498703 0.054868408 -0.2538881 0.06113401 0.14411773

fc2.bias f4 [64]
00000000: 5e10 393e 476c 133f 0593 7abe dc22 3cbe
00000010: b9da 89be e632 2c3d bafb a43c 1f1d 1d3d
00000020: f95b 0fbf 3d9d 16bf ceb1 76be ea25 973c
00000030: 013f 31bd be95 3fbe 634a 1abf ad93 d7be
00000040: 786d 08bd d28c afbd 6d6d 503c c71a 383a
00000050: bf09 d3be 7911 2fbf 8c4a a4be 0f18 07bf
00000060: eb7e a4be 38ae 0b3d b3de 80be e8f1 cabd
00000070: 1f57 90be aee2 debe fbaf 81bd 45a0 44be
00000080: be85 2abf 21a9 6c3e 565f 52be 817f 01be
00000090: 91fb 5dbe a917 55bf 57ac dc39 9227 abbe
000000a0: dc55 b7be 0547 74be 90e9 35bd 8bf6 64be
000000b0: 17b0 0ebc b4be f1be c7f8 9cbe 3fe4 91bc
000000c0: 6050 e8bd 139d 1dbb 123f eabe e890 b9be
000000d0: 437d bfbd b02d 183e 6579 ebbe ae61 d8be
000000e0: 355b debd 6ee9 95be a4e9 60bd 7e08 a1be
000000f0: 2537 3dbe f16a 80be f75b a33e 650e bdbe
0.1807265 0.57587093 -0.24470146 -0.18372673 -0.26924685 0.042040728 0.020139564 0.03835785
-0.55999714 -0.58833677 -0.24091265 0.018450696 -0.043272976 -0.18709466 -0.60269755 -0.42104855
-0.033307523 -0.08571781 0.012721402 0.0007023033 -0.41218373 -0.68386036 -0.32088125 -0.52771086
-0.3212808 0.034101695 -0.25169906 -0.09909421 -0.28191468 -0.43532318 -0.06332394 -0.19201763
-0.66610324 0.23111393 -0.2054418 -0.12646295 -0.21677996 -0.8323923 0.00042090073 -0.33428627
-0.35807693 -0.23855217 -0.044412196 -0.22359674 -0.008708975 -0.47215807 -0.30658552 -0.017809032
-0.11343455 -0.0024049922 -0.45751244 -0.36243367 -0.09350064 0.14861178 -0.45991054 -0.42262024
-0.1085724 -0.29279655 -0.054910317 -0.31451792 -0.18478067 -0.2508159 0.319061 -0.36925045

fc3.weight f4 [32, 64]
00000000: 3fa9 f13d f895 e93c 32cb 753e 57c2 46be
00000010: e77c a7be b79c c7be d13c d13d 51a5 803d
00000020: f7f3 b5bc 421f 5a3e d769 15bd 4b6a 20be
00000030: d5e8 c9be d345 64bf 2e4b b93d 14f7 4f3e
00000040: f39c 72bf 6e68 063d 5e5c 563d 0eae 533e
00000050: 606f e63d cefe de3c 5602 50bd 3c77 a03e
00000060: e70e c5be 8917 453e e5c7 09bd f0c4 943e
00000070: 487e ecbe 4671 1dbf 405b 163d 50e0 febe
00000080: c9df d03d 3cbb 6f3d 3882 f43d e502 75be
00000090: 0e31 06bf b445 493e 18af 343e 0317 2fbf
000000a0: 670d f5be c5f0 65bd a281 ce3d 45ba 943d
000000b0: addc 7fbf c723 8bbe 700b 00be bfdb 363e
000000c0: a7b3 06bf 771a ed3d ef76 373e a904 b43e
000000d0: e5be cbbe cce6 0e3e 7998 b1be 7e0f 9eba
000000e0: 4a4e 203e 2ce7 cdbd 8d3f 733d 8a9b c9be
000000f0: b8d2 11bf 9883 c93d 754b babe bb4e b63e
00000100: 9dba 23bd d58a e83d d452 9dbc d1d3 fcbd
00000110: 869a 133d 2fe1 0b3e 5dff 13bf eb42 c33d
00000120: ff95 353f 657d 54be 6eea a03e 1f5d af3e
00000130: 2652 1b3d 1cfc 0a3e 171f 773e 58ce 4f3e
00000140: 76a0 923c a8e4 02be a14a 07bf aabc 02bf
00000150: debd 353e 2395 9dbe 60b4 53be 0b6b 14bf
00000160: b978 e0bc 06c1 c7be 5e57 41be 7e49 193e
00000170: 855c 81bb 65b6 753e ff03 a73e 8b92 e2bd
00000180: 564e 5dbf a176 03be ac40 633c 5d68 c93d
00000190: 082d 15bb 3514 9ebe 9f19 0a3f 231c 3a3e
000001a0: d956 9bbd 0ba1 c6bd bd90 633e f402 bf3d
000001b0: 3a69 423d dab2 18be 426b b2be 6e71 c0bc
000001c0: a936 433e 8dff 22bd fa2c 893e c70a a3bd
000001d0: 68f6 88be 16cc 22bf 549a 6dbd 63f7 6fbf
000001e0: f03e e1be 85ba 0abf 1d38 163e 3748 1cbe
000001f0: f48b 383e ac5b 653e 7efd 83bd 5392 6abe
00000200: 507e ff3c 173d a93d 2017 02be f6fb 94be
00000210: 8864 46be a8c1 4abe 5cac 9fbe 5943 ed3d
00000220: 1721 a53e 2648 22be ccb2 d03e f459 073e
00000230: 836e 5abe af95 52be 0a2f dc3e 139d 413e
00000240: 81f8 f1bd 926a 4ebc 5e39 9cbe 05f9 a0be
00000250: 2269 8a3e 0f8c 71be 8a75 dcbe 77d1 c4bd
00000260: f7ab 48be bf98 52be f613 8dbe 4a1e 5d3e
00000270: cb88 03be cdd7 883d bf44 97bc 2266 13bf
00000280: af8f 08bf 98f8 c4bd b8ce 44be be44 24be
00000290: 453d 01bc 62bb 56be 5f9b b43e 09b2 04be
000002a0: 1e64 73be 7792 bdbe 0c60 603e 649f b43d
000002b0: c111 92be 4e68 9ebe 330a 15be e4ef 0c3e
000002c0: 8660 d2bd 3a27 94bd 826d 453e b3b3 c23d
000002d0: 22db 00bf 9888 c3be 8d9e 5ebe 52f9 24bf
000002e0: 26ec bbbe 5769 5bbf 7379 3c3e 388c 82be
000002f0: 1c4b a53e a775 603e b6df 96be 4712 42bd
00000300: 7282 a0ba 2054 973c d2ef a0be e4bf 81be
00000310: 2137 2c3e 7e24 2e3e 7782 b2bd 7a84 0c3e
00000320: 57b7 1c3f b2b7 283e 33a2 973e 13f2 ad3e
00000330: 9f78 d23d 50ee 6b3e fbba f23e 4547 fb3d
00000340: 955c 91bc 0010 ec3b b1c8 0abf f67b 78be
00000350: 5794 a93e f294 d9be 43d0 12bf 4357 9dbd
00000360: c0be d93d d260 d0be f4b7 22be c7da 3b3e
00000370: d232 07be b476 c23e c4cf a03e b010 12be
00000380: 2be0 06be 5499 8abd 9b99 143e b50a 1a3d
00000390: 86ba 613d 9c17 00be 033b 1c3f dd9a 193e
000003a0: ec9b 2ebe 5da9 0fbe ba6c 473e b636 273e
000003b0: 7489 2cbd 1984 91be e979 f5bd 32ed bb3b
000003c0: 17fe 073e 1ff1 78be 69f6 d23e 9a47 b33d
000003d0: 2d53 c0be 5e57 5abe bf34 a93d 1b18 9cbe
000003e0: 9a83 2fbf 8d0a b2be 11e4 033e 3d06 1bbe
000003f0: 4647 543e 7892 263e 8a65 193d d883 0cbe
0.11799859 0.028513893 0.24003294 -0.19410072 -0.3271248 -0.3898675 0.10216678 0.062815316
-0.022211058 0.21300986 -0.03647789 -0.15665548 -0.3943545 -0.89169043 0.090475425 0.20309097
-0.94770736 0.032814436 0.052334182 0.20671865 0.11251712 0.02722111 -0.050783478 0.3134097
-0.38487932 0.19247259 -0.0336379 0.290565 -0.46190095 -0.61500967 0.036708117 -0.49780512
0.10198934 0.05852817 0.119389 -0.23926885 -0.524186 0.19655496 0.17644918 -0.6839449
-0.47861788 -0.05613782 0.10083319 0.072620906 -0.999461 -0.27175733 -0.12504363 0.17857264
-0.5261788 0.115773134 0.17916463 0.35159805 -0.39794078 0.1395523 -0.3468664 -0.001205906
0.15654865 -0.10053858 0.05938678 -0.3937648 -0.56962156 0.09839553 -0.36385694 0.35606942
-0.03997289 0.11354605 -0.019204535 -0.12345088 0.036036037 0.1366012 -0.5781153 0.09534248
0.70932 -0.20750959 0.31428856 0.34250733 0.03792014 0.13572735 0.24132954 0.20293558
0.01789878 -0.12782538 -0.5284825 -0.5106913 0.1774821 -0.30777845 -0.20674276 -0.57975835
-0.027401315 -0.39014453 -0.18880984 0.14969441 -0.0039477968 0.23995359 0.32620236 -0.11063107
-0.86447656 -0.12838222 0.013870399 0.09834359 -0.0022762436 -0.30874792 0.53945345 0.18174796
-0.07584924 -0.09698685 0.22223182 0.09326735 0.047463633 -0.14911976 -0.34847456 -0.023491587
0.1906382 -0.039794493 0.26792127 -0.0796104 -0.26750493 -0.6359266 -0.058008507 -0.9373686
-0.4399333 -0.54190856 0.14669843 -0.15261923 0.18022138 0.22398251 -0.06444834 -0.22907381
0.03118816 0.08263605 -0.12704134 -0.2909848 -0.19374287 -0.19800436 -0.31186187 0.11585111
0.32251808 -0.15847835 0.4076141 0.13217908 -0.2133122 -0.20564912 0.43004638 0.18907575
-0.118149765 -0.0125986505 -0.30512518 -0.31439987 0.27033335 -0.23588584 -0.43058425 -0.09610265
-0.1959685 -0.2056608 -0.2755429 0.21593586 -0.12845151 0.06681786 -0.018465398 -0.5757772
-0.53344244 -0.09617728 -0.19219482 -0.16041848 -0.007888143 -0.20969918 0.3527479 -0.1295854
-0.2376866 -0.37025806 0.21911639 0.08819464 -0.2852917 -0.30938953 -0.14554672 0.13763386
-0.10272317 -0.072340444 0.19280055 0.09506931 -0.5033437 -0.3819015 -0.2174017 -0.6444293
-0.36703604 -0.8570761 0.18405704 -0.25497603 0.32283866 0.21919881 -0.29467553 -0.047380712
-0.0012245907 0.018472731 -0.31432968 -0.25341713 0.16817905 0.17006108 -0.087162904 0.13722411
0.61217254 0.16476324 0.29615936 0.3397375 0.10276913 0.23040128 0.4740828 0.12269453
-0.017744342 0.007204056 -0.5421248 -0.24266037 0.33120987 -0.4249645 -0.5734903 -0.076826595
0.10632086 -0.40698868 -0.15890485 0.18345176 -0.1320298 0.37981188 0.31408513 -0.14264178
-0.13171451 -0.06767526 0.14511721 0.037607867 0.055109523 -0.12509006 0.61027545 0.15000482
-0.17051667 -0.1402945 0.1947507 0.16329464 -0.042123273 -0.28421095 -0.11986143 0.005735063
0.13280521 -0.2431073 0.4120362 0.08753891 -0.37563458 -0.2132239 0.08262014 -0.3048714
-0.68560183 -0.34773675 0.12879969 -0.15139098 0.20730314 0.16266811 0.03745035 -0.1372217

fc3.bias f4 [32]
00000000: d098 f83e 1e9c e43e cfda 1e3e 0b14 423f
00000010: 2769 d6bd 2563 d9bd 0914 4a3e ea30 b7bc
00000020: 2f40 eebd 8249 d13d 2391 dabe 6958 173e
00000030: 4b6e 033f 098b 573c ee9d 5c3e 6346 82bd
00000040: 153e e03d 5b14 d3be 199f 913e 6206 9fbe
00000050: 6a3b 053f 211b 6bbe a422 f23d bd33 e7be
00000060: 418d 3cbe 427b 43bd e614 8dbd f45b babd
00000070: 6369 643e 8238 113e b9ab 3bbe 68e9 1a3e
0.48554087 0.44650358 0.15513156 0.75811833 -0.10469275 -0.106146134 0.19734205 -0.022362191
-0.11633336 0.10219099 -0.42688856 0.1477982 0.5134017 0.013155707 0.2154462 -0.063610815
0.10949341 -0.41226467 0.28441694 -0.31059557 0.52043784 -0.22959568 0.118230134 -0.4515666
-0.18413259 -0.04772497 -0.06888752 -0.0909957 0.22305827 0.14181712 -0.18327226 0.151281

fc4.weight f4 [3, 32]
00000000: 007e 213e 5983 64be 57ca 5cbe c13d a1be
00000010: 2a51 483e ed17 bebc 08e0 0cbe 6556 12be
00000020: 4a18 97be a567 43be 1359 623c d293 813d
00000030: a2b5 87be ddc5 dcbd 92c4 f63d bd15 2ebe
00000040: 8f95 c8bc 019e 6ebe ad4f 2ebe 859b 1a3c
00000050: 8f63 ac3d b49a 5cbe 1477 bbbd b9d9 06be
00000060: 827c fa3d 9bb4 db3d c15e 103d 254c 91bd
00000070: 69d1 113e eaea 0f3d 6822 903e 3474 02be
00000080: 59b2 89bd 57e1 853d c103 503d 2339 903c
00000090: bb85 b53d a47d 65be ce15 ab3d 39b3 493e
000000a0: 103a 993c de1a dc3d 7fb3 343e b3f4 46be
000000b0: 3228 753d 006a ae3d b4fc 14be 11b5 cfbd
000000c0: baeb 89be 9356 203d 812f 253d 8e48 0c3e
000000d0: f053 58bc ca73 77bd 923e 443e 5a45 f43d
000000e0: 92e8 c2bd 700e 23be a9ac 4fbe 1a75 62bd
000000f0: dac9 c53d 3576 57be 5b28 143e fee6 323e
00000100: 3b3c 363e 747d ba3d ebf4 003e df9e 263d
00000110: ba35 d3bd c3cd 233c d390 94bd 078c 1d3e
00000120: c376 b23c e14d 483d 542d b4bc 6fb8 123d
00000130: a18d 82bd 4506 e6bc 4c8f c33d fe9d 1d3d
00000140: cfc7 56bd c49b 92bd a143 adbd 59c0 23bd
00000150: cf8e 44be b23b 4a3d a5f9 8dbb e5a9 413e
00000160: 7940 e13d 1137 493d d456 033d bf8e e93d
00000170: 0f71 d0bd d6d3 98bc 89b4 103d ccdf d43d
0.15770721 -0.2231573 -0.21561562 -0.31492427 0.19562212 -0.023204768 -0.13757336 -0.1429077
-0.2951072 -0.19082506 0.013815182 0.063270226 -0.26505762 -0.10779927 0.120492116 -0.1700048
-0.024485378 -0.23302461 -0.17022581 0.009436493 0.08417427 -0.2154339 -0.09153572 -0.13168992
0.12230779 0.10727807 0.035246614 -0.070946015 0.1424004 0.03513614 0.2815125 -0.1273964
-0.0672347 0.06537121 0.05078483 0.01760537 0.08863398 -0.2241121 0.08353768 0.19697274
0.018704444 0.10747312 0.17646597 -0.19429283 0.059852786 0.08516312 -0.14549524 -0.101419576
-0.26937658 0.039145064 0.040328506 0.13699552 -0.013203606 -0.06041316 0.19164494 0.1192729
-0.095170155 -0.15923476 -0.20280708 -0.055287458 0.09657641 -0.21041186 0.1446852 0.17470929
0.17796414 0.091059595 0.12593429 0.040678855 -0.10312982 0.009997788 -0.072541855 0.15385447
0.021785146 0.048902396 -0.02199427 0.03582042 -0.0637467 -0.028079161 0.09548816 0.03848075
-0.052436646 -0.07158616 -0.08460165 -0.03997836 -0.19195102 0.049373336 -0.0043327385 0.18912466
0.10998625 0.04912478 0.032065228 0.1140418 -0.10177814 -0.018655699 0.03532842 0.10394248

fc4.bias f4 [3]
00000000: 4274 e7be efd5 923e c596 a63d
-0.45205885 0.28678843 0.08134226

batch_norm1.weight f4 [128]
00000000: 3358 7e3f 4f8b a03f f203 923f 7000 6a3f
00000010: cf19 803f 5739 8c3f f75a 963f ddc4 723f
00000020: c952 b83f 1b6e 703f cb04 5e3f 5ef5 ab3f
00000030: 5320 8c3f 50f7 4d3f f78d 6e3f f034 843f
00000040: 5ee1 753f 5278 9c3f b835 823f c40b 643f
00000050: 8b6d 9e3f 1a11 3f3f 554a 6b3f a958 543f
00000060: 14f1 2e3f 31fa 883f 59e6 923f 9a17 4f3f
00000070: 11e4 5b3f f6f5 793f c9cf 703f 9def 953f
00000080: 4e70 833f 9366 953f 1ab7 943f 839c 8e3f
00000090: c671 643f 8529 713f ea65 773f ae3a 833f
000000a0: 56bd a13f 8534 a53f 029d 853f d59e 6f3f
000000b0: 063b 8c3f 4c9d 7a3f f1c0 363f 0ed8 b13f
000000c0: f387 783f bb2f 883f d932 7f3f eab5 b93f
000000d0: d4d0 b03f c18a 733f a2c3 763f 5702 963f
000000e0: 89b0 7a3f 4a06 543f 1ac1 663f e225 7b3f
000000f0: 80d9 8f3f 8b3c 873f 4b22 7e3f 38bd 563f
00000100: ef96 833f 1d6d 8c3f 32df 8f3f 915c a63f
00000110: 72e4 4e3f ec32 8e3f ace9 8b3f 9b1a 633f
00000120: 306c 643f 17d4 843f bb81 633f 257d 8b3f
00000130: 9fdd a53f 18ac 883f a70d a33f c196 823f
00000140: 3705 853f a904 793f c1f7 803f 0c05 953f
00000150: 572f a23f d0c8 b43f 3942 843f ab48 783f
00000160: 6c11 7a3f eef7 983f dfaa 733f 5704 6f3f
00000170: 554c 543f d594 3d3f 612b 933f 8849 9c3f
00000180: 2a86 743f a318 733f d5af 843f 6fd6 9e3f
00000190: c28d 9e3f 682c 7a3f 536e 543f dd8d 433f
000001a0: 9732 6a3f 22a6 8d3f a9e3 803f bd10 9e3f
000001b0: c06f 783f a003 4d3f e0b3 9b3f ee46 973f
000001c0: bc03 5b3f 97ae 7c3f 2fed 8f3f 1c54 a03f
000001d0: 7a3e 8d3f 4cc3 673f 6065 923f 0363 613f
000001e0: 5345 813f 27f8 833f 8bc0 603f e16d 913f
000001f0: 9e91 513f 5112 7b3f 429f 8f3f 58b9 7a3f
0.9935333 1.2542514 1.1407454 0.9140692 1.0007876 1.0954999 1.174651 0.9483164
1.4400264 0.9391801 0.86726063 1.3434255 1.0947365 0.80455494 0.9318537 1.0328655
0.9604701 1.2224219 1.0172644 0.8908045 1.237718 0.7463547 0.91910297 0.82947785
0.68336606 1.0701352 1.1476547 0.8089539 0.85894877 0.9764093 0.94067055 1.1713749
1.0268648 1.1671928 1.1618378 1.1141514 0.89236104 0.9420398 0.96639884 1.0252283
1.2635906 1.2906653 1.043854 0.93601733 1.0955513 0.97896266 0.71388155 1.389406
0.9708244 1.0639566 0.9968696 1.4508641 1.3813729 0.95133597 0.9639226 1.1719464
0.9792562 0.82822096 0.901384 0.9810468 1.1238251 1.0565351 0.99271077 0.83882475
1.0280436 1.0970799 1.1239989 1.2996999 0.8081733 1.110929 1.0930686 0.8871247
0.8922758 1.0377225 0.8886983 1.0897566 1.2958258 1.0677519 1.2738541 1.0202256
1.0392216 0.97272736 1.0075608 1.1642165 1.2670697 1.4123783 1.033271 0.9698588
0.97682834 1.1950662 0.95182604 0.93366 0.82928973 0.74055225 1.1497613 1.220994
0.9551722 0.9495947 1.036616 1.240919 1.2387011 0.9772401 0.8298084 0.7638834
0.91483444 1.1066325 1.0069476 1.2348858 0.97045517 0.80083656 1.2164268 1.1818521
0.85552573 0.987039 1.1244258 1.2525668 1.1034691 0.90532374 1.1437187 0.88041705
1.0099281 1.0310105 0.877938 1.1361657 0.8186282 0.98074824 1.1220477 0.9793906

batch_norm1.bias f4 [128]
00000000: 3bfb c63e 4dc4 143f 5ee4 903e 0cd9 853e
00000010: 5cf9 693d 82f1 fb3e c8ea aa3e 432b 2c3e
00000020: 38b2 ad3e 9bae 9e3d 7b9c 883e 786f 093f
00000030: 3770 eb3e ef95 713e 6ba0 483e ca7b 9d3e
00000040: 5207 8f3e 58f8 fb3e e4b0 1c3e b1cf 783d
00000050: ccf1 c03e 1167 cabd b1ed 6e3e ee74 513e
00000060: 354d 4e3e a2d9 ca3e 1d17 bf3e 483b c03e
00000070: 3add 0d3f dac6 64bd 739f b53d afce 7e3e
00000080: b38f bd3e f0f2 c03e ab82 443e 4fb8 503e
00000090: 8b88 613e 1451 a63e 6f15 013e ddc7 913d
000000a0: b298 d13e 2790 e13e d29f d83d 79d0 763e
000000b0: 95c0 a63e 1f61 a93e 7a75 68bd 9247 ed3e
000000c0: cbb8 d33d 1480 9e3e df72 953e 57f7 223f
000000d0: 7579 e63e 5dc2 aa3e 97bc c6bd fe92 9e3e
000000e0: 5055 a93e 0e66 e93c f979 663e 9020 4c3d
000000f0: c6ea 833e 6423 b83e 93c2 953e 724e 0d3e
00000100: 4bba 703e 8cd5 923e 4ad0 933e be22 4e3e
00000110: 460a 483e 7cd4 b33e 969d 0f3e 97ff 6b3e
00000120: d75d cc3d 9d7b b7bc 28ad 213e a82d d53e
00000130: e35a fb3e 42be a03e 9b85 c33e 6a24 813e
00000140: bae7 9e3e b6e9 07be e3ec 803e b189 5e3e
00000150: bdf5 913e 5088 c63e a429 143e 5354 d93e
00000160: f35d af3e 771f df3e b5e6 fd3d 69ee 8a3e
00000170: e2c7 b83e c3d1 383e 98d2 1d3e 4560 ad3e
00000180: 5065 e4bc 478f e83d 402e 5b3e d20a 143e
00000190: 1199 593e 35ac 793e edce 6f3e b866 5a3d
000001a0: 20b4 863e 42e7 4d3e 7821 e43d 7614 803e
000001b0: a061 a53d 1344 4abd f7ec c53e a27d 223e
000001c0: e489 f83e 0fd8 f43e 1c43 813e 7e2d 443e
000001d0: 24f3 4e3e 58fc b23e c538 683e f458 a23d
000001e0: 4517 743e 7a40 8a3e baae 903e 6193 8b3e
000001f0: 01c6 1f3e 14a3 b43e 76c7 cb3e eac9 db3e
0.3886355 0.5811203 0.2829923 0.26142156 0.057122573 0.49207693 0.3338225 0.16813378
0.33925033 0.07748147 0.26681885 0.5368571 0.4598405 0.23592351 0.19592445 0.30758506
0.27935272 0.4921291 0.15301853 0.060744945 0.37684476 -0.098829396 0.2333286 0.20454761
0.2014664 0.39619166 0.37322322 0.37545228 0.5541569 -0.055853702 0.08868303 0.24883531
0.37023696 0.37685347 0.19190471 0.20382808 0.22024743 0.32483733 0.12605833 0.07118199
0.4093681 0.44055292 0.10577358 0.24102964 0.32568803 0.3308191 -0.05675266 0.46343666
0.10337981 0.3095709 0.29189202 0.6365866 0.4501454 0.33351412 -0.097039394 0.3097152
0.330729 0.028491046 0.22507466 0.04983574 0.25765055 0.359645 0.2925001 0.13799456
0.23508565 0.28678548 0.2886985 0.2013044 0.19535169 0.3512305 0.14024958 0.23046719
0.09978836 -0.02239781 0.1578871 0.41636395 0.4909278 0.31395155 0.3818787 0.25223094
0.31036168 -0.13272747 0.2518073 0.21732213 0.28507796 0.38775873 0.1446901 0.42447147
0.34251365 0.43578693 0.123975195 0.27135018 0.36089998 0.18048768 0.15412366 0.3386251
-0.02788034 0.11355453 0.21404362 0.14457253 0.21249796 0.24382098 0.2341878 0.053320616
0.263093 0.20107749 0.11139196 0.2501561 0.08075261 -0.049381327 0.38657352 0.15868238
0.48542702 0.4782109 0.25246513 0.19157979 0.20209938 0.34958148 0.22677906 0.07927123
0.23837002 0.27002317 0.28258306 0.2726088 0.15602876 0.3528067 0.39800614 0.42927486

batch_norm1.running_mean f4 [128]
00000000: 7a2f c53e f0a1 833d 7d58 7d3e 301d 043e
00000010: d75d d23d 6472 693f 1a75 fc3e cc35 013f
00000020: ad7d 153f bb9d b63e 5b5d b33e a082 5c3d
00000030: 6f56 3f3e d438 a63e 4ef3 283e bb68 943e
00000040: 87b6 483e b2ae e03d 4d60 093e a8c8 833d
00000050: 0ea0 993d 6886 553e 1d14 173e f69f 313e
00000060: 8f4f 613f 74b2 353e 4744 dd3d 9936 ed3c
00000070: b3ec 6b3e 0211 de3e 24ab 7a3d 23f9 883e
00000080: 2327 343e 0d8d f43d a117 8b3e 96ad 543e
00000090: d253 073f fb6a e03d a4d7 763e 4fb4 a13d
000000a0: a14b cb3e 4ea8 ba3e 547f 043e 143f 1f3e
000000b0: 8695 593e b1ef 2b3e 9cef af3d 7c8a a63e
000000c0: d69c 583d f25f 043f e55b b03d 5196 b83e
000000d0: 22d1 233f aaae ac3e 5d16 f13d 75a3 a73e
000000e0: e52d 883e 3d27 803d 6ef3 f43d 1ca8 703e
000000f0: be0f 1a3e 9242 cb3e 0500 0a3d d521 623e
00000100: 1f70 be3d 7382 4b3f 0b1e 723e c154 803d
00000110: 793d 593d 1422 163e 4361 2f3e 3de0 f93d
00000120: c437 853d 1ac7 c73d 84e1 b03e 62b0 143e
00000130: a4b8 a73e 3193 ee3e e465 4e3e ea48 063e
00000140: bed8 1c3e ab02 163e e7ab 333e 3fe6 fc3d
00000150: 910d eb3d 247d 033e ea9a ad3d 2ca7 3a3e
00000160: 7ffa f33d fc25 b33e d5bb 9c3d 99db 0f3e
00000170: 1aca ba3e b002 833d 30d4 d23d 5bef 043e
00000180: 2911 a43d 0d9e 0c3e f957 ed3e d03f 9b3d
00000190: 4ce9 133e e89b 0c3f f39f 443e cb6d 0a3e
000001a0: 6bea f33d e703 383f 1010 713e 708d 1f3f
000001b0: c193 f13d eb8d 403e 1909 a93e 23ad bf3d
000001c0: 4ec7 153f e479 013f 6d5e b63e 76f5 203e
000001d0: 9f58 893e 6308 0b3e de1c 563e 2cd9 d83e
000001e0: 5dab 393e b985 273e 379a f53d 1dee ed3d
000001f0: 6c05 253e bddf ea3e 89fc 703e 676d de3e
0.38512784 0.064273715 0.24740787 0.12901759 0.10271805 0.9119017 0.4930809 0.5047271
0.5839489 0.35667214 0.35032162 0.05383551 0.18685316 0.3246523 0.16499063 0.28986153
0.19600879 0.109708205 0.13415642 0.064347565 0.07501231 0.20852053 0.14753766 0.17346177
0.8801202 0.17743856 0.108040385 0.028956698 0.23039512 0.4337235 0.06119837 0.26752576
0.17593054 0.11940966 0.27166465 0.20769343 0.52862275 0.10957905 0.24105698 0.07895719
0.39706138 0.3645653 0.12939197 0.15551406 0.21248445 0.16790654 0.08590624 0.3252753
0.052883945 0.517089 0.086112775 0.36052182 0.63990986 0.33727008 0.117718436 0.32741895
0.26597515 0.06257484 0.11960493 0.23501629 0.15045068 0.39699227 0.033691425 0.22083218
0.09298729 0.79495925 0.23644273 0.062661655 0.05303714 0.14661437 0.17126946 0.12200973
0.06504777 0.097547725 0.34547055 0.1452041 0.32758057 0.46596673 0.20156056 0.13113752
0.15317056 0.14649455 0.17546044 0.123486035 0.11477197 0.12840706 0.08476813 0.18227834
0.11913013 0.34989917 0.076530136 0.14048614 0.36482316 0.06396997 0.10294378 0.12981932
0.080110855 0.13732167 0.4635618 0.07580531 0.14444464 0.54925394 0.19201641 0.13518445
0.11909946 0.71880955 0.23541284 0.6232519 0.1179576 0.18804137 0.33014753 0.09359195
0.5850724 0.50576615 0.35618916 0.15718636 0.26825425 0.13577418 0.2090945 0.4235319
0.18131776 0.16359605 0.11992305 0.11617682 0.1611535 0.45873824 0.23533835 0.43442842

batch_norm1.running_var f4 [128]
00000000: eec6 b03f f901 543e 0837 b53e fa7a cc3e
00000010: 1923 183e 3ddc 2340 45d7 0940 9adc 2d40
00000020: a663 3540 9d22 5640 92a5 0a3f f390 993d
00000030: cd84 af3e f792 243f b758 9d3e 04e7 453f
00000040: dc51 ff3e a02f 2c3e 6794 5b3e 0615 973d
00000050: a2bd b43d f81a da3e f7b2 0a3f b7e5 883e
00000060: 3fd5 1e40 cfda 063f e547 c93e 3714 003d
00000070: 209f c93e 0f24 0a40 2960 cf3d 6d8c 0b3f
00000080: 9c19 fd3e e531 5a3e cf08 9d3f 122e 9a3e
00000090: 2dfc e13f 9995 f13d 3825 853f 1680 b43d
000000a0: 2fd7 e940 d6ea 4c3f 2ce1 213e 8c58 e13e
000000b0: 4684 1a3f 1586 9e3e c003 d33d f02c 483f
000000c0: 3560 8b3d 6107 1c40 e0ce 033e d02b 1140
000000d0: 45fd e040 dff6 863f b20a 2a3e 9088 5e3f
000000e0: deda 413f a538 9d3d 6e79 703e c54e 8d3e
000000f0: 2976 693e cee8 963f dcac 4f3d 3f58 023f
00000100: 39fe ac3d 3d0a 7340 a1cd 063f 7615 363e
00000110: 74a7 6b3d 421b 483e 059c cc3e 3f2f 363e
00000120: 74a4 fc3d 7f3d 713e 34bc af3f ae37 233e
00000130: 6aff 133f 7284 613f f824 213f becc b83e
00000140: 3c76 233f cb4f 5d3e b4d7 f93e f049 113e
00000150: b12a 9f3e 57b9 ee3e 5944 ca3d 7d23 133f
00000160: 651e 873e 4d3a 493f 59e7 d33d 31c7 403e
00000170: 34bc 0b3f 371d 813d 7594 0c3e e964 5e3e
00000180: 31de 103e 5da1 3f3e 42a3 7e3f 5b22 fb3d
00000190: aee7 a93e f81c 1a40 ec0d e73e 75f9 8c3e
000001a0: a012 7e3e c3d9 b340 1d9d 873e 2ab9 5c40
000001b0: 50a7 a03e e14a 1b3f 43e2 803f 0269 1f3e
000001c0: d118 553f ba2c 1b40 714f 0040 28ef a93e
000001d0: 5fb9 dd3e 9508 343e 72b1 293f 3a80 8f3f
000001e0: 9323 bd3e 9044 9e3e e494 183e 03b5 1d3e
000001f0: 7f19 143f bad2 7e3f c093 3f3f d54f 7f3f
1.3810709 0.20703878 0.35393548 0.39937574 0.14857139 2.5603173 2.153764 2.7165895
2.834207 3.3458626 0.5415889 0.0749835 0.34281006 0.6428675 0.30731747 0.77305627
0.4986714 0.16815042 0.2144333 0.07377057 0.08825232 0.425987 0.5417933 0.2673776
2.4817655 0.52677625 0.39312664 0.03126928 0.39379215 2.1584508 0.10125763 0.5451115
0.494336 0.21308096 1.2268313 0.30113274 1.7655083 0.117961116 1.0401983 0.08813493
7.3075175 0.8004583 0.15808553 0.44012868 0.60358083 0.3096167 0.1030345 0.7819357
0.068054594 2.4379504 0.12871885 2.268299 7.0309167 1.0544089 0.16605642 0.8692713
0.7572459 0.0767682 0.23483822 0.2759916 0.22798981 1.1789796 0.05070196 0.509159
0.084469266 3.7975 0.52657515 0.17781624 0.057532743 0.19541648 0.39962783 0.1779146
0.123360544 0.23558615 1.372931 0.15939209 0.57811606 0.8809272 0.62947035 0.36093706
0.63852286 0.2161247 0.4879738 0.14188361 0.31087258 0.46625778 0.098763175 0.57476026
0.26390377 0.78604585 0.103468604 0.18825985 0.5458405 0.063044004 0.13728507 0.21718182
0.1414726 0.18713899 0.9946786 0.12262412 0.3318457 2.408018 0.4512781 0.2753407
0.24811792 5.6203322 0.26487055 3.4488015 0.3137765 0.6066113 1.006905 0.15567401
0.8324099 2.424605 2.0048487 0.33190274 0.4330549 0.17581399 0.66286385 1.1211007
0.36941203 0.30911684 0.14900547 0.15401082 0.57851404 0.99540293 0.74834824 0.9973119

batch_norm2.weight f4 [64]
00000000: f275 8c3f 94a3 8b3f a324 853f 88f4 703f
00000010: 0255 8a3f 25db 953f 9676 8d3f cd71 853f
00000020: 56f3 843f 7d72 8d3f eac8 863f 8cc3 913f
00000030: 61f6 643f 5016 883f 9d4f 763f 5bfd 813f
00000040: e910 943f 70c4 a33f e077 7f3f f9d6 903f
00000050: ad57 623f ad97 753f f304 943f 5119 903f
00000060: d58a 863f fba6 8c3f bc19 793f 7fe2 803f
00000070: 87fb 8b3f 4c7a 8d3f d00f 863f 4d53 8d3f
00000080: 39cc a53f 7010 913f 578f 993f dfb9 833f
00000090: 5144 8e3f 1c7b 893f 4d57 893f 7b01 9d3f
000000a0: ee66 963f 0542 8b3f 0655 7a3f a2d5 8a3f
000000b0: 1439 993f a835 8a3f fd0d 7d3f 2e38 8d3f
000000c0: 3b6f 823f d313 8b3f f342 7e3f 766e 803f
000000d0: ab77 873f 5a6c a03f 5b11 8c3f 3b7f 9a3f
000000e0: e998 753f aee1 8e3f 882a 873f 90ca 963f
000000f0: c8c4 9a3f 80a1 803f 9946 8d3f 7687 823f
1.0973494 1.0909295 1.0401806 0.94123125 1.0807192 1.1707503 1.1051815 1.0425354
1.038676 1.1050564 1.0530064 1.1387801 0.89438444 1.0631809 0.9621523 1.0155443
1.156766 1.2794323 0.9979229 1.1315604 0.8841503 0.95934564 1.156401 1.1257726
1.0511118 1.0988458 0.9730489 1.0069121 1.0936135 1.1052947 1.0473576 1.1041046
1.2952949 1.1333141 1.1996869 1.0291098 1.1114599 1.0740695 1.0729767 1.2266077
1.1750162 1.0879523 0.97785985 1.0846446 1.1970544 1.0797625 0.9884947 1.103277
1.0190195 1.0865425 0.99320906 1.003371 1.0583395 1.2533066 1.0942796 1.2070078
0.9593645 1.1162622 1.0559855 1.1780567 1.2091303 1.0049286 1.103717 1.0197589

batch_norm2.bias f4 [64]
00000000: 6dc7 823e 1898 5abd ff8b 313e eb2d abbc
00000010: 2b25 f63d 81f8 163d 275f 8f3d 73dd 6fbd
00000020: 0251 f73e b6ad d23c 9deb 2a3e 870c 613e
00000030: 777a a13d f18c 553e afd5 ed3d f149 323d
00000040: 5b62 8f3e b7f5 a23d 1c2d 41be f2ec 523d
00000050: 5201 4e3d f56c aabd cd15 c33d 4ea5 f43d
00000060: efa9 a23e e04f 6abd 284b ac3d c3c8 e93d
00000070: 995c db3d 550f 6e3e 833f 7b3e 8b42 e63d
00000080: ef3b 69bc 9b0f 793d ab47 7c3e 353b 35bd
00000090: 31a4 033e 6f67 8f3d 4506 8d3e 65b2 443e
000000a0: 1989 5d3e 3b38 4b3c 0efc 623e 4de2 813e
000000b0: c347 df3d 1da3 6a3a 191f a1bd e762 213e
000000c0: 6e5e b43e 980c e5bc b972 1c3e 9150 303e
000000d0: 9c97 7b3a ca3c 063d 1f34 203e 77ed 9e3d
000000e0: 52ee 31be 23a5 2a3e df1f 8f3e b11a 023e
000000f0: 60b4 573e 8e24 033e 8a08 143e bdfd 013e
0.25542775 -0.053367704 0.1733856 -0.020895919 0.12018808 0.036858086 0.07000571 -0.0585608
0.48303992 0.025717597 0.16691442 0.21977435 0.078846864 0.20854546 0.116130225 0.043527547
0.28004727 0.07957023 -0.18864864 0.0514955 0.050294228 -0.08321563 0.095256425 0.11945592
0.31770274 -0.05720508 0.084127724 0.114152454 0.10711021 0.23248036 0.24535947 0.11243161
-0.014235481 0.0608059 0.24636714 -0.044245917 0.12855603 0.0700215 0.27543846 0.19208677
0.2163433 0.012403543 0.22166464 0.25367966 0.10902359 0.00089506974 -0.078672595 0.15760385
0.35228294 -0.027960107 0.15278138 0.17218234 0.00095974817 0.032772817 0.15644883 0.077601366
-0.17376068 0.16664557 0.27954003 0.12705494 0.21064901 0.12806913 0.14456382 0.1269445

batch_norm2.running_mean f4 [64]
00000000: 3a47 433f e95a f13e cc6d c73d 98aa ca3d
00000010: eb0f b93e 4327 a93e 787e ac3e e57d 6e3e
00000020: 6a2a 813e affe 053f 8cb9 3d3e 1638 2a3f
00000030: 3aa7 9c3e 9462 f73e aa86 8c3e 6d0a 4f3d
00000040: 70e8 213f f0a6 063f ccaa 0d3e d986 0b3f
00000050: dce8 6a3d 589f 633e bcde 223e 4d67 083f
00000060: b6a0 b23e 3b9b c73e 5e95 043e 81a8 e53e
00000070: 3032 333d beae d03e 8188 d43e eae8 c73e
00000080: 5f5d 3e3f 4a2b 833f 1af4 4d3f ffac 773e
00000090: 5ca3 ed3d e58b 233e 76ec 673e 22b5 933f
000000a0: a66d 8f3d 76a3 073e 8463 4e3e 5894 f83e
000000b0: bab2 1c3f 0dd8 c73d b44d e73d 612f a73e
000000c0: 3c65 8d3e a943 173f 8fdf 053e 6d15 3f3e
000000d0: 52a5 9d3e fdeb 353f 8909 943f 3898 b33e
000000e0: 9306 733e 811a 663e 63f9 6c3f 4f7e cf3e
000000f0: 8e9a 333f 01dd f03d 36e9 9b3e 31d2 4c3e
0.7628056 0.4713967 0.09737739 0.098958194 0.36144957 0.33037767 0.33690238 0.23290212
0.25227672 0.5234174 0.18527812 0.6649183 0.30596334 0.48317397 0.2744649 0.050547052
0.63245296 0.52598476 0.13834685 0.54502636 0.05735098 0.22228754 0.15905279 0.53282624
0.34888238 0.3898562 0.12947604 0.4485512 0.043749034 0.40758318 0.41510394 0.39044887
0.74361223 1.0247586 0.80450594 0.24187087 0.11603424 0.15971334 0.22648796 1.1539652
0.07003336 0.13245949 0.2015515 0.48550677 0.61210215 0.09758005 0.112941176 0.32653335
0.27616298 0.59087616 0.13073562 0.18660517 0.30790192 0.71063215 1.156541 0.3507707
0.23732977 0.22471048 0.92568034 0.40526053 0.70157707 0.11760903 0.30451363 0.20002057

batch_norm2.running_var f4 [64]
00000000: c0f1 7d40 5119 c53f e2b9 c63e 3f7e 693e
00000010: e18a c13f d396 5e3f d9f3 e83f 23fd 453f
00000020: a897 3e3f 5994 8240 398d 033f 1072 fa3f
00000030: 9539 5c3f e03b ba3f 91d1 243f b966 203e
00000040: c6a9 1b40 7fd9 7840 a48c 253f 2ca5 8740
00000050: 7943 153e 00ef 743f 2cc6 d63e 2d40 8f40
00000060: 9f8b 8c3f d140 2340 a7bc d43e 21ed 2640
00000070: c0f2 123e b573 e93f d3b8 863f ea00 e33f
00000080: 339c 0041 5857 0341 e512 9b40 0fa4 1c3f
00000090: 7e44 fd3e b617 723f 5adc 153f c3e3 0441
000000a0: 0752 4f3e bf4b 953e c978 2b3f 0806 f53f
000000b0: f0ae 0440 767e 6c3e acae bd3e f730 703f
000000c0: 0c46 423f 4e65 6540 9ab1 0d3f b8d6 163f
000000d0: f7cd 903f e1eb a940 15bd 0241 90bd 3340
000000e0: 031b 8f3f 08e3 863f 3b41 d840 84dd b73f
000000f0: f44b 4540 dc72 cf3e d0b2 3d3f 2b2d 933f
3.9678802 1.5398351 0.38813692 0.22802065 1.5120507 0.8694889 1.8199416 0.7733938
0.7445016 4.080609 0.51387364 1.9566059 0.86025363 1.4549522 0.6438227 0.15664186
2.4322371 3.888275 0.64667726 4.2389126 0.1457652 0.95677185 0.41948068 4.476584
1.0980109 2.550831 0.4155018 2.6082232 0.14350414 1.8238436 1.0525154 1.7734654
8.038135 8.208824 4.8460565 0.61187834 0.49466318 0.9456743 0.58539355 8.305606
0.20246135 0.29159352 0.6698118 1.9142466 2.0731773 0.23095116 0.37047327 0.93824714
0.75888133 3.5843081 0.55349123 0.58921385 1.1312855 5.310044 8.171163 2.808445
1.1180118 1.0538034 6.7579627 1.4364476 3.0827608 0.40517318 0.7410097 1.1498159

batch_norm3.weight f4 [32]
00000000: 6946 bd3e 1e45 cb3e 9f20 be3e 494c d33e
00000010: bf7b da3e 00e1 b43e 5f2c b03e ec22 cb3e
00000020: 127a ca3e a719 b83e ce77 bd3e ed44 c33e
00000030: 144c c43e f08a bb3e bac7 cd3e b7ff b83e
00000040: 3ee3 c83e f941 b93e 6537 ae3e 2895 c73e
00000050: ecc7 cc3e 4961 b63e b4f0 c73e 7d9f cd3e
00000060: bb93 b43e b066 c13e 3218 bf3e 1236 aa3e
00000070: 93c6 cf3e fb56 b93e ef0b b83e 2017 af3e
0.3696778 0.3970117 0.37134263 0.41269138 0.42672536 0.3532791 0.34408852 0.3967508
0.39546257 0.3595707 0.37005466 0.38138524 0.38339293 0.36629438 0.40191442 0.36132595
0.39235872 0.36183146 0.34026638 0.38980985 0.39996278 0.35621098 0.3905083 0.40160742
0.3526896 0.37773657 0.37323147 0.33244377 0.40581188 0.36199173 0.35946605 0.3419733

batch_norm3.bias f4 [32]
00000000: 7cc6 38be c73e 4f3e adba 133e 049d 3f3e
00000010: 5aea e1bd 7cde f9bd 8fdd de3d b9df 343e
00000020: 0ee3 563e 91e3 173e 866a e53d eddf f6bd
00000030: f53c 3a3e fa18 90bc bd35 31be 5804 c73d
00000040: 99fd 19be 74ef 003e 4a06 1d3e 2b8b 56bc
00000050: 2dd9 75bc f167 1e3e 042b 223e 9900 833e
00000060: 7676 e2bd a05e 12be ed12 1bbe 8e93 b63d
00000070: eec2 093e 4d33 10be c31f 16be 163a 2e3e
-0.18044466 0.20238791 0.1442668 0.1871224 -0.11031027 -0.12200639 0.10882103 0.17663468
0.20985052 0.14832903 0.11201958 -0.12054429 0.18187316 -0.017590035 -0.17305656 0.097176254
-0.15038146 0.12591344 0.1533443 -0.013094704 -0.015005392 0.15469338 0.15836722 0.25586393
-0.11057751 -0.14293909 -0.15143938 0.089148626 0.13453266 -0.1408207 -0.14660554 0.17014346

batch_norm3.running_mean f4 [32]
00000000: 9519 d03f cfe8 2740 cd6c b53f 52a5 2840
00000010: 9c43 783f a1df 8a3f a4bf 0640 2088 0940
00000020: 6c88 0540 6c3f 0b40 5692 a23f 7cd5 ef3f
00000030: 13a6 3840 4c34 e93f e7b1 e43f b8e6 933f
00000040: ce9f e43f 6e7c cd3f e0cc 0c40 29ae ad3f
00000050: e5b8 be3f fd95 773f 3cef 0e40 f757 973f
00000060: 6096 cd3f ab37 b63f e65e dd3f 5346 8f3f
00000070: 84ea a23f 9c75 d23f f64f 2f3f a5c0 2640
1.6257807 2.6235845 1.4173828 2.6350904 0.96978164 1.0849496 2.1054468 2.1489334
2.0864515 2.175746 1.2700908 1.8737025 2.8851364 1.8219085 1.7866791 1.1554785
1.7861269 1.6053598 2.2000046 1.3568774 1.4900175 0.9671324 2.2333517 1.182372
1.6061516 1.4235739 1.7294586 1.1193336 1.2727818 1.6442142 0.68481386 2.605508

batch_norm3.running_var f4 [32]
00000000: 05de 2e41 c1cf 2e41 9ec8 9840 fb82 3741
00000010: 8e7d b740 0e1d 8a40 b2dd 2141 3581 0041
00000020: 807f f140 1912 0741 064a 8d40 3d32 8941
00000030: a813 7041 38bc 0341 a861 7b41 a486 8240
00000040: 42d8 7f41 e4c2 c640 6b68 2d41 2ac3 af40
00000050: 1068 1e41 c7a2 3a40 9309 3d41 f2f7 4e40
00000060: c679 6041 82e0 3541 985b 7041 3361 8540
00000070: 549d eb40 509b 7641 7ba0 8a40 1278 4141
10.929204 10.925721 4.7744894 11.469478 5.7340765 4.3160467 10.116625 8.031545
7.546814 8.441918 4.415286 17.14953 15.004799 8.233452 15.711342 4.0789356
15.990297 6.2112904 10.837993 5.4925737 9.900406 2.9161851 11.814837 3.2338834
14.02973 11.3673115 15.022362 4.168115 7.362955 15.412918 4.33209 12.091814
