backend/data/turbomode_models/lstm/model.pt (torch, 401081 bytes, 22 tensors)

lstm.weight_ih_l0 f4 [256, 179]
000000 44 f5 97 bd 88 72 e5 bd 9e 76 81 3d 48 ac e2 bd
       -0.074198276 -0.11203486 0.063214526 -0.11068016
000010 fc 00 c8 bd c0 54 9a 3b dc 18 df bd f4 0b 01 bd
       -0.09765813 0.00470981 -0.108934134 -0.03150554
000020 f4 aa 91 bd 47 ec 4a bd 5d e4 2c bd 48 58 6c 3d
       -0.07112685 -0.049541738 -0.04220997 0.05770138
000030 dd f3 7d 3d 92 28 bb 3d 04 53 30 3d 6c 5b 47 3d
       0.062000144 0.091385975 0.04304792 0.04867117
000040 ea 4d 6b bd 80 32 de ba 18 60 a8 bc 9a 21 91 3d
       -0.05744735 -0.0016952306 -0.020553634 0.07086487
000050 7a a6 f7 3d 88 82 95 bd d8 b3 ed 3d d4 3e 24 bd
       0.120923 -0.073002875 0.11606568 -0.04009898
000060 50 51 fb bd 78 dc 2c bd 81 a6 c2 3d 25 7e d6 bc
       -0.122713685 -0.042202443 0.09504414 -0.026183197
000070 8c dc 64 3d 6a 18 ec bd 73 0e c8 3d f2 77 fa bc
       0.055874392 -0.11528094 0.09768381 -0.030574773
000080 96 63 01 bd a4 0f 8f 3d e6 5f 8c 3d 30 e6 03 3d
       -0.031589113 0.06985405 0.06854229 0.032201946
000090 00 54 fd 39 5d 24 97 bd f7 c3 a3 bd be ad a3 bc
       0.00048318505 -0.073799826 -0.07996362 -0.019980308
0000a0 27 3f 94 bd 50 74 ff 3c c4 d4 49 bd e8 1b e2 3d
       -0.07238608 0.031183392 -0.049275175 0.11040479
0000b0 36 e3 95 3d e4 3f e8 bd 4e 38 e2 bd 7e bf a1 bd
       0.07318728 -0.11340311 -0.110458955 -0.07897852
0000c0 e0 f6 6c 3d 04 b9 24 3d dd 03 ce bc 76 28 83 3d
       0.057852626 0.040215507 -0.025148327 0.06404202
0000d0 03 e8 a3 bd 80 10 c0 bc f4 74 f1 3d 58 ee b3 bd
       -0.08003237 -0.023445368 0.11789885 -0.08785695
0000e0 45 a7 a0 bd 20 47 7c bc 64 8c 14 3d d4 6c 56 bd
       -0.07844404 -0.015397817 0.0362667 -0.05234988
0000f0 04 95 b3 bd 5e 06 5d bb a0 a6 f7 bb 5b 50 8a 3d
       -0.08768657 -0.003372572 -0.007557705 0.06753608
000100 48 83 4f 3d 66 ef 8b 3d f0 21 e7 3c 30 a5 fd 3c
       0.05066231 0.06832771 0.028214425 0.030962557
000110 d8 7e f1 bc d4 9b 05 bd 54 63 bd bd fe 9b a8 3d
       -0.02947943 -0.032619312 -0.09247461 0.08232878
000120 ba 84 44 3d 16 70 fd bd da ff d6 bd 90 2c 48 bc
       0.04797814 -0.12374894 -0.104980186 -0.012217656
000130 58 a8 b9 3c 00 05 a2 3d 80 d1 8f 3a fa 73 fa bd
       0.02266328 0.0791111 0.001097247 -0.12229152
000140 68 23 eb 3d a6 0d e3 bd 56 e4 a6 3c ae 19 59 bd
       0.114813626 -0.110865876 0.020372551 -0.053003006
000150 4b 4e cc bd e8 bd 0e 3d f8 d1 17 bd 38 ee 35 bd
       -0.09975871 0.034849077 -0.037065476 -0.044416636
000160 f0 ab eb bd 98 96 ec bc 22 69 b9 bd 40 90 92 bc
       -0.11507404 -0.028880402 -0.090532556 -0.01789105
000170 18 1b 0b 3d a8 43 99 3c e0 47 88 3b 2b 7e 87 bc
       0.033961385 0.018709019 0.004158959 -0.016539654
000180 5b d1 fd 3c 7f 32 7b bd a9 42 8f bd 06 fb fe 3d
       0.030983618 -0.061327454 -0.06995136 0.12450223
000190 98 e9 8e 3d 04 a3 00 bd 1c a6 08 3d e7 c4 8a 3d
       0.06978148 -0.031405464 0.03336154 0.067758374
0001a0 cb 17 ad bd db 5d 96 3d 70 77 b2 bc 3d c1 f6 3c
       -0.08451804 0.0734212 -0.021785468 0.03012144
0001b0 9f b6 1b bd 20 a6 d3 3c c6 23 93 bd 50 f0 c8 bc
       -0.038015958 0.02583605 -0.071845576 -0.024528652
0001c0 cc 92 33 3d 60 6b 33 bc e8 76 93 3d 98 ce da bc
       0.04384117 -0.010950893 0.07200414 -0.02670984
0001d0 e6 52 a0 bd 3d 12 8c 3d e6 30 d9 bb d1 21 5d 3d
       -0.078283116 0.06839416 -0.0066281436 0.053987328
0001e0 7f 0d c4 bd d9 84 82 3d eb 55 83 3d b7 ec d3 3d
       -0.09572887 0.06372995 0.06412872 0.10347884
0001f0 81 07 29 bc 5b 97 c4 3d b6 7a 56 3b 00 1f d7 bd
       -0.0103167305 0.09599181 0.003272695 -0.1050396
000200 ec 82 f1 3d cf ce b8 3d 66 25 ea bd a5 ba 89 3a
       0.117925495 0.090238206 -0.114329144 0.0010507895
000210 3c f8 8d bd 2e 46 c3 bd 48 76 bc bc d4 d2 7a 3d
       -0.069321126 -0.0953487 -0.02300562 0.061236218
000220 74 7c 85 3d ed 1d ed 3d bb 5b c0 3d 5e 86 d2 3d
       0.06517878 0.115779735 0.09392496 0.10279535
000230 4a 3d d7 3d 4d d6 68 bc 96 f3 fd bd f0 2d 1b 3c
       0.10509737 -0.01421125 -0.12399976 0.009471402
000240 30 4d 0e 3d b4 d8 de 3d f8 ed 44 bd ff 24 bf bd
       0.03474158 0.108811766 -0.048078507 -0.09333228
000250 e3 10 08 bd 8f de bd 3d 2e f8 c6 3d 6a 9f 86 bd
       -0.03321923 0.09270965 0.09715305 -0.065733746
000260 28 65 91 bd f0 ff a0 bc 86 e6 9d 3d 87 67 8f 3d
       -0.07099372 -0.01965329 0.077099845 0.07002168
000270 6c 94 2c bd 5e 71 e0 bd 3f 1d e7 3b 80 be a3 3d
       -0.042133734 -0.10959123 0.007053047 0.07995319
000280 5f 85 13 bd a9 bb 13 bd 25 86 fb 3c f6 d4 03 bd
       -0.036015864 -0.03606764 0.030703614 -0.032185517
000290 6c 4e aa bd 16 a2 67 3d 13 bf 34 bd f7 85 50 3d
       -0.08315739 0.05655106 -0.044127535 0.05090901
0002a0 c4 87 34 bd 38 62 0e bd 4c 18 3f 3d 50 9c 25 bc
       -0.04407479 -0.034761637 0.04665403 -0.010108069
0002b0 98 e0 48 3d 18 2c c5 3d e8 d1 ff bc 04 45 5e 3d
       0.049042314 0.09627551 -0.03122802 0.054265037
0002c0 8c b6 df 3d 75 9c 95 3d d8 02 fa 3d c0 bc c4 3b
       0.1092349 0.073052324 0.12207574 0.006003946
0002d0 60 69 45 bd 44 8b ab 3d 4c af 8f bd f0 6f ed 3c
       -0.048196197 0.08376172 -0.07015857 0.02898404
0002e0 c4 4b cc bd d8 12 78 bd 08 34 32 bd 28 c3 52 bc
       -0.09975389 -0.060564846 -0.043506652 -0.012863912
0002f0 9e 5d 51 3d c9 5d a0 3d ec d4 f8 3d e3 50 b7 3d
       0.05111467 0.07830388 0.121499866 0.08950975
000300 b0 04 e4 bc 10 de 56 3c 40 1a 8c 3c 0c 38 1a bd
       -0.027834266 0.013114467 0.01710236 -0.037651107
000310 80 45 69 3b a4 95 4a bd f4 ef 49 bd 00 84 17 39
       0.0035594404 -0.049459115 -0.049301103 0.00014449656
000320 4f 23 bf bd f0 40 64 bc e2 cd c9 3d 54 7e ac bd
       -0.093329065 -0.013931498 0.09853722 -0.08422533
000330 f0 3f 3f 3c 51 b3 97 3d 1a 98 c7 3c 6e f2 81 3d
       0.011672959 0.07407249 0.02436452 0.06345068
000340 ee 48 8f 3d 83 97 24 3d 74 92 8d bd 4c f7 d3 3d
       0.06996332 0.040183555 -0.06912699 0.103499025
000350 75 e4 9a 3d 57 12 e9 3d 50 4c 21 bc be 44 f4 bd
       0.07563106 0.11380451 -0.0098448545 -0.11927174
000360 3d 8f a5 bd b9 e5 69 3d ad b1 e3 3d c5 ff f6 3d
       -0.08083961 0.057103846 0.11117873 0.12060503
000370 c0 61 53 3d 50 f7 2f bc 1c 29 88 3d d8 ac 9b bc
       0.051606894 -0.010740116 0.06648466 -0.019003317
000380 60 c4 95 bc 14 18 f8 3b 78 22 d7 bc da a2 45 3d
       -0.018282115 0.0075712297 -0.026261553 0.04825101
000390 34 0e 36 bd 34 e6 dd 3a 61 7e 84 bd 8b f9 bb 3d
       -0.04444714 0.0016929568 -0.06469417 0.09178456
0003a0 60 ed 3b bd b6 d4 8e bd 40 2c 9d bc 86 f0 16 3d
       -0.045880675 -0.06974165 -0.01918614 0.036850475
0003b0 ea 1a a7 3d 30 c8 b1 bd d0 c3 99 bc 71 1a 2b 3d
       0.0815943 -0.08680761 -0.018770128 0.041773263
0003c0 85 4e 78 3d 10 d8 ee bc df fa 52 3c 3c 3d e6 3d
       0.060621757 -0.029155761 0.012877195 0.11242148
0003d0 68 e5 aa 3d 68 95 b2 bc 76 05 d4 bd e0 c6 6d bc
       0.08344537 -0.021799758 -0.10352604 -0.0145127475
0003e0 d8 96 aa bc 78 05 ce 3d 98 8d 9a 3c 1a ac 50 3d
       -0.020823881 0.10059637 0.018866345 0.05094538
0003f0 c4 7c b8 bd 10 67 a9 3d 34 bd 41 bd 3c e9 0a bd
       -0.09008172 0.08271611 -0.04729958 -0.033913836

lstm.weight_hh_l0 f4 [256, 64]
000000 62 1c c5 3d 3b fc 1b bd 3b 30 a6 bd 01 5d 86 bd
       0.09624554 -0.038082343 -0.08114668 -0.06560708
000010 d0 ed a1 bd 3a 36 7c bd 7b b7 89 3d 8b f5 6a 3d
       -0.07906687 -0.061575152 0.06724449 0.057363074
000020 b0 38 aa 3d e6 b1 84 3d 1a 27 05 3d 96 c1 a6 bd
       0.083115935 0.06479244 0.032507993 -0.08142392
000030 99 56 61 bd f1 94 2b bb 1d 2b c0 3c de 81 e2 bc
       -0.055014227 -0.0026181305 0.023458058 -0.027649816
000040 ba aa 98 3b 5e ce 67 3c 3c 59 11 3d ab 82 f8 bd
       0.004659024 0.014148323 0.03548549 -0.12134298
000050 4d 4e 54 3d d5 03 9b bd 2c 88 85 bd 2a 38 c2 bd
       0.051832486 -0.0756909 -0.06520113 -0.09483369
000060 8c 1f aa bd 18 51 c3 bd 55 48 aa bd 99 9a 53 bc
       -0.08306798 -0.09536952 -0.083145775 -0.012915277
000070 5d 14 7d 3c 47 a5 53 3c 1d cf 85 3c 3d 3f 97 3b
       0.0154467495 0.012917823 0.01633411 0.004615693
000080 77 08 88 bd 9d 9b 6b bd 66 e3 95 3d f9 6d 93 bd
       -0.066422395 -0.05752145 0.073187634 -0.0719871
000090 91 0b 52 bd 6a a5 c8 3d ff db f4 bd a2 54 d5 3d
       -0.05128056 0.09797175 -0.119560234 0.10416533
0000a0 e6 aa ec bc 91 5a 9f bd 90 04 90 bc 3d 20 e5 3d
       -0.028890084 -0.07780946 -0.0175803 0.111877896
0000b0 0b 03 57 3d 48 96 5a 3d 6f 75 d1 3d 06 83 a6 bc
       0.052493136 0.053365976 0.10227477 -0.020326149
0000c0 87 d5 9c 3d 86 7d cd bd f1 9c 9c bd bd 10 3e 3d
       0.076579146 -0.10033707 -0.07647122 0.04640268
0000d0 f1 20 e8 3d 6f 39 5e 3d 14 2f 43 bd 00 c4 24 bc
       0.11334408 0.05425399 -0.04765232 -0.010056496
0000e0 91 52 5f bd a1 03 ec 3d 59 48 95 3d 86 ab 8f 3d
       -0.0545221 0.1152413 0.0728919 0.070151374
0000f0 a3 f4 c7 bd 80 32 ac bd 22 d2 7b 3d 1f c0 b8 bd
       -0.097634576 -0.084080696 0.061479695 -0.09021019
000100 0e 2d d8 bd a9 2d 84 3c 84 0f 34 3d d8 9c a1 bc
       -0.105554685 0.016135054 0.04396011 -0.01972811
000110 bc 0b 8a 3d a9 94 34 3d 63 f3 28 bd 28 8c ab bd
       0.067405194 0.044087086 -0.041247737 -0.08376342
000120 ed 54 c1 3d 41 a5 ad bc f4 c5 c5 3d 74 4f b1 3b
       0.094400264 -0.021196963 0.09656897 0.005411083
000130 3f 48 60 3d 6d c3 17 bd 0a 53 6d 3d be 11 fc 3d
       0.0547564 -0.037051607 0.05794052 0.123080716
000140 c5 cc 1c bd c7 87 f5 3c d6 ab a8 bd 45 5a 0a bc
       -0.03828122 0.02997197 -0.082359 -0.0084443735
000150 fd 6b 5e bd 3a c7 e6 bd 96 65 bb 3d 00 9b 36 3d
       -0.054302204 -0.11268468 0.09150235 0.044581413
000160 37 b2 5e 3d 23 1d 16 bd 49 2f ce bc e7 d9 c8 3d
       0.054369178 -0.03664888 -0.025169032 0.098071866
000170 80 ed f1 bc c4 fd 58 3c ba bc 9a 3d 5d df e3 bd
       -0.029532194 0.013244096 0.07555528 -0.111265875
000180 b6 df e0 bd e6 43 00 be 1b 3d 9a 3d 2b 43 91 3d
       -0.109801695 -0.12525901 0.07531186 0.070928894
000190 ee 2c bf bd 54 3f 9a bd bc e8 d5 3b 58 24 49 bb
       -0.093347415 -0.0753161 0.0065279882 -0.0030691829
0001a0 13 a6 cb 3d 5d 02 a7 3d 4c 36 ec 3c ef 60 4b bc
       0.099437855 0.08154748 0.028834485 -0.0124132475
0001b0 78 69 c9 3d 86 45 e0 bd 18 6f ab 3d ec 20 ce bd
       0.0983457 -0.109507605 0.08370799 -0.10064873
0001c0 dc 4e 8b bd 4d 36 1c bd 5e 47 b3 bd 5c fc f6 bd
       -0.068021506 -0.038137723 -0.087538466 -0.120598525
0001d0 3c 3e e8 bd f7 ca 70 bd 2f 3b 73 3d 1f d5 cc 3c
       -0.11339995 -0.058787312 0.059382614 0.025003968
0001e0 a5 92 f9 3c 55 2a d0 3c 2d c5 62 bd c9 b7 f9 3d
       0.030465433 0.02541081 -0.055363823 0.12193257
0001f0 55 78 0b bd 65 6a c1 3d 0d 11 68 bd dc 7e cb 3d
       -0.034050304 0.09444121 -0.056656886 0.09936306
000200 7a 1f 7d 3c df 72 de 3c ed 28 55 bd 87 75 d1 3d
       0.015449399 0.027154384 -0.052040983 0.10227495
000210 66 ac 54 bd dc c2 11 3d 58 a1 d1 3d d9 65 86 bd
       -0.051922224 0.035586223 0.10235852 -0.06562395
000220 dc ad 9a 3d a7 f9 97 3d 5f f0 fc 3d ce f9 b6 bd
       0.07552692 0.07420664 0.12350535 -0.08934365
000230 96 a3 73 3b aa 2a 8c 3c 5d 66 d4 3b 4f cf c6 bd
       0.0037176362 0.017110188 0.006481929 -0.0970751
000240 d7 05 7f 3c d6 e0 b2 bd da b9 bf 3d 01 9c 56 bd
       0.015565357 -0.0873429 0.0936162 -0.05239487
000250 9a 0c 46 bb 93 47 98 bd 45 99 b8 bd 70 80 e4 bd
       -0.0030219913 -0.07435527 -0.09013609 -0.1115731
000260 36 ec 1a bd a5 d5 96 3d d9 3c b1 3d 67 37 18 3c
       -0.037822925 0.07364968 0.08654184 0.009290553
000270 86 0e ce 3d 8a c4 e0 3d 76 a7 a1 bc cd 59 57 3d
       0.10061364 0.10974987 -0.019733172 0.052575875
000280 64 48 b7 3d 96 3e a3 bc 36 90 b9 bd 9c b9 54 ba
       0.08949354 -0.019927304 -0.09060709 -0.0008114816
000290 4c b5 85 3d ed 48 52 3d c0 e2 1d bc cc 62 67 bd
       0.0652872 0.05133908 -0.009636581 -0.056490704
0002a0 34 6e 8a 3c a0 18 e6 3c c3 b0 c4 3d fc f9 f5 bd
       0.016898252 0.028087914 0.09604027 -0.12010571
0002b0 eb 70 44 3d ce 52 c8 bd d1 e6 86 bd 1a 26 45 bd
       0.04795925 -0.09781419 -0.065869935 -0.04813204
0002c0 8b ac ab bb 3c 8c a2 bd c3 a2 d9 3d de 23 ba 3d
       -0.0052390746 -0.07936904 0.106267475 0.090888724
0002d0 cf 5a d6 3c 5f 7a 8d bb 21 01 03 3e 94 7b 80 bd
       0.026166348 -0.0043175663 0.127934 -0.06273571
0002e0 32 77 13 bd c7 d5 a6 bd d2 d7 ed 3d c9 08 ba bc
       -0.036002345 -0.081462435 0.1161343 -0.022709267
0002f0 c0 74 b1 3d 32 50 9b bc a7 1c 70 3b 88 27 36 bc
       0.086648464 -0.018959139 0.0036638172 -0.011117823
000300 32 e4 d0 bd 2f 34 d3 bb 83 59 b1 3d b7 2f 57 3d
       -0.10199775 -0.0064454298 0.08659651 0.05253574
000310 b0 d4 d6 3c 6b f0 1e 3d b1 7d ad bd 47 e3 02 be
       0.026224464 0.0388035 -0.08471239 -0.12782012
000320 a2 d9 d4 bd da e7 2c bd 9f 53 70 bd 10 12 d6 bc
       -0.10393073 -0.0422133 -0.058673497 -0.02613166
000330 bd 38 f4 bb 9e 0b e5 bc cb 63 01 3e fe 2f 97 bc
       -0.007453053 -0.027959641 0.12635724 -0.018455502
000340 26 9e 34 bd 6d 54 dc bd 3a 23 57 3d ef 33 69 3d
       -0.044096135 -0.107582904 0.05252383 0.056934293
000350 30 af c6 3d 67 43 c1 bc 2e c1 78 3d f8 15 3d 3d
       0.09701383 -0.02359171 0.060731106 0.04616353
000360 05 46 46 3d 5a 53 72 bd e0 ae ca 3d 9c 35 73 bd
       0.04840662 -0.05916152 0.09896636 -0.059377298
000370 d0 ce b2 3d 46 78 c6 bd db 82 87 bd 1c b3 f8 bd
       0.087308526 -0.09690909 -0.066167556 -0.121435374
000380 58 de e5 3d ff 04 08 bc b8 80 b6 3c 08 b0 14 3d
       0.11224049 -0.008301972 0.022278175 0.03630069
000390 a8 27 b6 3d 54 ce 8f 3d 13 79 29 bd fd bf d7 bd
       0.088942826 0.07021776 -0.04137523 -0.10534666
0003a0 f1 17 b6 3d 67 bd 8a 3d b9 92 58 3d 54 1d 85 3c
       0.08891285 0.06774407 0.0528743 0.016249336
0003b0 61 1e 9a 3d 32 82 1d bd 25 42 22 3d 99 22 74 3d
       0.075253256 -0.038454242 0.03961386 0.059603307
0003c0 80 b3 9b 3d a5 fa 9b bd ee cb 12 bb e3 93 bb 3c
       0.07602596 -0.07616166 -0.0022399384 0.022897666
0003d0 65 47 26 3b fa 44 b9 bc 8d ca d3 3d b6 58 8a 3d
       0.0025372144 -0.022615898 0.10341368 0.067552015
0003e0 39 98 0f 3b 43 be 98 bd 4b 9f 83 bd d7 8b dc bd
       0.00219108 -0.074581645 -0.06426867 -0.1076886
0003f0 84 dd 68 bc 68 46 3a bd 1c 97 11 bd 5e bc c2 bd
       -0.01421297 -0.0454773 -0.0355445 -0.095085844

lstm.bias_ih_l0 f4 [256]
000000 06 b9 a1 3d 4e 5c d7 3c 88 24 a4 3c c2 14 e4 3d
       0.078966185 0.026289131 0.02003695 0.11136772
000010 1c e6 bb bd d9 74 fe 3d e1 e0 b2 3d 63 81 ad 3d
       -0.09174749 0.12424631 0.087342985 0.08471944
000020 0d 5f ae 3c f7 5a a4 3d c7 6c 64 3d a5 ce b1 bd
       0.021285558 0.08025163 0.0557678 -0.086819924
000030 ca 56 d4 bd df 07 36 3d 24 8a 89 3d 7a 2e 4f 3d
       -0.10368116 0.0444411 0.06715801 0.050581433
000040 29 3e c4 bd 1f 29 cb 3d 61 cd 7d bd 26 b9 a0 3c
       -0.095821686 0.099199526 -0.061963443 0.019619536
000050 e4 e8 e3 bc f8 23 a6 bd 2a ba f1 3d f1 cd 39 3d
       -0.027821012 -0.08112329 0.11803086 0.045362417
000060 76 c8 85 bd 18 0b 85 3d 87 be df 3b 34 5c 8e 3d
       -0.065323755 0.064962566 0.0068281326 0.0695118
000070 1d 23 ee bd 8b 48 1b 3d 0a aa cd 3b 39 01 48 bd
       -0.11627791 0.03791098 0.0062763738 -0.04882929
000080 9f 64 c0 3d d2 5e 80 3d ac e1 96 3d 16 d3 44 bd
       0.09394192 0.062680855 0.07367262 -0.04805287
000090 12 82 ce 3d 7f d3 45 bd 64 ee 63 bd ad 30 49 bd
       0.10083403 -0.0482974 -0.05564727 -0.049118686
0000a0 e3 cb ac 3d 13 50 97 bc 52 30 c9 bd 73 92 5a 3c
       0.08437326 -0.0184708 -0.098236695 0.01334058
0000b0 f0 c9 ea 3d f7 da 59 bd 99 42 bd 3d 9a f3 51 3d
       0.11464298 -0.053187337 0.09241218 0.051257707
0000c0 76 2d f2 bd f5 99 77 3d 3d d6 df bc 16 52 8d 3d
       -0.11825077 0.06044956 -0.027323836 0.06900422
0000d0 3a 59 15 bd 6f 05 1b bb c2 e8 e0 bd 74 09 5a 3d
       -0.036462046 -0.0023654362 -0.10981895 0.05323167
0000e0 6c 83 48 bd 98 f3 4e 3d 78 6b ed 3d 1d bd f6 bd
       -0.04895346 0.050525278 0.11592764 -0.12047789
0000f0 da 81 da 3d 46 77 8a bd 2f 3a 3e bd 6b 54 86 bd
       0.106692985 -0.06761031 -0.046442207 -0.0655907
000100 ec 28 d3 3d 90 21 80 bd fa 42 ff 3d 59 ad e4 3d
       0.103105396 -0.062564015 0.12463947 0.11165876
000110 9e ad d6 3d 10 44 b7 3d 13 c9 ff 3c 0f 1f 80 3c
       0.104823336 0.08948529 0.03122381 0.01563981
000120 b4 99 02 bc d3 d0 9d bd 5c eb d5 bd 62 4d e7 bd
       -0.007971216 -0.07705846 -0.10445282 -0.112940565
000130 2b f3 a2 bd dd 59 93 3d 98 c5 d8 3c 20 ae ab 3d
       -0.07956537 0.071948744 0.026461408 0.08382821
000140 bb 33 88 3d 3e 8e bc bd 47 80 b6 bd 64 a1 d8 3d
       0.06650492 -0.09206818 -0.08911186 0.10577658
000150 f2 4d 3e bd 1d 04 ef 3d 52 de 8d bc 34 09 3b 3d
       -0.046461053 0.116707064 -0.017317925 0.045663074
000160 29 94 ac bb 48 29 ef bd ef ad d5 3d a2 20 f6 bd
       -0.0052666855 -0.11677796 0.10433566 -0.12017943
000170 8c da 89 3d 0f bf 96 3d 06 b1 e0 3d 0e f8 5f bd
       0.06731138 0.0736066 0.109712645 -0.054679923
000180 b6 53 1b 3d f6 27 8e 3d 88 45 45 3d c5 60 9e bd
       0.03792163 0.06941216 0.048162013 -0.07733301
000190 e6 b2 d1 bd a2 ce ab 3d a0 c4 0d bd 1f b3 76 bb
       -0.102392 0.083890215 -0.034611344 -0.0037643386
0001a0 f2 76 89 3c 6e 15 90 bd b8 92 ae 3d d2 4d 97 bd
       0.01678035 -0.070353374 0.08524078 -0.0738789
0001b0 ac c0 79 3d 82 f9 53 3b 3c 16 d5 3d 0c e3 d6 bd
       0.06097476 0.0032344763 0.104046315 -0.104925245
0001c0 34 03 11 bd ee 8e b2 bd 34 f5 b4 3c 42 50 86 3d
       -0.035403445 -0.08718668 0.022089578 0.06558277
0001d0 39 af de 3d 45 7d eb 3c 84 90 9d 3d 5d c6 9a 3d
       0.10873265 0.028746257 0.0769358 0.07557366
0001e0 e0 3f 25 3d 22 e3 90 3c 4e fd a6 bd b8 f9 93 3c
       0.04034412 0.01768643 -0.08153783 0.018063411
0001f0 ad 62 c9 bd c4 6e 3a 3d 9b d4 4e 3d d4 ff 92 bd
       -0.09833274 0.04551579 0.050495725 -0.071777016
000200 ae a2 f3 bd 76 33 fb bd ab 6f 9a 3c 81 ae da bc
       -0.11896263 -0.12265675 0.018852076 -0.026694538
000210 fa da d1 3c 6c 59 c0 bc cf 12 e7 3d f4 70 a9 3d
       0.025617111 -0.02348014 0.11282884 0.08273497
000220 52 c8 80 bc 9d b2 c0 bd f4 3d da bd 63 18 d1 3d
       -0.01572052 -0.09409068 -0.10656348 0.102097295
000230 7f da da bd c1 82 1a bd 3f 7a d7 bd 8a d5 30 bd
       -0.10686206 -0.037722353 -0.105213635 -0.043172397
000240 bd 2c d1 3d 5e 8f a0 3c 7e 39 12 3d ec 1f eb 3c
       0.10213611 0.019599613 0.03569936 0.028701745
000250 b6 e7 b4 3d 39 18 23 bd 50 90 b3 bd 3e 75 86 bd
       0.08833258 -0.039818022 -0.0876776 -0.06565331
000260 39 8d db 3d 5a cb 7f 3d 47 45 e8 39 8d ca 62 bd
       0.107202955 0.06244979 0.00044302104 -0.05536895
000270 23 8c 36 3d 61 e2 0b bd 55 04 44 3b 88 8d b8 3d
       0.04456724 -0.03415144 0.0029909809 0.0901137
000280 9d 75 9e bd dc 42 cc bb 45 45 33 bc d4 f6 d1 3d
       -0.07737277 -0.006233556 -0.010941808 0.10252157
000290 76 9c e6 3c 1b ec 85 bd e4 41 b6 bd a8 f8 cf ba
       0.028150778 -0.06539174 -0.088992864 -0.0015866952
0002a0 18 6b a4 bd 82 7f 61 3d d6 3b e4 bd 96 35 a1 3d
       -0.08028239 0.05505324 -0.11144225 0.07871549
0002b0 c3 4c a0 bd e1 3d 7f bc ea c9 71 bc a7 59 a4 3d
       -0.07827141 -0.015578718 -0.014757613 0.08024912
0002c0 7f 65 dc 3d f0 3c c2 bd 36 bb b8 bc 9a 05 dc bb
       0.10761546 -0.09484279 -0.022550207 -0.006714535
0002d0 89 88 e7 ba b7 ed 4b bd 77 4e 4f 3d ab 67 e7 bd
       -0.0017664592 -0.04978725 0.05061194 -0.1129907
0002e0 98 45 eb 3b fe da ae bc d0 04 a7 3c cf 43 fc bc
       0.007179927 -0.021344658 0.020388037 -0.030794052
0002f0 96 de 72 bd 07 28 8f bd f3 f3 84 3d 05 c0 c1 3d
       -0.059294306 -0.069900565 0.06491842 0.09460453
000300 15 6f 90 3d bd ff 5e bc fb 49 9b 3d 3b c1 d3 3d
       0.07052437 -0.013610777 0.0758247 0.1033959
000310 b5 9e ae bd 40 8d f9 bc bd da ff bd f4 d8 4a bc
       -0.08526365 -0.030462861 -0.12492893 -0.012380827
000320 97 dd e0 3d a8 fa 9f 3d 7b 71 a1 bd c2 80 c9 bc
       0.10979765 0.07811481 -0.07882973 -0.02459753
000330 f0 87 c6 3c 5d 04 50 bd 7a b6 35 bd ba a2 c1 3d
       0.024234742 -0.05078541 -0.044363476 0.09454866
000340 0d 9b b5 bd 1b 60 df bd 73 c3 cb 3d 23 04 b5 3d
       -0.08867464 -0.109070025 0.09949388 0.0883868
000350 50 88 e3 bd d3 b3 91 bd 80 52 7c bd fe 8d f1 bd
       -0.11109984 -0.07114377 -0.061602116 -0.11794661
000360 28 7a 36 bd cf c8 24 3d 5e 3f a6 bd cb 4e b3 bd
       -0.04455009 0.04023057 -0.08117555 -0.08755263
000370 d5 f2 db 3c 30 cc 77 3c 53 56 94 ba 63 06 ba bb
       0.02684919 0.015124366 -0.001131723 -0.005677031
000380 05 70 87 3b 31 f9 02 3e 73 e0 d9 3d 7e 85 a6 bd
       0.004133227 0.12790371 0.106385134 -0.0813093
000390 aa 95 e7 3c 87 d7 84 bb 21 b3 94 bd cc bf b6 3c
       0.028269608 -0.004054013 -0.072607286 0.022308253
0003a0 32 11 74 3d fe c3 10 bb 7e 62 c3 3d dd af f7 3d
       0.05958671 -0.0022089477 0.0954027 0.1209409
0003b0 7f b6 cf 3d 40 c1 f1 bd db 5a 24 3a 1a e8 a8 3c
       0.1014223 -0.11804438 0.0006269642 0.020618487
0003c0 57 5a f6 3d ca 12 32 bc 53 3a d4 bd c8 c6 8a bd
       0.1202895 -0.0108687375 -0.10362687 -0.06776196
0003d0 d9 eb 22 bc 8b 8a 4f bd 62 10 9c bc 07 10 c0 3d
       -0.009943926 -0.050669234 -0.01905078 0.09378057
0003e0 6c 8d 75 bc 09 2c f8 bd 35 2b 07 3d be 44 cb 3c
       -0.014987331 -0.12117774 0.03300019 0.024813052
0003f0 25 6d 67 3d 2a a4 47 bc 84 e1 5a 3d fc f5 01 3d
       0.056500573 -0.012185136 0.053437725 0.03172873

lstm.bias_hh_l0 f4 [256]
000000 53 0c 36 3d 75 d7 c0 3d 4a 42 97 bd ad 4c 2c bd
       0.044445347 0.09416095 -0.073856905 -0.04206531
000010 61 a6 74 3d 08 43 ed bd 5b ff ea bd 69 ae d1 bd
       0.059728984 -0.11585051 -0.114744864 -0.10238344
000020 59 6f b9 bd 4f f0 3e 3d a6 4e bd 3c a1 fc 8c bd
       -0.09054441 0.046615895 0.023108792 -0.06884123
000030 19 ca 50 3d df eb 93 3d b8 11 95 bd a0 8f 8a 3d
       0.050973985 0.07222723 -0.0727877 0.067656755
000040 a5 ee 9f bd a7 64 91 3c 59 33 a8 bd ea 99 9d bc
       -0.0780919 0.01774819 -0.08212919 -0.019238431
000050 12 3d e7 bd 38 0d db bd 16 35 68 3d 0c d6 96 3d
       -0.11290945 -0.10695881 0.05669125 0.07365045
000060 78 d6 0c 3d e1 b3 ca bb ae e9 d1 3d 80 7d ed bd
       0.03438422 -0.006185994 0.10249649 -0.11596203
000070 53 9d 3b bd 1d 6e 3f bd 21 07 80 bc da 23 d0 bd
       -0.045804333 -0.04673587 -0.0156284 -0.10163088
000080 1f 73 63 3c 92 46 0c 3d a4 7d 2e 3d 54 91 d0 3c
       0.0138824275 0.03424699 0.04260029 0.025459923
000090 38 98 b5 3c 51 33 b4 bd 4d b0 27 bb 7e ae 9f 3d
       0.02216731 -0.0879885 -0.0025587261 0.077969536
0000a0 c5 06 9a 3d 6f 79 9e bd 3c 24 c3 3d 6f 44 d6 bd
       0.075208224 -0.07738005 0.095283955 -0.104622714
0000b0 32 95 aa 3d 7d d2 43 3d 61 b2 d3 bd 13 2a 8d bc
       0.08329238 0.04780816 -0.103367575 -0.017231977
0000c0 ce 09 cd 3c 33 81 c4 bc 94 7a 01 bd 10 c3 3e 3d
       0.02502909 -0.023987388 -0.03161104 0.046572745
0000d0 66 0d 20 bd 5d 74 8f bc 6a 47 fc bd 14 27 5f 3d
       -0.039075278 -0.017511541 -0.12318309 0.054480627
0000e0 c8 53 60 3d 6e 78 76 3d cd 76 8b 3c 61 79 26 bd
       0.0547674 0.060173444 0.017024422 -0.0406431
0000f0 f2 b6 c4 3b fc 0a da 3d 42 80 93 3d 14 81 22 bd
       0.006003254 0.10646626 0.072021976 -0.03967388
000100 a4 1d a4 bd 06 1a 62 bd a4 fd 59 bd 9f eb d6 bd
       -0.08013466 -0.0552006 -0.053220406 -0.1049416
000110 32 5d 02 3e 8e 4f b1 3d e5 58 9b 3c 09 c5 dc 3d
       0.12730864 0.08657752 0.018963287 0.10779769
000120 18 57 a9 3d 50 08 0a bd 50 fb 41 3d 90 48 a0 bc
       0.08268565 -0.033699334 0.04735881 -0.01956585
000130 0f 52 92 bd 53 1b d1 3d 98 d9 aa 3c d6 f9 8c bd
       -0.07144558 0.1021029 0.02085571 -0.0688359
000140 9c c0 10 3d 9e f4 52 3c 78 0e 2c bb 8a 89 9f bd
       0.035339937 0.012875704 -0.0026253741 -0.07789905
000150 35 57 51 bc e4 40 39 bd 24 6a a6 3c 4b 17 aa bc
       -0.012777139 -0.0452279 0.020314284 -0.02076306
000160 6d e6 99 bd f6 b5 8d bd e8 2e 51 3d c0 90 c8 3d
       -0.07514653 -0.06919472 0.051070124 0.09793234
000170 7a f2 af bc 17 9c 6c bd d1 a7 87 bd 1c c4 b2 3d
       -0.021477927 -0.057766046 -0.06623805 0.08728811
000180 3f f4 e8 3d 7c 2a b6 bd ec d1 26 3d 7b a1 fe bc
       0.11374711 -0.08894822 0.04072754 -0.03108286
000190 0b 89 84 bd aa ce 75 3d 40 5c 9d bd 3d 91 04 bd
       -0.06471451 0.060011543 -0.07683611 -0.032365073
0001a0 98 e3 74 bd aa e3 db bc 40 7b 1b bd 0b 1a fd 3b
       -0.059787363 -0.026841957 -0.037959337 0.007724052
0001b0 2a c6 14 bd 20 d4 89 3d 50 7e ca 3d a0 d7 ab 3d
       -0.036321796 0.06729913 0.098873734 0.083907366
0001c0 10 4d 60 bd d8 af f7 bc 6e 9c d7 bd f0 5e 0f bd
       -0.054760993 -0.030235216 -0.105278835 -0.03500265
0001d0 79 e5 c6 3d 21 c6 0e bd f8 7a 62 3c ef 5d ee 3b
       0.09711737 -0.03485692 0.013823263 0.0072743814
0001e0 aa fe f2 bd 8a f8 a2 3d cb 7b a6 bc 68 51 d0 bd
       -0.118649796 0.07957561 -0.020322701 -0.10171777
0001f0 88 a4 0a 3d c3 cb 9b bb 7d 04 9e 3d 27 ec df 3b
       0.033848315 -0.004754515 0.077157 0.0068335715
000200 f9 83 68 bd 94 58 32 bd 1c 8c aa 3d ba 57 02 3d
       -0.056766484 -0.043541506 0.08327505 0.031821944
000210 f9 45 9f bd 7f 03 fc 3d 6d 21 f5 3d a4 8f 04 bd
       -0.07777018 0.12305354 0.11969266 -0.03236355
000220 56 15 0f bd 99 8a b5 bd 24 5a 0a bd 7d e9 68 3d
       -0.034932457 -0.08864326 -0.03377737 0.056863297
000230 c0 04 ce bb d3 e5 35 bc 05 e7 d5 bd 9e a8 45 3d
       -0.0062871873 -0.011102158 -0.10444454 0.04825651
000240 f7 b4 89 3d ae c8 d9 3d 91 c7 94 3d 3a 7f 0e bc
       0.067239694 0.1063398 0.07264627 -0.008697325
000250 36 9b b9 bd 71 18 3f bd f4 7d a5 3d 35 68 00 3e
       -0.09062807 -0.04665417 0.08080664 0.12539752
000260 7b db e3 bc c2 33 ea 3b 72 2a 6b 3d e2 b8 8a bd
       -0.027814617 0.0071472833 0.057413526 -0.06773545
000270 a5 3b 88 bd 9d 39 d8 bc 03 85 df 3d 16 7c a8 bd
       -0.06652001 -0.02639466 0.10914042 -0.082267925
000280 0b e2 b0 3d 70 9e 56 3d 02 9b e2 3d 2a 69 74 bd
       0.08636864 0.05239719 0.11064722 -0.059670605
000290 96 e2 c0 bd 6f 72 84 bd 75 ed 16 bb d3 53 a5 3a
       -0.09418218 -0.06467139 -0.002302972 0.0012613483
0002a0 be 95 55 3d 22 69 7a 3d 4a 5e 62 3c 26 18 f3 3d
       0.05214476 0.06113542 0.013816426 0.1186984
0002b0 93 76 da 3d f8 95 f6 3d d9 56 d9 3d 55 0a f4 3d
       0.106671475 0.12040323 0.10612268 0.11916033
0002c0 88 d1 50 bd bc ff ad 3d e7 a7 e6 bd 4a d1 e3 3b
       -0.050981075 0.08496043 -0.112624936 0.0069524394
0002d0 66 68 fd bd af 36 9b 3c b2 de d1 3b e9 db d8 3d
       -0.12373428 0.018946974 0.006404721 0.105888195
0002e0 2a 9d 9d bc 81 81 61 bc fd c5 66 3d 16 7a 22 bd
       -0.01923998 -0.013763786 0.05634116 -0.03966721
0002f0 02 cb 78 bd ca df c3 bc c3 8f e9 bd 61 ec 8c bd
       -0.06074048 -0.023910422 -0.114043735 -0.06881023
000300 05 bf f2 3c 7c 98 5d bd 01 d5 be 3d c9 a7 ae bd
       0.0296321 -0.0541005 0.09317971 -0.08528096
000310 5a e6 d8 bc 98 e5 c8 bd e0 d8 1d bd 5a 85 62 bd
       -0.026477028 -0.098094165 -0.038536906 -0.055302955
000320 97 9e 8c 3d e9 31 cd bc ce 2e 83 3c f2 6b 6f 3d
       0.06866186 -0.025048213 0.01601353 0.058452554
000330 f0 0b 01 3e 9b 65 be 3d 78 77 a9 3d 64 4a 87 bd
       0.1260221 0.092967235 0.0827474 -0.06605986
000340 2a ee 4a 3d e0 eb 5a 3c 1b b3 73 bd e3 4b fa bd
       0.049543537 0.013361901 -0.05949698 -0.122215055
000350 d0 37 84 bb a1 98 b8 3c e4 07 9a bd 36 fa 94 3d
       -0.0040349737 0.022533717 -0.07521036 0.072742864
000360 0b e8 ad bd a8 f7 f3 bc 30 8c f6 3b cb 34 b1 3d
       -0.08491524 -0.029781178 0.007524036 0.086526476
000370 f3 1e f2 bd cf be b9 bd 04 7b 8a 3d bb bd ff 3c
       -0.11822309 -0.09069597 0.067617446 0.0312184
000380 f2 b4 af bd 69 ed 02 3e a7 92 2d 3d 8f f6 13 3d
       -0.085794345 0.12785877 0.042376187 0.03612381
000390 8e 17 3e bc 1d a6 37 bc 8c b0 02 3e 44 14 be bd
       -0.011602296 -0.011209038 0.1276266 -0.09281209
0003a0 3c 87 0e 3c 5b c8 12 3c cb 70 01 be fb fc 43 3c
       0.008699235 0.008958901 -0.12640683 0.011962171
0003b0 f9 0d e1 3d 80 a7 5e bd f3 1e 46 bd 20 d7 ea bd
       0.10988993 -0.05435896 -0.04836936 -0.11466813
0003c0 57 58 c5 3c cb c9 08 bd 23 d2 8e bd 90 79 88 bd
       0.024089975 -0.03339557 -0.06973674 -0.06663811
0003d0 68 b9 26 3d 4a 6e 8c 3d ba e2 98 bc 51 32 67 bc
       0.04070416 0.068569735 -0.0186628 -0.014111117
0003e0 6e 40 e2 3c 53 bf 68 bd 73 5b 30 bd 88 de 3a bd
       0.027618613 -0.056823086 -0.043055963 -0.04562238
0003f0 40 6b b2 3d 42 ee b0 bd e9 d5 a5 3c 0d 25 9a 3d
       0.087118626 -0.08639194 0.020243602 0.07526598

lstm.weight_ih_l1 f4 [256, 64]
000000 c7 41 47 bd 4f d4 9c 3d 6e de cb bd d9 56 ac bd
       -0.048646715 0.07657682 -0.099545345 -0.084150024
000010 c4 c6 23 bd fb b3 9c 3c e1 c9 92 bd 41 e9 34 bd
       -0.03998448 0.01912879 -0.071674116 -0.04416776
000020 b9 50 87 ba 96 1e dc bd 4c 75 5f bb 10 07 9d 3d
       -0.001032374 -0.10748021 -0.0034097014 0.07667363
000030 47 6e c3 3d 98 fc 69 3d 8c 57 10 3a 1f ec fc bd
       0.09542518 0.057125658 0.00055062096 -0.12349724
000040 6e a2 f7 bd bd 3b 38 bd 51 37 bd bd 08 2c bf 3d
       -0.12091528 -0.044978846 -0.092390664 0.0933457
000050 2b 04 c0 3c 60 61 40 bd d3 ba 04 bd 63 61 e3 bd
       0.023439487 -0.046967864 -0.032404732 -0.111025594
000060 f0 f4 66 3d 9c b4 e8 bd 39 07 f8 bd 5a 23 42 bc
       0.056385934 -0.113625735 -0.121107526 -0.011849249
000070 21 df b4 bc c6 08 80 3d 0f eb bb 38 98 85 f6 3d
       -0.022079052 0.062516734 8.960638e-05 0.120372
000080 3e 4e 07 3d a8 cb 0f bd 7a c7 01 3c 89 88 81 3d
       0.033033602 -0.03510633 0.007921094 0.0632487
000090 ae 36 e1 bd c8 cd bf 3d b5 54 e2 3d d8 75 7a 3d
       -0.109967574 0.093654215 0.11051313 0.06114754
0000a0 04 84 81 3d 29 c7 73 bd 92 30 f2 bd 21 f2 f1 bc
       0.06324008 -0.059516106 -0.1182567 -0.029534401
0000b0 c0 7f c4 bd e5 5a 54 3d 00 44 78 bd dc ca 3e 3d
       -0.09594679 0.051844496 -0.060611725 0.04658018
0000c0 a1 50 9d 3d 00 d3 36 bd f0 f9 81 3d cb ec 04 bd
       0.07681394 -0.04463482 0.063465 -0.032452386
0000d0 4b 17 f5 3d 63 8f 29 3d 5e 2b c0 3d 49 46 09 3d
       0.119673334 0.04139651 0.09383272 0.033514295
0000e0 2e 5f a2 bd 84 31 b3 bd 19 3e c0 3d a2 28 4d bd
       -0.0792831 -0.08749679 0.09386844 -0.05008758
0000f0 14 a4 95 bd f8 d5 a4 3d d8 de 8c bd 2b d6 18 3d
       -0.07306686 0.08048624 -0.068784416 0.03731362
000100 b9 c0 92 bd d1 71 8d 3d 9b 0f 92 3d 3a dc 21 3d
       -0.07165665 0.069064744 0.07131883 0.039516665
000110 9a 8a 8e 3d f0 9d e3 3b 55 31 7b 3d 48 9d 9f bb
       0.0696003 0.006946318 0.061326344 -0.0048710443
000120 8d 69 c0 3b 2a 85 62 bb 4b c8 a1 bd 0a 4a e7 3d
       0.0058719576 -0.0034564235 -0.07899531 0.11293419
000130 aa 26 d2 bd 44 3c 63 3b 1e b0 11 3d 51 2b 9e bb
       -0.10261281 0.0034673372 0.03556835 -0.004826941
000140 20 11 a8 bd 53 35 9a bd b4 54 bf bd 95 49 ab 3c
       -0.08206391 -0.07529702 -0.09342328 0.02090911
000150 ef e9 86 3d 0b b8 b9 bd d6 e1 c4 3d e9 7c ae bd
       0.06587588 -0.090683065 0.09613387 -0.085199185
000160 00 c0 21 bb 9f a9 dc bd b7 15 1f bd 3b f3 b3 3d
       -0.0024681091 -0.1077454 -0.03883907 0.08786627
000170 3b d8 e5 bd ce 65 e1 bd f9 50 8c bd b3 61 15 bd
       -0.11222883 -0.11005746 -0.06851382 -0.036470126
000180 b1 38 94 3d aa 73 30 3d 74 fe 34 3d 4d 16 d2 3c
       0.072373755 0.043079056 0.044187978 0.0256454
000190 b5 4b 6b bc e5 db e4 bd 9c 9d f6 3d fb 77 fe bd
       -0.014361312 -0.11174754 0.1204178 -0.12425228
0001a0 a4 f4 fb 3d 1d 1b be 3d d8 6a 4c bd 74 6d c7 bd
       0.12302521 0.09282515 -0.04990658 -0.097376734
0001b0 7f a2 9c 3d f4 ee c4 3d d4 70 d2 bd af 4a 70 bc
       0.07648181 0.09615889 -0.102754265 -0.014666243
0001c0 90 ac 2b bb d3 ba 75 3d 47 24 ab bd 31 5d c0 3c
       -0.0026195385 0.059992623 -0.08356529 0.023481937
0001d0 50 ee 20 3d 23 cb 84 bd 22 61 9f bd f3 32 46 3d
       0.039289773 -0.06484058 -0.077821985 0.048388433
0001e0 8a 54 2d 3c c3 45 41 bd a0 93 68 bd bd 34 f4 bd
       0.010579238 -0.04718567 -0.05678141 -0.119241215
0001f0 e3 de a6 3d d6 d6 4d 3d eb 60 40 39 6a 2c bb 3d
       0.08147981 0.05025371 0.00018346652 0.09139331
000200 90 57 29 3c a6 75 fc 3d 88 a2 a0 bb 99 89 97 bd
       0.010335818 0.12327127 -0.0049021877 -0.073992915
000210 1f b2 6f bc 57 74 ea 3c d9 f8 05 ba 7a b9 31 3d
       -0.01462987 0.028619928 -0.00051106286 0.043389775
000220 f5 ea bc 3d 80 bb 29 bd 1a 27 89 bd 4a 60 9c 3c
       0.09224502 -0.04143858 -0.06696911 0.019088883
000230 4c ca e7 bd 01 dc e2 3b 0d 89 6b bd bf 3f b0 bd
       -0.11317882 0.006923199 -0.05750375 -0.086059086
000240 95 96 af bd 18 ac de bd ee 95 e7 3d 8d ff 78 bc
       -0.08573643 -0.10872668 0.11307894 -0.015197647
000250 c4 0f c4 bc 00 7d 59 3d 10 40 45 bd 79 2f a9 3d
       -0.023933299 0.053097725 -0.048156798 0.08261008
000260 9d 07 92 3d 0f 17 de bd 16 8b c9 3c 26 9a 95 3d
       0.07130358 -0.10844242 0.024602454 0.07304792
000270 ae 12 99 3d 72 9b 8e 3d 96 db d2 bd 4d ce 84 3d
       0.07474266 0.069632426 -0.10295789 0.06484661
000280 6b c7 ab 3d 0d 63 f1 bd 39 4b f8 bb c9 24 f5 3d
       0.08387645 -0.117864706 -0.0075773266 0.11969907
000290 71 ee 28 bc df 3e a1 3d 64 54 71 3c a5 25 ff bd
       -0.010310755 0.0787332 0.014729593 -0.12458352
0002a0 32 ad 64 3c 0c 66 ed 3d 1f 48 fc bd 26 02 b5 bd
       0.013957309 0.115917295 -0.123184435 -0.088383004
0002b0 5b 19 e0 3d 53 01 46 bc a7 f0 84 3d 89 e3 41 3d
       0.10942336 -0.012085277 0.06491213 0.047336135
0002c0 df 57 f2 bd 6b c5 eb bd 36 40 97 3d 72 2f 73 3d
       -0.11833166 -0.11512264 0.07385294 0.05937142
0002d0 de ed 99 3c 46 e4 e7 bd 5c 8a b5 bd e9 76 dc bd
       0.018790182 -0.113228366 -0.088642806 -0.10764868
0002e0 97 e3 e1 bd d4 ee 46 3d e5 62 27 3d 2e 10 c2 bd
       -0.110297374 0.048567608 0.040865798 -0.09475742
0002f0 ef 06 b1 3d 7a 5e de bc dc 82 9e bd f8 8a 02 3d
       0.086439006 -0.02714466 -0.07739803 0.031870812
000300 de 92 d4 3d fd df f7 3c 4c 97 02 3d c1 07 81 bd
       0.10379575 0.030258173 0.03188257 -0.06300307
000310 bd a0 5d 3d d2 8e 37 3c 1b ca 93 bc ff 1f 7e bd
       0.05410837 0.011203485 -0.018040707 -0.062042233
000320 af c5 dd bd 6c 0e fe 3c f7 f9 8d bd e4 b5 c8 3c
       -0.10828721 0.031012736 -0.06932443 0.024500795
000330 e9 bc d7 bd 04 9d 92 bd d1 c1 f3 3d cd 03 93 3d
       -0.10534079 -0.071588546 0.11902202 0.07178459
000340 eb aa 7c bb 7c 0e 86 bd 16 48 fb 3d 39 28 a3 bb
       -0.0038554023 -0.065457314 0.12269609 -0.00497916
000350 a6 d1 2e bc 5b e1 b2 bc f2 f2 89 3c 40 f9 cc 3d
       -0.010670101 -0.021835973 0.016839478 0.10008478
000360 af b6 43 bb 7d fe a0 bc 47 5f 46 bd 8e 91 6b bd
       -0.0029863527 -0.0196526 -0.048430707 -0.05751186
000370 32 fd dc 3d e8 21 b4 3c 16 04 cd 3c 08 5b e8 bd
       0.10790481 0.021988824 0.025026362 -0.11345488
000380 1c 8f 2f bc 55 8e 10 bc 76 75 1f bd 43 10 83 3d
       -0.010715272 -0.008822997 -0.03893038 0.06399586
000390 99 a1 93 bd f3 f2 e1 3d c8 78 84 bd 67 9e d9 3d
       -0.07208557 0.11032667 -0.0646835 0.10625916
0003a0 94 00 91 3b e4 1b af 3d 0b 1c 02 bd ff cf 1a 3d
       0.0044251177 0.085502416 -0.031765025 0.037796017
0003b0 f9 f9 93 bd 52 b5 ec 3d 66 40 64 3c ff a4 81 bd
       -0.07225413 0.115580216 0.013931369 -0.06330299
0003c0 35 d6 c8 3d 55 74 95 bd 67 0f 3e 3d 83 e4 ea 3d
       0.09806482 -0.07297579 0.046401408 0.114693664
0003d0 b0 d3 d1 3c 1e 87 b3 3c 9d 28 01 3d a0 df f3 3d
       0.025613636 0.021915015 0.031532872 0.119078875
0003e0 e7 a3 d3 3d ec e2 d1 bd 4e c2 80 bd 63 e1 0c bd
       0.10333996 -0.1024836 -0.06287061 -0.034394633
0003f0 35 50 97 3b c2 95 60 3d 55 74 3f bd f0 94 be 3d
       0.0046177157 0.05483032 -0.046741802 0.09305751

lstm.weight_hh_l1 f4 [256, 64]
000000 1e 0d 41 bd b0 1e 3a bd b4 00 eb 3d 58 63 c8 3d
       -0.04713165 -0.045439422 0.114747435 0.09784573
000010 e1 ee 99 bd f9 44 07 bd 6b fa f2 39 4b 06 96 bc
       -0.07516266 -0.03302476 0.00046344413 -0.018313548
000020 1d 1f e0 bd 03 ff f2 3d c9 2d f4 3c 01 c8 0a 3d
       -0.109434344 0.11865046 0.029806988 0.033882145
000030 b8 28 13 3c 28 34 ab 3c 0f 7e 6a bd e1 30 67 3d
       0.008981876 0.020898893 -0.057249125 0.0564431
000040 a0 3f 3f 3d 52 09 a1 bd cf 9a dd 3d 09 a0 25 3d
       0.046691537 -0.07863106 0.10820543 0.040435825
000050 b2 3a ff 3d a3 dd f0 bd d2 50 92 3d cc 46 a1 bc
       0.12462367 -0.11761024 0.071443215 -0.019687079
000060 34 c7 e0 bc 56 b8 5e 3d 80 7a 37 3d 9a 71 ec 3d
       -0.027438737 0.054375015 0.04479456 0.11545105
000070 38 08 3a 3d ad e2 3b bd d0 e8 a8 3d 3f c2 42 bd
       0.045417994 -0.04587047 0.082475305 -0.04754853
000080 d7 cc 0a bd f5 16 1f bd da 93 be bd b1 32 46 3d
       -0.033886757 -0.038840253 -0.09305544 0.048388187
000090 20 5b b4 3d ef d3 8a bd 3f 2f c9 bd 7c c7 2e 3d
       0.08806443 -0.067787044 -0.098234646 0.042670712
0000a0 43 a0 0b 3d 69 c9 f1 bd 56 aa 6c 3d 7a ea 15 3d
       0.034088384 -0.11805994 0.057779633 0.036600567
0000b0 24 63 bd 3d 28 4e 04 3c 40 9a 93 3d 12 38 fb 3d
       0.09247425 0.0080752745 0.07207155 0.12266554
0000c0 f7 45 b7 bd cc b4 9f bc e8 c8 e6 bd f8 30 b3 3c
       -0.089488916 -0.01949539 -0.112687886 0.021873936
0000d0 b4 f8 b6 3d 1a 88 2f bd 2d cc f2 bd 8e 12 2a bd
       0.08934155 -0.042854406 -0.1185535 -0.0415216
0000e0 88 76 08 3b 81 b5 66 3d 66 63 90 bc cb 07 d4 bb
       0.0020822603 0.05632544 -0.017625522 -0.0064706556
0000f0 81 74 bd bc 3c 8b c7 3d cf 33 7b bd 7f 8c 6e 3d
       -0.023126842 0.09743354 -0.061328705 0.058239456
000100 cd 2d 6f bc 43 cc 52 3d 7b 57 e6 3d db 27 35 3d
       -0.014598322 0.05146433 0.11247154 0.044227462
000110 7e f1 ee bc d6 19 6f bd 6d 04 78 3d 66 0d e3 bd
       -0.029167887 -0.05837425 0.060551096 -0.1108654
000120 3b 1c 72 3c 81 06 66 3d 8d c7 ce 3d 2b 7c e8 bd
       0.0147772385 0.056158546 0.10096655 -0.11351808
000130 71 97 57 3d a1 06 fa bd c0 24 28 bc cf dc 26 3b
       0.05263466 -0.122082956 -0.010262668 0.0025461202
000140 20 fc 6d bd c8 9a fb bc 69 ac f1 3d b2 bb f4 3d
       -0.058101773 -0.030713454 0.11800463 0.119498625
000150 ad cd 20 3d 5c c0 a8 bd dc 05 94 bd 4a 57 d0 3d
       0.039258648 -0.08239815 -0.0722768 0.10172899
000160 54 ea 2d 3d e4 78 d0 bd 02 bf 2e 3d 4f f8 8e bd
       0.0424598 -0.10179308 0.042662628 -0.06980955
000170 bf 56 6e bd b7 6e e5 bc b6 30 98 3d c8 bf 9f bd
       -0.058188196 -0.028006895 0.07431166 -0.07800251
000180 e8 c8 1a bd 8b 3f 42 bc a6 1a c7 3d 0a 75 63 3d
       -0.037789255 -0.01185597 0.0972188 0.05553154
000190 ff a8 6c bd b6 9e 89 bc 05 85 41 3d b8 8f 60 3d
       -0.057778355 -0.016799312 0.047245998 0.05482456
0001a0 51 e5 f5 bd dd bd c6 bd b2 ad 4f 3d 28 83 b5 3c
       -0.12006629 -0.09704182 0.050702758 0.022157267
0001b0 63 60 cd 3d d1 ff e9 3d e7 6e 8f 3d 32 4f c3 3d
       0.1002815 0.11425746 0.07003575 0.0953659
0001c0 6c dc 89 bd a9 ef 35 bd f5 38 80 bd f9 8f 01 bd
       -0.06731495 -0.04441801 -0.06260864 -0.031631444
0001d0 93 64 42 bd 89 d3 2d 3d 10 78 76 3d d5 6a ae bd
       -0.047459196 0.042438064 0.060173094 -0.0851647
0001e0 2e 96 23 3d cb ae 98 3d d8 67 0a 3c 0c 69 f4 3c
       0.039938144 0.07455214 0.00844761 0.029835247
0001f0 5b 06 75 bd 2c 8a 63 3d 2b a4 c6 bd f0 6f 04 bc
       -0.059820514 0.055551693 -0.09699281 -0.008083329
000200 80 9e 4c 3d 7f df 01 be bd 92 eb bd eb a3 91 bd
       0.049955845 -0.12682913 -0.115025975 -0.07111343
000210 45 39 df 3d ce c4 81 3d a2 16 73 3d cd 02 92 3d
       0.10899595 0.06336366 0.059347756 0.071294405
000220 aa 3c e1 3d 78 cb 59 bd ae f9 ed bd b7 69 29 3c
       0.10997899 -0.05317256 -0.11619888 0.010340146
000230 6b b2 ec bc a3 4a c9 3d d9 18 91 bd 58 ad c9 bb
       -0.02889367 0.09828689 -0.070848174 -0.0061546974
000240 9b 94 bf 3d 2b f4 10 bb bc 7e 87 3d 0f ff 5e bd
       0.09354516 -0.0022118192 0.066159695 -0.05444246
000250 a9 e3 ea bc ad 40 17 bd e0 e5 80 bc 2e c1 fa 3d
       -0.02867301 -0.036926914 -0.015734613 0.12243877
000260 06 27 9a bd 49 29 9a bd 26 84 ba bd 9c 6f 3d bd
       -0.075269744 -0.07527406 -0.091072366 -0.046249017
000270 4c 2b 89 bc 8b 27 40 bd 51 8f b9 bc e2 6b 88 bd
       -0.016744278 -0.04691271 -0.022651346 -0.06661202
000280 8c 42 d4 bd 78 8b cc bd d5 32 23 3d 1d e9 2d bd
       -0.10364255 -0.09987539 0.0398434 -0.042458642
000290 0f 9e 49 3d e0 61 49 bd a7 a2 2a 3d c7 e2 a6 bd
       0.049223002 -0.049165606 0.041659024 -0.08148723
0002a0 a8 f8 cc 3d 36 bb f1 bd 1c f1 b9 3d f5 66 01 bd
       0.10008365 -0.11803286 0.09079191 -0.031592328
0002b0 47 ba d6 3b 0e 3c 07 3c f1 9f c1 3d 1d 26 5d bb
       0.0065529677 0.008254064 0.094543345 -0.003374464
0002c0 50 8b 11 bd bf 00 ae 3c 2a 54 e8 bc b3 a6 ce bd
       -0.03553325 0.02124059 -0.028360445 -0.10090389
0002d0 cd 5e 80 3d d5 e5 99 b9 29 58 f2 bd 32 15 ab 3d
       0.06268082 -0.00029353672 -0.118332215 0.08353652
0002e0 e8 07 48 bd 3c b9 e0 bd 20 80 a5 bc ef 72 41 3d
       -0.048835665 -0.10972831 -0.020202696 0.04722875
0002f0 b1 a4 85 bd 38 0a f6 3d fd 12 3a 3d 13 2c 5e bd
       -0.06525553 0.12013668 0.045428265 -0.05424125
000300 b8 d2 a2 3d 71 d5 01 3d 18 a2 f1 3d b6 40 a6 3d
       0.07950348 0.031697694 0.11798495 0.081178114
000310 e7 31 91 3d 60 6f d9 bd 2b 8b c8 bc d1 fe d4 bc
       0.07089596 -0.10616946 -0.024480423 -0.026000412
000320 cc 49 b6 bd 63 e7 e6 bd 18 94 89 3d f8 d7 a4 bd
       -0.089007944 -0.11274602 0.067177 -0.08049005
000330 10 2a c5 3d 13 2b 85 3d cb da ba 3d a4 9c de 3d
       0.096271634 0.065023564 0.09123763 0.108697206
000340 03 2a c6 3d 90 78 d2 3d 6e f6 c2 3c e4 58 b6 bd
       0.09675982 0.10276902 0.023799147 -0.08903673
000350 1f b1 8d bd a3 57 c0 3d 69 e9 d6 3c 61 b5 96 3b
       -0.06918549 0.093917154 0.026234346 0.004599259
000360 e4 f8 a2 bd 5a 4c 95 3d f9 da dc 3d de 31 ce 3d
       -0.07957628 0.072899535 0.10783953 0.10068105
000370 68 54 ea 3d 47 b7 14 3d 60 34 c6 3d ac bc c6 ba
       0.114418805 0.0363076 0.096779585 -0.001516243
000380 13 c5 33 bd 2a a1 c8 3d cb 52 b9 bd b5 16 2c 3d
       -0.043889116 0.097963646 -0.09048995 0.042013843
000390 07 ce cf bc 5e 7a c4 bc 5c bc d3 3d 25 d9 8a 3d
       -0.025366796 -0.02398413 0.10338661 0.06779698
0003a0 a2 62 4a 3d bc 43 de 3d 68 69 8b 3d 06 33 58 3d
       0.04941047 0.10852763 0.06807214 0.052783035
0003b0 73 c6 0c 3d 36 59 c5 bd 47 8c f8 ba 86 8d 7b 3c
       0.034368943 -0.09636156 -0.0018962704 0.015353566
0003c0 c6 46 c7 3d 54 b2 89 bd 71 87 59 bb bf a6 06 bd
       0.09730296 -0.067234665 -0.0033192302 -0.032873865
0003d0 59 38 8a 3d a3 e1 e9 3d b8 a8 91 3d 9b 01 a1 3c
       0.06749029 0.1141999 0.07112259 0.019654086
0003e0 04 d8 fc 3d 3b 84 45 bc 70 29 f8 3d a4 0b b9 bd
       0.12345889 -0.012055452 0.121172786 -0.090354234
0003f0 c8 b7 a2 bd 64 bd 77 3d 49 f2 d1 bc d1 49 be 3d
       -0.0794521 0.06048335 -0.025628226 0.09291423

lstm.bias_ih_l1 f4 [256]
000000 e3 36 6c 3d cb a9 d3 3d d0 55 61 bc e2 0c 12 bb
       0.05766953 0.1033512 -0.013753369 -0.002228551
000010 79 00 ee 3d 77 80 4e 3d 7e 51 35 3d 41 0f e5 3d
       0.11621184 0.050415482 0.04426717 0.1118455
000020 89 9b 34 3d 7f f7 aa bd b4 23 a9 bd f5 df d4 3d
       0.044093642 -0.083479874 -0.08258763 0.10394279
000030 ca 26 8b bd 50 5b 2c 3c 1c 14 a7 3d e0 e7 5b bc
       -0.06794508 0.0105198175 0.081581324 -0.0134219825
000040 26 01 6b 3d 3c d4 dc 3d 2d b1 be 3d a8 75 e5 bd
       0.057374142 0.10782668 0.09311137 -0.11204082
000050 b3 fc d8 3c a2 73 99 bd 1d 2c ed 3c e3 c4 f4 bc
       0.026487684 -0.07492758 0.028951699 -0.02987904
000060 98 a5 86 bd 4b 3d 6c bd e9 b2 59 bd 72 a0 71 3d
       -0.06574553 -0.05767564 -0.053149138 0.058990903
000070 bc 77 b4 3d 70 0a 6e 3d 00 d0 8a 3d 18 74 b8 3d
       0.088119 0.058115423 0.06777954 0.09006518
000080 a3 12 32 bb 03 58 75 3d 6c 19 7e bb db f7 8b bd
       -0.0027171753 0.059898388 -0.0038772477 -0.06834384
000090 d7 a5 98 bd 03 37 0d 3d ef 1e 67 bd ab e8 62 bc
       -0.074535064 0.03447629 -0.056425985 -0.013849418
0000a0 dd c8 4b 3d 95 02 c7 bc fd 29 ac 3d 24 19 a1 3c
       0.049752105 -0.024293223 0.08406446 0.019665308
0000b0 1a 84 f8 3c 57 d5 63 bc d0 e7 bd bd 6f 9e ed bc
       0.030336428 -0.013905845 -0.0927273 -0.029006211
0000c0 54 fb c7 3d f2 e0 ad 3d da 50 e4 3d e3 00 b2 bd
       0.09764734 0.084901705 0.11148234 -0.086915754
0000d0 8b f9 f1 3b 70 d6 3b bd 45 8b e5 3d 04 f5 51 bc
       0.007384484 -0.0458588 0.11208204 -0.012814764
0000e0 92 64 fe bc 45 0a 72 bd 38 b6 48 bd ef b4 06 bc
       -0.031053815 -0.059091825 -0.049001902 -0.008221849
0000f0 7d 3e 20 3d f9 ee 11 3d c5 8a fb bd 9f f5 a2 bd
       0.039122093 0.035628293 -0.122823276 -0.07957005
000100 70 45 19 3d 49 37 fb 3d 1d 06 a7 bc 22 c0 31 bc
       0.037419736 0.12266404 -0.020388657 -0.010849031
000110 6b 5b 85 3b 83 1a c0 3c 7d 41 d7 bc 85 15 0c 3c
       0.0040697358 0.023450142 -0.026276344 0.0085500525
000120 e3 c2 10 bd 35 f5 e6 bc 56 23 30 3d d0 b1 4f bb
       -0.03534211 -0.028193096 0.04300245 -0.0031691678
000130 29 cf fc 3c d2 fc 14 3d 20 f4 3b bd 35 7a 96 3d
       0.0308605 0.03637392 -0.045887113 0.07347528
000140 19 46 af bd 19 8a e9 3c 36 c6 ab bd 38 39 33 3d
       -0.08558292 0.028508233 -0.08387415 0.04375574
000150 81 87 9c bd 72 1c 53 3d 07 4e 5b 3d 00 47 72 3d
       -0.07643033 0.0515408 0.05354121 0.059149742
000160 17 01 fe bd 0b 26 c0 bd a6 ff b6 3d a0 13 07 3d
       -0.124025516 -0.09382256 0.0893548 0.0329777
000170 f2 fa 68 bd e8 c4 ab 3d fe 8e 5a bd dc 86 85 3d
       -0.056879945 0.08387166 -0.053359024 0.06519863
000180 ac 6e 94 3d 76 b3 d9 bd f3 e7 8d bd a7 53 a9 bd
       0.072476715 -0.106299326 -0.069290064 -0.082679085
000190 2f e9 d0 bd c8 5e c8 bd 65 5a e2 3c bf 28 81 3d
       -0.10200726 -0.09783703 0.027630994 0.063066
0001a0 7d f2 c9 3d d7 f1 be bd 0b c3 b1 bd fe 8c 39 bc
       0.09860704 -0.09323471 -0.086797796 -0.011325119
0001b0 1b 02 a9 3d 60 f3 d0 bd c6 20 f1 bd be 5e ff bc
       0.08252355 -0.1020267 -0.11773829 -0.031173106
0001c0 ff de ce bd 36 0d a6 bd 53 20 e7 ba c3 64 2f 3d
       -0.10101127 -0.081079885 -0.0017633535 0.042820703
0001d0 30 da b1 3d 7a a4 f7 bd 21 e7 91 bd 0f 05 46 bd
       0.08684194 -0.12091918 -0.071241625 -0.048344668
0001e0 7f 96 e5 3d 7c 11 9f 3d 7f 26 50 3c 8d 0a ef bc
       0.112103455 0.07767007 0.012704491 -0.029179836
0001f0 97 70 61 bc d7 77 89 3b 00 f8 5f bd 29 50 5c 3d
       -0.013759754 0.004195194 -0.05467987 0.053787384
000200 84 14 83 bd 03 b7 2c bd db bf eb 3d f2 61 8b 3d
       -0.064003974 -0.04216672 0.11511203 0.06805791
000210 65 f5 91 bd 7d 28 f1 bd 76 52 07 bd 3f b5 3f bd
       -0.071268834 -0.11775301 -0.033037625 -0.04680371
000220 12 d0 bc bd d9 1e c8 3d f1 3a 51 3d bc 94 a2 bd
       -0.09219374 0.09771509 0.0510816 -0.07938525
000230 c5 ad b6 bd 60 58 0b bc 48 45 43 3d e8 0e e7 3d
       -0.08919863 -0.008504957 0.047673494 0.1128214
000240 01 1f 9f 3d b9 4f 8f 3d 47 1b 16 3c ee dc 88 3c
       0.077695854 0.06997628 0.009161777 0.01670691
000250 38 58 ea 3d 38 81 ab 3c 38 2d c3 bd 74 6e a8 bd
       0.11442608 0.02093564 -0.09530109 -0.08224192
000260 8e 71 d0 bc 34 22 a9 bc 5a c2 87 bd df 9b 99 3d
       -0.025444772 -0.020646192 -0.066288665 0.07500433
000270 62 20 ee 3d 66 d2 3d bd 01 1c e9 3d ab d5 cd bd
       0.1162727 -0.04634323 0.113822944 -0.100505196
000280 78 62 9c bd 3d f7 49 bd 3b e9 0b bd 4b b4 e1 bd
       -0.07635969 -0.04930805 -0.034157973 -0.11020716
000290 fb 98 10 bd 9d a8 01 3d d6 da d3 3d ff e6 9c 3d
       -0.035302144 0.031654943 0.10344474 0.076612465
0002a0 98 4b 81 bc 50 93 a0 3d 50 22 a8 bc e5 2b 3b bd
       -0.015783116 0.07840598 -0.020524174 -0.045696158
0002b0 e3 52 dd 3d 8e 30 f0 bd 7a 3b 0d 3d 09 7a a7 bd
       0.10806825 -0.11728011 0.03448055 -0.08177573
0002c0 ef 40 3e bd 7d 36 cd 3d df 0b a7 bd ea 9d 8c 3d
       -0.046448644 0.100201584 -0.08156561 0.06866057
0002d0 d0 90 e4 3d df 04 ec 3d c4 17 82 3d 15 9c cc 3d
       0.11160433 0.115243666 0.06352189 0.09990708
0002e0 e8 63 66 3d d4 3b 2a bd 58 1a b4 3d cd c0 bd bd
       0.05624762 -0.041560963 0.08794087 -0.092652895
0002f0 ba 7c e1 3c a3 82 a7 bd 4f 3b f6 bb b9 0e bb bd
       0.027525295 -0.08179214 -0.0075143944 -0.091336675
000300 bb a9 e2 3d ce 23 d9 bd b0 78 18 bd 18 bd d6 bc
       0.1106753 -0.10602532 -0.03722447 -0.026213214
000310 22 ce 73 3c 6d 9f 53 3c 71 3c 62 bb f2 69 93 bd
       0.014880689 0.012916428 -0.003452089 -0.07197942
000320 67 71 20 3d 8c 17 a1 bc 9c 0b e3 bc 6b 54 b2 bd
       0.03917065 -0.019664548 -0.027715497 -0.08707508
000330 0c 54 2d bc e2 4c d1 3d 49 0d b9 bd 8a b2 c0 3d
       -0.01057912 0.10219742 -0.09035737 0.094090536
000340 91 28 f2 bd ed 4d 95 bc ca 2e 69 bd 95 05 56 bd
       -0.11824144 -0.018225634 -0.056929387 -0.052251417
000350 1e ef de 3d ad ba 3d 3d 9b 17 67 3d fd cc cc bd
       0.10885452 0.046320606 0.056418996 -0.10000036
000360 e1 76 8b 3d d9 a5 9a 3c 7d bf da bd 93 b0 b1 bd
       0.06809784 0.01887791 -0.10681055 -0.08676257
000370 c0 1c 88 bd 89 f0 96 3d 0f a9 c0 bd 03 e4 7e 3d
       -0.066461086 0.07370097 -0.09407245 0.062229168
000380 7a 69 92 3d 07 51 53 bc cd ed 16 3b 6c e9 7c bd
       0.07149024 -0.012897736 0.0023029924 -0.061746046
000390 de 67 9c 3d b4 ba 83 bd 1b 65 ca 3d 92 fa 47 3d
       0.076369986 -0.06432095 0.098825656 0.048822947
0003a0 a1 a1 38 3d 2a ad c5 3d 91 06 d9 bc fb 03 a6 bd
       0.045076016 0.09652169 -0.026492389 -0.08106228
0003b0 98 3b a3 bc e7 a6 eb bd 4d 27 fe 3d 3e d5 e5 ba
       -0.019925877 -0.115064435 0.1240984 -0.0017534865
0003c0 b5 80 4c 3a f5 28 3d bd 6a 90 c4 bd 22 25 91 bd
       0.0007801161 -0.046181638 -0.09597857 -0.07087161
0003d0 93 f2 11 bb 5b 71 83 3d be c2 fc bd 1c e7 3d 3c
       -0.002226983 0.06418105 -0.123418316 0.011590745
0003e0 50 6b a1 3c 8e 80 b5 bd 91 ed 61 bc 24 54 4b bd
       0.01970449 -0.088624105 -0.01378955 -0.04964079
0003f0 ad 35 23 3d 37 b9 d9 bc bd 7c f6 3d 2a 05 91 3c
       0.03984611 -0.026577575 0.12035511 0.017702658
